{"config": {"input_layers": [["input_4", 0, 0]], "layers": [{"config": {"batch_input_shape": [null, 224, 224, 3], "sparse": false, "name": "input_4", "dtype": "float32"}, "class_name": "InputLayer", "inbound_nodes": [], "name": "input_4"}, {"config": {"padding": [[3, 3], [3, 3]], "name": "zero_padding2d_1", "data_format": "channels_last", "trainable": false}, "class_name": "ZeroPadding2D", "inbound_nodes": [[["input_4", 0, 0, {}]]], "name": "zero_padding2d_1"}, {"config": {"kernel_size": [7, 7], "bias_constraint": null, "padding": "valid", "bias_regularizer": null, "activity_regularizer": null, "use_bias": true, "filters": 64, "dilation_rate": [1, 1], "strides": [2, 2], "data_format": "channels_last", "trainable": false, "kernel_regularizer": null, "name": "conv1", "activation": "linear", "kernel_initializer": {"config": {"mode": "fan_avg", "scale": 1.0, "distribution": "uniform", "seed": null}, "class_name": "VarianceScaling"}, "kernel_constraint": null, "bias_initializer": {"config": {}, "class_name": "Zeros"}}, "class_name": "Conv2D", "inbound_nodes": [[["zero_padding2d_1", 0, 0, {}]]], "name": "conv1"}, {"config": {"momentum": 0.99, "epsilon": 0.001, "moving_mean_initializer": {"config": {}, "class_name": "Zeros"}, "beta_regularizer": null, "scale": true, "gamma_initializer": {"config": {}, "class_name": "Ones"}, "name": "bn_conv1", "trainable": false, "center": true, "moving_variance_initializer": {"config": {}, "class_name": "Ones"}, "beta_initializer": {"config": {}, "class_name": "Zeros"}, "beta_constraint": null, "gamma_constraint": null, "axis": 3, "gamma_regularizer": null}, "class_name": "BatchNormalization", "inbound_nodes": [[["conv1", 0, 0, {}]]], "name": "bn_conv1"}, {"config": {"name": "activation_1", "activation": "relu", "trainable": false}, "class_name": "Activation", "inbound_nodes": [[["bn_conv1", 0, 0, {}]]], "name": "activation_1"}, {"config": {"pool_size": [3, 3], "padding": "valid", "strides": [2, 2], "data_format": "channels_last", "name": "max_pooling2d_1", "trainable": false}, "class_name": "MaxPooling2D", "inbound_nodes": [[["activation_1", 0, 0, {}]]], "name": "max_pooling2d_1"}, {"config": {"kernel_size": [1, 1], "bias_constraint": null, "padding": "valid", "bias_regularizer": null, "activity_regularizer": null, "use_bias": true, "filters": 64, "dilation_rate": [1, 1], "strides": [1, 1], "data_format": "channels_last", "trainable": false, "kernel_regularizer": null, "name": "res2a_branch2a", "activation": "linear", "kernel_initializer": {"config": {"mode": "fan_avg", "scale": 1.0, "distribution": "uniform", "seed": null}, "class_name": "VarianceScaling"}, "kernel_constraint": null, "bias_initializer": {"config": {}, "class_name": "Zeros"}}, "class_name": "Conv2D", "inbound_nodes": [[["max_pooling2d_1", 0, 0, {}]]], "name": "res2a_branch2a"}, {"config": {"momentum": 0.99, "epsilon": 0.001, "moving_mean_initializer": {"config": {}, "class_name": "Zeros"}, "beta_regularizer": null, "scale": true, "gamma_initializer": {"config": {}, "class_name": "Ones"}, "name": "bn2a_branch2a", "trainable": false, "center": true, "moving_variance_initializer": {"config": {}, "class_name": "Ones"}, "beta_initializer": {"config": {}, "class_name": "Zeros"}, "beta_constraint": null, "gamma_constraint": null, "axis": 3, "gamma_regularizer": null}, "class_name": "BatchNormalization", "inbound_nodes": [[["res2a_branch2a", 0, 0, {}]]], "name": "bn2a_branch2a"}, {"config": {"name": "activation_2", "activation": "relu", "trainable": false}, "class_name": "Activation", "inbound_nodes": [[["bn2a_branch2a", 0, 0, {}]]], "name": "activation_2"}, {"config": {"kernel_size": [3, 3], "bias_constraint": null, "padding": "same", "bias_regularizer": null, "activity_regularizer": null, "use_bias": true, "filters": 64, "dilation_rate": [1, 1], "strides": [1, 1], "data_format": "channels_last", "trainable": false, "kernel_regularizer": null, "name": "res2a_branch2b", "activation": "linear", "kernel_initializer": {"config": {"mode": "fan_avg", "scale": 1.0, "distribution": "uniform", "seed": null}, "class_name": "VarianceScaling"}, "kernel_constraint": null, "bias_initializer": {"config": {}, "class_name": "Zeros"}}, "class_name": "Conv2D", "inbound_nodes": [[["activation_2", 0, 0, {}]]], "name": "res2a_branch2b"}, {"config": {"momentum": 0.99, "epsilon": 0.001, "moving_mean_initializer": {"config": {}, "class_name": "Zeros"}, "beta_regularizer": null, "scale": true, "gamma_initializer": {"config": {}, "class_name": "Ones"}, "name": "bn2a_branch2b", "trainable": false, "center": true, "moving_variance_initializer": {"config": {}, "class_name": "Ones"}, "beta_initializer": {"config": {}, "class_name": "Zeros"}, "beta_constraint": null, "gamma_constraint": null, "axis": 3, "gamma_regularizer": null}, "class_name": "BatchNormalization", "inbound_nodes": [[["res2a_branch2b", 0, 0, {}]]], "name": "bn2a_branch2b"}, {"config": {"name": "activation_3", "activation": "relu", "trainable": false}, "class_name": "Activation", "inbound_nodes": [[["bn2a_branch2b", 0, 0, {}]]], "name": "activation_3"}, {"config": {"kernel_size": [1, 1], "bias_constraint": null, "padding": "valid", "bias_regularizer": null, "activity_regularizer": null, "use_bias": true, "filters": 256, "dilation_rate": [1, 1], "strides": [1, 1], "data_format": "channels_last", "trainable": false, "kernel_regularizer": null, "name": "res2a_branch2c", "activation": "linear", "kernel_initializer": {"config": {"mode": "fan_avg", "scale": 1.0, "distribution": "uniform", "seed": null}, "class_name": "VarianceScaling"}, "kernel_constraint": null, "bias_initializer": {"config": {}, "class_name": "Zeros"}}, "class_name": "Conv2D", "inbound_nodes": [[["activation_3", 0, 0, {}]]], "name": "res2a_branch2c"}, {"config": {"kernel_size": [1, 1], "bias_constraint": null, "padding": "valid", "bias_regularizer": null, "activity_regularizer": null, "use_bias": true, "filters": 256, "dilation_rate": [1, 1], "strides": [1, 1], "data_format": "channels_last", "trainable": false, "kernel_regularizer": null, "name": "res2a_branch1", "activation": "linear", "kernel_initializer": {"config": {"mode": "fan_avg", "scale": 1.0, "distribution": "uniform", "seed": null}, "class_name": "VarianceScaling"}, "kernel_constraint": null, "bias_initializer": {"config": {}, "class_name": "Zeros"}}, "class_name": "Conv2D", "inbound_nodes": [[["max_pooling2d_1", 0, 0, {}]]], "name": "res2a_branch1"}, {"config": {"momentum": 0.99, "epsilon": 0.001, "moving_mean_initializer": {"config": {}, "class_name": "Zeros"}, "beta_regularizer": null, "scale": true, "gamma_initializer": {"config": {}, "class_name": "Ones"}, "name": "bn2a_branch2c", "trainable": false, "center": true, "moving_variance_initializer": {"config": {}, "class_name": "Ones"}, "beta_initializer": {"config": {}, "class_name": "Zeros"}, "beta_constraint": null, "gamma_constraint": null, "axis": 3, "gamma_regularizer": null}, "class_name": "BatchNormalization", "inbound_nodes": [[["res2a_branch2c", 0, 0, {}]]], "name": "bn2a_branch2c"}, {"config": {"momentum": 0.99, "epsilon": 0.001, "moving_mean_initializer": {"config": {}, "class_name": "Zeros"}, "beta_regularizer": null, "scale": true, "gamma_initializer": {"config": {}, "class_name": "Ones"}, "name": "bn2a_branch1", "trainable": false, "center": true, "moving_variance_initializer": {"config": {}, "class_name": "Ones"}, "beta_initializer": {"config": {}, "class_name": "Zeros"}, "beta_constraint": null, "gamma_constraint": null, "axis": 3, "gamma_regularizer": null}, "class_name": "BatchNormalization", "inbound_nodes": [[["res2a_branch1", 0, 0, {}]]], "name": "bn2a_branch1"}, {"config": {"name": "add_1", "trainable": false}, "class_name": "Add", "inbound_nodes": [[["bn2a_branch2c", 0, 0, {}], ["bn2a_branch1", 0, 0, {}]]], "name": "add_1"}, {"config": {"name": "activation_4", "activation": "relu", "trainable": false}, "class_name": "Activation", "inbound_nodes": [[["add_1", 0, 0, {}]]], "name": "activation_4"}, {"config": {"kernel_size": [1, 1], "bias_constraint": null, "padding": "valid", "bias_regularizer": null, "activity_regularizer": null, "use_bias": true, "filters": 64, "dilation_rate": [1, 1], "strides": [1, 1], "data_format": "channels_last", "trainable": false, "kernel_regularizer": null, "name": "res2b_branch2a", "activation": "linear", "kernel_initializer": {"config": {"mode": "fan_avg", "scale": 1.0, "distribution": "uniform", "seed": null}, "class_name": "VarianceScaling"}, "kernel_constraint": null, "bias_initializer": {"config": {}, "class_name": "Zeros"}}, "class_name": "Conv2D", "inbound_nodes": [[["activation_4", 0, 0, {}]]], "name": "res2b_branch2a"}, {"config": {"momentum": 0.99, "epsilon": 0.001, "moving_mean_initializer": {"config": {}, "class_name": "Zeros"}, "beta_regularizer": null, "scale": true, "gamma_initializer": {"config": {}, "class_name": "Ones"}, "name": "bn2b_branch2a", "trainable": false, "center": true, "moving_variance_initializer": {"config": {}, "class_name": "Ones"}, "beta_initializer": {"config": {}, "class_name": "Zeros"}, "beta_constraint": null, "gamma_constraint": null, "axis": 3, "gamma_regularizer": null}, "class_name": "BatchNormalization", "inbound_nodes": [[["res2b_branch2a", 0, 0, {}]]], "name": "bn2b_branch2a"}, {"config": {"name": "activation_5", "activation": "relu", "trainable": false}, "class_name": "Activation", "inbound_nodes": [[["bn2b_branch2a", 0, 0, {}]]], "name": "activation_5"}, {"config": {"kernel_size": [3, 3], "bias_constraint": null, "padding": "same", "bias_regularizer": null, "activity_regularizer": null, "use_bias": true, "filters": 64, "dilation_rate": [1, 1], "strides": [1, 1], "data_format": "channels_last", "trainable": false, "kernel_regularizer": null, "name": "res2b_branch2b", "activation": "linear", "kernel_initializer": {"config": {"mode": "fan_avg", "scale": 1.0, "distribution": "uniform", "seed": null}, "class_name": "VarianceScaling"}, "kernel_constraint": null, "bias_initializer": {"config": {}, "class_name": "Zeros"}}, "class_name": "Conv2D", "inbound_nodes": [[["activation_5", 0, 0, {}]]], "name": "res2b_branch2b"}, {"config": {"momentum": 0.99, "epsilon": 0.001, "moving_mean_initializer": {"config": {}, "class_name": "Zeros"}, "beta_regularizer": null, "scale": true, "gamma_initializer": {"config": {}, "class_name": "Ones"}, "name": "bn2b_branch2b", "trainable": false, "center": true, "moving_variance_initializer": {"config": {}, "class_name": "Ones"}, "beta_initializer": {"config": {}, "class_name": "Zeros"}, "beta_constraint": null, "gamma_constraint": null, "axis": 3, "gamma_regularizer": null}, "class_name": "BatchNormalization", "inbound_nodes": [[["res2b_branch2b", 0, 0, {}]]], "name": "bn2b_branch2b"}, {"config": {"name": "activation_6", "activation": "relu", "trainable": false}, "class_name": "Activation", "inbound_nodes": [[["bn2b_branch2b", 0, 0, {}]]], "name": "activation_6"}, {"config": {"kernel_size": [1, 1], "bias_constraint": null, "padding": "valid", "bias_regularizer": null, "activity_regularizer": null, "use_bias": true, "filters": 256, "dilation_rate": [1, 1], "strides": [1, 1], "data_format": "channels_last", "trainable": false, "kernel_regularizer": null, "name": "res2b_branch2c", "activation": "linear", "kernel_initializer": {"config": {"mode": "fan_avg", "scale": 1.0, "distribution": "uniform", "seed": null}, "class_name": "VarianceScaling"}, "kernel_constraint": null, "bias_initializer": {"config": {}, "class_name": "Zeros"}}, "class_name": "Conv2D", "inbound_nodes": [[["activation_6", 0, 0, {}]]], "name": "res2b_branch2c"}, {"config": {"momentum": 0.99, "epsilon": 0.001, "moving_mean_initializer": {"config": {}, "class_name": "Zeros"}, "beta_regularizer": null, "scale": true, "gamma_initializer": {"config": {}, "class_name": "Ones"}, "name": "bn2b_branch2c", "trainable": false, "center": true, "moving_variance_initializer": {"config": {}, "class_name": "Ones"}, "beta_initializer": {"config": {}, "class_name": "Zeros"}, "beta_constraint": null, "gamma_constraint": null, "axis": 3, "gamma_regularizer": null}, "class_name": "BatchNormalization", "inbound_nodes": [[["res2b_branch2c", 0, 0, {}]]], "name": "bn2b_branch2c"}, {"config": {"name": "add_2", "trainable": false}, "class_name": "Add", "inbound_nodes": [[["bn2b_branch2c", 0, 0, {}], ["activation_4", 0, 0, {}]]], "name": "add_2"}, {"config": {"name": "activation_7", "activation": "relu", "trainable": false}, "class_name": "Activation", "inbound_nodes": [[["add_2", 0, 0, {}]]], "name": "activation_7"}, {"config": {"kernel_size": [1, 1], "bias_constraint": null, "padding": "valid", "bias_regularizer": null, "activity_regularizer": null, "use_bias": true, "filters": 64, "dilation_rate": [1, 1], "strides": [1, 1], "data_format": "channels_last", "trainable": false, "kernel_regularizer": null, "name": "res2c_branch2a", "activation": "linear", "kernel_initializer": {"config": {"mode": "fan_avg", "scale": 1.0, "distribution": "uniform", "seed": null}, "class_name": "VarianceScaling"}, "kernel_constraint": null, "bias_initializer": {"config": {}, "class_name": "Zeros"}}, "class_name": "Conv2D", "inbound_nodes": [[["activation_7", 0, 0, {}]]], "name": "res2c_branch2a"}, {"config": {"momentum": 0.99, "epsilon": 0.001, "moving_mean_initializer": {"config": {}, "class_name": "Zeros"}, "beta_regularizer": null, "scale": true, "gamma_initializer": {"config": {}, "class_name": "Ones"}, "name": "bn2c_branch2a", "trainable": false, "center": true, "moving_variance_initializer": {"config": {}, "class_name": "Ones"}, "beta_initializer": {"config": {}, "class_name": "Zeros"}, "beta_constraint": null, "gamma_constraint": null, "axis": 3, "gamma_regularizer": null}, "class_name": "BatchNormalization", "inbound_nodes": [[["res2c_branch2a", 0, 0, {}]]], "name": "bn2c_branch2a"}, {"config": {"name": "activation_8", "activation": "relu", "trainable": false}, "class_name": "Activation", "inbound_nodes": [[["bn2c_branch2a", 0, 0, {}]]], "name": "activation_8"}, {"config": {"kernel_size": [3, 3], "bias_constraint": null, "padding": "same", "bias_regularizer": null, "activity_regularizer": null, "use_bias": true, "filters": 64, "dilation_rate": [1, 1], "strides": [1, 1], "data_format": "channels_last", "trainable": false, "kernel_regularizer": null, "name": "res2c_branch2b", "activation": "linear", "kernel_initializer": {"config": {"mode": "fan_avg", "scale": 1.0, "distribution": "uniform", "seed": null}, "class_name": "VarianceScaling"}, "kernel_constraint": null, "bias_initializer": {"config": {}, "class_name": "Zeros"}}, "class_name": "Conv2D", "inbound_nodes": [[["activation_8", 0, 0, {}]]], "name": "res2c_branch2b"}, {"config": {"momentum": 0.99, "epsilon": 0.001, "moving_mean_initializer": {"config": {}, "class_name": "Zeros"}, "beta_regularizer": null, "scale": true, "gamma_initializer": {"config": {}, "class_name": "Ones"}, "name": "bn2c_branch2b", "trainable": false, "center": true, "moving_variance_initializer": {"config": {}, "class_name": "Ones"}, "beta_initializer": {"config": {}, "class_name": "Zeros"}, "beta_constraint": null, "gamma_constraint": null, "axis": 3, "gamma_regularizer": null}, "class_name": "BatchNormalization", "inbound_nodes": [[["res2c_branch2b", 0, 0, {}]]], "name": "bn2c_branch2b"}, {"config": {"name": "activation_9", "activation": "relu", "trainable": false}, "class_name": "Activation", "inbound_nodes": [[["bn2c_branch2b", 0, 0, {}]]], "name": "activation_9"}, {"config": {"kernel_size": [1, 1], "bias_constraint": null, "padding": "valid", "bias_regularizer": null, "activity_regularizer": null, "use_bias": true, "filters": 256, "dilation_rate": [1, 1], "strides": [1, 1], "data_format": "channels_last", "trainable": false, "kernel_regularizer": null, "name": "res2c_branch2c", "activation": "linear", "kernel_initializer": {"config": {"mode": "fan_avg", "scale": 1.0, "distribution": "uniform", "seed": null}, "class_name": "VarianceScaling"}, "kernel_constraint": null, "bias_initializer": {"config": {}, "class_name": "Zeros"}}, "class_name": "Conv2D", "inbound_nodes": [[["activation_9", 0, 0, {}]]], "name": "res2c_branch2c"}, {"config": {"momentum": 0.99, "epsilon": 0.001, "moving_mean_initializer": {"config": {}, "class_name": "Zeros"}, "beta_regularizer": null, "scale": true, "gamma_initializer": {"config": {}, "class_name": "Ones"}, "name": "bn2c_branch2c", "trainable": false, "center": true, "moving_variance_initializer": {"config": {}, "class_name": "Ones"}, "beta_initializer": {"config": {}, "class_name": "Zeros"}, "beta_constraint": null, "gamma_constraint": null, "axis": 3, "gamma_regularizer": null}, "class_name": "BatchNormalization", "inbound_nodes": [[["res2c_branch2c", 0, 0, {}]]], "name": "bn2c_branch2c"}, {"config": {"name": "add_3", "trainable": false}, "class_name": "Add", "inbound_nodes": [[["bn2c_branch2c", 0, 0, {}], ["activation_7", 0, 0, {}]]], "name": "add_3"}, {"config": {"name": "activation_10", "activation": "relu", "trainable": false}, "class_name": "Activation", "inbound_nodes": [[["add_3", 0, 0, {}]]], "name": "activation_10"}, {"config": {"kernel_size": [1, 1], "bias_constraint": null, "padding": "valid", "bias_regularizer": null, "activity_regularizer": null, "use_bias": true, "filters": 128, "dilation_rate": [1, 1], "strides": [2, 2], "data_format": "channels_last", "trainable": false, "kernel_regularizer": null, "name": "res3a_branch2a", "activation": "linear", "kernel_initializer": {"config": {"mode": "fan_avg", "scale": 1.0, "distribution": "uniform", "seed": null}, "class_name": "VarianceScaling"}, "kernel_constraint": null, "bias_initializer": {"config": {}, "class_name": "Zeros"}}, "class_name": "Conv2D", "inbound_nodes": [[["activation_10", 0, 0, {}]]], "name": "res3a_branch2a"}, {"config": {"momentum": 0.99, "epsilon": 0.001, "moving_mean_initializer": {"config": {}, "class_name": "Zeros"}, "beta_regularizer": null, "scale": true, "gamma_initializer": {"config": {}, "class_name": "Ones"}, "name": "bn3a_branch2a", "trainable": false, "center": true, "moving_variance_initializer": {"config": {}, "class_name": "Ones"}, "beta_initializer": {"config": {}, "class_name": "Zeros"}, "beta_constraint": null, "gamma_constraint": null, "axis": 3, "gamma_regularizer": null}, "class_name": "BatchNormalization", "inbound_nodes": [[["res3a_branch2a", 0, 0, {}]]], "name": "bn3a_branch2a"}, {"config": {"name": "activation_11", "activation": "relu", "trainable": false}, "class_name": "Activation", "inbound_nodes": [[["bn3a_branch2a", 0, 0, {}]]], "name": "activation_11"}, {"config": {"kernel_size": [3, 3], "bias_constraint": null, "padding": "same", "bias_regularizer": null, "activity_regularizer": null, "use_bias": true, "filters": 128, "dilation_rate": [1, 1], "strides": [1, 1], "data_format": "channels_last", "trainable": false, "kernel_regularizer": null, "name": "res3a_branch2b", "activation": "linear", "kernel_initializer": {"config": {"mode": "fan_avg", "scale": 1.0, "distribution": "uniform", "seed": null}, "class_name": "VarianceScaling"}, "kernel_constraint": null, "bias_initializer": {"config": {}, "class_name": "Zeros"}}, "class_name": "Conv2D", "inbound_nodes": [[["activation_11", 0, 0, {}]]], "name": "res3a_branch2b"}, {"config": {"momentum": 0.99, "epsilon": 0.001, "moving_mean_initializer": {"config": {}, "class_name": "Zeros"}, "beta_regularizer": null, "scale": true, "gamma_initializer": {"config": {}, "class_name": "Ones"}, "name": "bn3a_branch2b", "trainable": false, "center": true, "moving_variance_initializer": {"config": {}, "class_name": "Ones"}, "beta_initializer": {"config": {}, "class_name": "Zeros"}, "beta_constraint": null, "gamma_constraint": null, "axis": 3, "gamma_regularizer": null}, "class_name": "BatchNormalization", "inbound_nodes": [[["res3a_branch2b", 0, 0, {}]]], "name": "bn3a_branch2b"}, {"config": {"name": "activation_12", "activation": "relu", "trainable": false}, "class_name": "Activation", "inbound_nodes": [[["bn3a_branch2b", 0, 0, {}]]], "name": "activation_12"}, {"config": {"kernel_size": [1, 1], "bias_constraint": null, "padding": "valid", "bias_regularizer": null, "activity_regularizer": null, "use_bias": true, "filters": 512, "dilation_rate": [1, 1], "strides": [1, 1], "data_format": "channels_last", "trainable": false, "kernel_regularizer": null, "name": "res3a_branch2c", "activation": "linear", "kernel_initializer": {"config": {"mode": "fan_avg", "scale": 1.0, "distribution": "uniform", "seed": null}, "class_name": "VarianceScaling"}, "kernel_constraint": null, "bias_initializer": {"config": {}, "class_name": "Zeros"}}, "class_name": "Conv2D", "inbound_nodes": [[["activation_12", 0, 0, {}]]], "name": "res3a_branch2c"}, {"config": {"kernel_size": [1, 1], "bias_constraint": null, "padding": "valid", "bias_regularizer": null, "activity_regularizer": null, "use_bias": true, "filters": 512, "dilation_rate": [1, 1], "strides": [2, 2], "data_format": "channels_last", "trainable": false, "kernel_regularizer": null, "name": "res3a_branch1", "activation": "linear", "kernel_initializer": {"config": {"mode": "fan_avg", "scale": 1.0, "distribution": "uniform", "seed": null}, "class_name": "VarianceScaling"}, "kernel_constraint": null, "bias_initializer": {"config": {}, "class_name": "Zeros"}}, "class_name": "Conv2D", "inbound_nodes": [[["activation_10", 0, 0, {}]]], "name": "res3a_branch1"}, {"config": {"momentum": 0.99, "epsilon": 0.001, "moving_mean_initializer": {"config": {}, "class_name": "Zeros"}, "beta_regularizer": null, "scale": true, "gamma_initializer": {"config": {}, "class_name": "Ones"}, "name": "bn3a_branch2c", "trainable": false, "center": true, "moving_variance_initializer": {"config": {}, "class_name": "Ones"}, "beta_initializer": {"config": {}, "class_name": "Zeros"}, "beta_constraint": null, "gamma_constraint": null, "axis": 3, "gamma_regularizer": null}, "class_name": "BatchNormalization", "inbound_nodes": [[["res3a_branch2c", 0, 0, {}]]], "name": "bn3a_branch2c"}, {"config": {"momentum": 0.99, "epsilon": 0.001, "moving_mean_initializer": {"config": {}, "class_name": "Zeros"}, "beta_regularizer": null, "scale": true, "gamma_initializer": {"config": {}, "class_name": "Ones"}, "name": "bn3a_branch1", "trainable": false, "center": true, "moving_variance_initializer": {"config": {}, "class_name": "Ones"}, "beta_initializer": {"config": {}, "class_name": "Zeros"}, "beta_constraint": null, "gamma_constraint": null, "axis": 3, "gamma_regularizer": null}, "class_name": "BatchNormalization", "inbound_nodes": [[["res3a_branch1", 0, 0, {}]]], "name": "bn3a_branch1"}, {"config": {"name": "add_4", "trainable": false}, "class_name": "Add", "inbound_nodes": [[["bn3a_branch2c", 0, 0, {}], ["bn3a_branch1", 0, 0, {}]]], "name": "add_4"}, {"config": {"name": "activation_13", "activation": "relu", "trainable": false}, "class_name": "Activation", "inbound_nodes": [[["add_4", 0, 0, {}]]], "name": "activation_13"}, {"config": {"kernel_size": [1, 1], "bias_constraint": null, "padding": "valid", "bias_regularizer": null, "activity_regularizer": null, "use_bias": true, "filters": 128, "dilation_rate": [1, 1], "strides": [1, 1], "data_format": "channels_last", "trainable": false, "kernel_regularizer": null, "name": "res3b_branch2a", "activation": "linear", "kernel_initializer": {"config": {"mode": "fan_avg", "scale": 1.0, "distribution": "uniform", "seed": null}, "class_name": "VarianceScaling"}, "kernel_constraint": null, "bias_initializer": {"config": {}, "class_name": "Zeros"}}, "class_name": "Conv2D", "inbound_nodes": [[["activation_13", 0, 0, {}]]], "name": "res3b_branch2a"}, {"config": {"momentum": 0.99, "epsilon": 0.001, "moving_mean_initializer": {"config": {}, "class_name": "Zeros"}, "beta_regularizer": null, "scale": true, "gamma_initializer": {"config": {}, "class_name": "Ones"}, "name": "bn3b_branch2a", "trainable": false, "center": true, "moving_variance_initializer": {"config": {}, "class_name": "Ones"}, "beta_initializer": {"config": {}, "class_name": "Zeros"}, "beta_constraint": null, "gamma_constraint": null, "axis": 3, "gamma_regularizer": null}, "class_name": "BatchNormalization", "inbound_nodes": [[["res3b_branch2a", 0, 0, {}]]], "name": "bn3b_branch2a"}, {"config": {"name": "activation_14", "activation": "relu", "trainable": false}, "class_name": "Activation", "inbound_nodes": [[["bn3b_branch2a", 0, 0, {}]]], "name": "activation_14"}, {"config": {"kernel_size": [3, 3], "bias_constraint": null, "padding": "same", "bias_regularizer": null, "activity_regularizer": null, "use_bias": true, "filters": 128, "dilation_rate": [1, 1], "strides": [1, 1], "data_format": "channels_last", "trainable": false, "kernel_regularizer": null, "name": "res3b_branch2b", "activation": "linear", "kernel_initializer": {"config": {"mode": "fan_avg", "scale": 1.0, "distribution": "uniform", "seed": null}, "class_name": "VarianceScaling"}, "kernel_constraint": null, "bias_initializer": {"config": {}, "class_name": "Zeros"}}, "class_name": "Conv2D", "inbound_nodes": [[["activation_14", 0, 0, {}]]], "name": "res3b_branch2b"}, {"config": {"momentum": 0.99, "epsilon": 0.001, "moving_mean_initializer": {"config": {}, "class_name": "Zeros"}, "beta_regularizer": null, "scale": true, "gamma_initializer": {"config": {}, "class_name": "Ones"}, "name": "bn3b_branch2b", "trainable": false, "center": true, "moving_variance_initializer": {"config": {}, "class_name": "Ones"}, "beta_initializer": {"config": {}, "class_name": "Zeros"}, "beta_constraint": null, "gamma_constraint": null, "axis": 3, "gamma_regularizer": null}, "class_name": "BatchNormalization", "inbound_nodes": [[["res3b_branch2b", 0, 0, {}]]], "name": "bn3b_branch2b"}, {"config": {"name": "activation_15", "activation": "relu", "trainable": false}, "class_name": "Activation", "inbound_nodes": [[["bn3b_branch2b", 0, 0, {}]]], "name": "activation_15"}, {"config": {"kernel_size": [1, 1], "bias_constraint": null, "padding": "valid", "bias_regularizer": null, "activity_regularizer": null, "use_bias": true, "filters": 512, "dilation_rate": [1, 1], "strides": [1, 1], "data_format": "channels_last", "trainable": false, "kernel_regularizer": null, "name": "res3b_branch2c", "activation": "linear", "kernel_initializer": {"config": {"mode": "fan_avg", "scale": 1.0, "distribution": "uniform", "seed": null}, "class_name": "VarianceScaling"}, "kernel_constraint": null, "bias_initializer": {"config": {}, "class_name": "Zeros"}}, "class_name": "Conv2D", "inbound_nodes": [[["activation_15", 0, 0, {}]]], "name": "res3b_branch2c"}, {"config": {"momentum": 0.99, "epsilon": 0.001, "moving_mean_initializer": {"config": {}, "class_name": "Zeros"}, "beta_regularizer": null, "scale": true, "gamma_initializer": {"config": {}, "class_name": "Ones"}, "name": "bn3b_branch2c", "trainable": false, "center": true, "moving_variance_initializer": {"config": {}, "class_name": "Ones"}, "beta_initializer": {"config": {}, "class_name": "Zeros"}, "beta_constraint": null, "gamma_constraint": null, "axis": 3, "gamma_regularizer": null}, "class_name": "BatchNormalization", "inbound_nodes": [[["res3b_branch2c", 0, 0, {}]]], "name": "bn3b_branch2c"}, {"config": {"name": "add_5", "trainable": false}, "class_name": "Add", "inbound_nodes": [[["bn3b_branch2c", 0, 0, {}], ["activation_13", 0, 0, {}]]], "name": "add_5"}, {"config": {"name": "activation_16", "activation": "relu", "trainable": false}, "class_name": "Activation", "inbound_nodes": [[["add_5", 0, 0, {}]]], "name": "activation_16"}, {"config": {"kernel_size": [1, 1], "bias_constraint": null, "padding": "valid", "bias_regularizer": null, "activity_regularizer": null, "use_bias": true, "filters": 128, "dilation_rate": [1, 1], "strides": [1, 1], "data_format": "channels_last", "trainable": false, "kernel_regularizer": null, "name": "res3c_branch2a", "activation": "linear", "kernel_initializer": {"config": {"mode": "fan_avg", "scale": 1.0, "distribution": "uniform", "seed": null}, "class_name": "VarianceScaling"}, "kernel_constraint": null, "bias_initializer": {"config": {}, "class_name": "Zeros"}}, "class_name": "Conv2D", "inbound_nodes": [[["activation_16", 0, 0, {}]]], "name": "res3c_branch2a"}, {"config": {"momentum": 0.99, "epsilon": 0.001, "moving_mean_initializer": {"config": {}, "class_name": "Zeros"}, "beta_regularizer": null, "scale": true, "gamma_initializer": {"config": {}, "class_name": "Ones"}, "name": "bn3c_branch2a", "trainable": false, "center": true, "moving_variance_initializer": {"config": {}, "class_name": "Ones"}, "beta_initializer": {"config": {}, "class_name": "Zeros"}, "beta_constraint": null, "gamma_constraint": null, "axis": 3, "gamma_regularizer": null}, "class_name": "BatchNormalization", "inbound_nodes": [[["res3c_branch2a", 0, 0, {}]]], "name": "bn3c_branch2a"}, {"config": {"name": "activation_17", "activation": "relu", "trainable": false}, "class_name": "Activation", "inbound_nodes": [[["bn3c_branch2a", 0, 0, {}]]], "name": "activation_17"}, {"config": {"kernel_size": [3, 3], "bias_constraint": null, "padding": "same", "bias_regularizer": null, "activity_regularizer": null, "use_bias": true, "filters": 128, "dilation_rate": [1, 1], "strides": [1, 1], "data_format": "channels_last", "trainable": false, "kernel_regularizer": null, "name": "res3c_branch2b", "activation": "linear", "kernel_initializer": {"config": {"mode": "fan_avg", "scale": 1.0, "distribution": "uniform", "seed": null}, "class_name": "VarianceScaling"}, "kernel_constraint": null, "bias_initializer": {"config": {}, "class_name": "Zeros"}}, "class_name": "Conv2D", "inbound_nodes": [[["activation_17", 0, 0, {}]]], "name": "res3c_branch2b"}, {"config": {"momentum": 0.99, "epsilon": 0.001, "moving_mean_initializer": {"config": {}, "class_name": "Zeros"}, "beta_regularizer": null, "scale": true, "gamma_initializer": {"config": {}, "class_name": "Ones"}, "name": "bn3c_branch2b", "trainable": false, "center": true, "moving_variance_initializer": {"config": {}, "class_name": "Ones"}, "beta_initializer": {"config": {}, "class_name": "Zeros"}, "beta_constraint": null, "gamma_constraint": null, "axis": 3, "gamma_regularizer": null}, "class_name": "BatchNormalization", "inbound_nodes": [[["res3c_branch2b", 0, 0, {}]]], "name": "bn3c_branch2b"}, {"config": {"name": "activation_18", "activation": "relu", "trainable": false}, "class_name": "Activation", "inbound_nodes": [[["bn3c_branch2b", 0, 0, {}]]], "name": "activation_18"}, {"config": {"kernel_size": [1, 1], "bias_constraint": null, "padding": "valid", "bias_regularizer": null, "activity_regularizer": null, "use_bias": true, "filters": 512, "dilation_rate": [1, 1], "strides": [1, 1], "data_format": "channels_last", "trainable": false, "kernel_regularizer": null, "name": "res3c_branch2c", "activation": "linear", "kernel_initializer": {"config": {"mode": "fan_avg", "scale": 1.0, "distribution": "uniform", "seed": null}, "class_name": "VarianceScaling"}, "kernel_constraint": null, "bias_initializer": {"config": {}, "class_name": "Zeros"}}, "class_name": "Conv2D", "inbound_nodes": [[["activation_18", 0, 0, {}]]], "name": "res3c_branch2c"}, {"config": {"momentum": 0.99, "epsilon": 0.001, "moving_mean_initializer": {"config": {}, "class_name": "Zeros"}, "beta_regularizer": null, "scale": true, "gamma_initializer": {"config": {}, "class_name": "Ones"}, "name": "bn3c_branch2c", "trainable": false, "center": true, "moving_variance_initializer": {"config": {}, "class_name": "Ones"}, "beta_initializer": {"config": {}, "class_name": "Zeros"}, "beta_constraint": null, "gamma_constraint": null, "axis": 3, "gamma_regularizer": null}, "class_name": "BatchNormalization", "inbound_nodes": [[["res3c_branch2c", 0, 0, {}]]], "name": "bn3c_branch2c"}, {"config": {"name": "add_6", "trainable": false}, "class_name": "Add", "inbound_nodes": [[["bn3c_branch2c", 0, 0, {}], ["activation_16", 0, 0, {}]]], "name": "add_6"}, {"config": {"name": "activation_19", "activation": "relu", "trainable": false}, "class_name": "Activation", "inbound_nodes": [[["add_6", 0, 0, {}]]], "name": "activation_19"}, {"config": {"kernel_size": [1, 1], "bias_constraint": null, "padding": "valid", "bias_regularizer": null, "activity_regularizer": null, "use_bias": true, "filters": 128, "dilation_rate": [1, 1], "strides": [1, 1], "data_format": "channels_last", "trainable": false, "kernel_regularizer": null, "name": "res3d_branch2a", "activation": "linear", "kernel_initializer": {"config": {"mode": "fan_avg", "scale": 1.0, "distribution": "uniform", "seed": null}, "class_name": "VarianceScaling"}, "kernel_constraint": null, "bias_initializer": {"config": {}, "class_name": "Zeros"}}, "class_name": "Conv2D", "inbound_nodes": [[["activation_19", 0, 0, {}]]], "name": "res3d_branch2a"}, {"config": {"momentum": 0.99, "epsilon": 0.001, "moving_mean_initializer": {"config": {}, "class_name": "Zeros"}, "beta_regularizer": null, "scale": true, "gamma_initializer": {"config": {}, "class_name": "Ones"}, "name": "bn3d_branch2a", "trainable": false, "center": true, "moving_variance_initializer": {"config": {}, "class_name": "Ones"}, "beta_initializer": {"config": {}, "class_name": "Zeros"}, "beta_constraint": null, "gamma_constraint": null, "axis": 3, "gamma_regularizer": null}, "class_name": "BatchNormalization", "inbound_nodes": [[["res3d_branch2a", 0, 0, {}]]], "name": "bn3d_branch2a"}, {"config": {"name": "activation_20", "activation": "relu", "trainable": false}, "class_name": "Activation", "inbound_nodes": [[["bn3d_branch2a", 0, 0, {}]]], "name": "activation_20"}, {"config": {"kernel_size": [3, 3], "bias_constraint": null, "padding": "same", "bias_regularizer": null, "activity_regularizer": null, "use_bias": true, "filters": 128, "dilation_rate": [1, 1], "strides": [1, 1], "data_format": "channels_last", "trainable": false, "kernel_regularizer": null, "name": "res3d_branch2b", "activation": "linear", "kernel_initializer": {"config": {"mode": "fan_avg", "scale": 1.0, "distribution": "uniform", "seed": null}, "class_name": "VarianceScaling"}, "kernel_constraint": null, "bias_initializer": {"config": {}, "class_name": "Zeros"}}, "class_name": "Conv2D", "inbound_nodes": [[["activation_20", 0, 0, {}]]], "name": "res3d_branch2b"}, {"config": {"momentum": 0.99, "epsilon": 0.001, "moving_mean_initializer": {"config": {}, "class_name": "Zeros"}, "beta_regularizer": null, "scale": true, "gamma_initializer": {"config": {}, "class_name": "Ones"}, "name": "bn3d_branch2b", "trainable": false, "center": true, "moving_variance_initializer": {"config": {}, "class_name": "Ones"}, "beta_initializer": {"config": {}, "class_name": "Zeros"}, "beta_constraint": null, "gamma_constraint": null, "axis": 3, "gamma_regularizer": null}, "class_name": "BatchNormalization", "inbound_nodes": [[["res3d_branch2b", 0, 0, {}]]], "name": "bn3d_branch2b"}, {"config": {"name": "activation_21", "activation": "relu", "trainable": false}, "class_name": "Activation", "inbound_nodes": [[["bn3d_branch2b", 0, 0, {}]]], "name": "activation_21"}, {"config": {"kernel_size": [1, 1], "bias_constraint": null, "padding": "valid", "bias_regularizer": null, "activity_regularizer": null, "use_bias": true, "filters": 512, "dilation_rate": [1, 1], "strides": [1, 1], "data_format": "channels_last", "trainable": false, "kernel_regularizer": null, "name": "res3d_branch2c", "activation": "linear", "kernel_initializer": {"config": {"mode": "fan_avg", "scale": 1.0, "distribution": "uniform", "seed": null}, "class_name": "VarianceScaling"}, "kernel_constraint": null, "bias_initializer": {"config": {}, "class_name": "Zeros"}}, "class_name": "Conv2D", "inbound_nodes": [[["activation_21", 0, 0, {}]]], "name": "res3d_branch2c"}, {"config": {"momentum": 0.99, "epsilon": 0.001, "moving_mean_initializer": {"config": {}, "class_name": "Zeros"}, "beta_regularizer": null, "scale": true, "gamma_initializer": {"config": {}, "class_name": "Ones"}, "name": "bn3d_branch2c", "trainable": false, "center": true, "moving_variance_initializer": {"config": {}, "class_name": "Ones"}, "beta_initializer": {"config": {}, "class_name": "Zeros"}, "beta_constraint": null, "gamma_constraint": null, "axis": 3, "gamma_regularizer": null}, "class_name": "BatchNormalization", "inbound_nodes": [[["res3d_branch2c", 0, 0, {}]]], "name": "bn3d_branch2c"}, {"config": {"name": "add_7", "trainable": false}, "class_name": "Add", "inbound_nodes": [[["bn3d_branch2c", 0, 0, {}], ["activation_19", 0, 0, {}]]], "name": "add_7"}, {"config": {"name": "activation_22", "activation": "relu", "trainable": false}, "class_name": "Activation", "inbound_nodes": [[["add_7", 0, 0, {}]]], "name": "activation_22"}, {"config": {"kernel_size": [1, 1], "bias_constraint": null, "padding": "valid", "bias_regularizer": null, "activity_regularizer": null, "use_bias": true, "filters": 256, "dilation_rate": [1, 1], "strides": [2, 2], "data_format": "channels_last", "trainable": false, "kernel_regularizer": null, "name": "res4a_branch2a", "activation": "linear", "kernel_initializer": {"config": {"mode": "fan_avg", "scale": 1.0, "distribution": "uniform", "seed": null}, "class_name": "VarianceScaling"}, "kernel_constraint": null, "bias_initializer": {"config": {}, "class_name": "Zeros"}}, "class_name": "Conv2D", "inbound_nodes": [[["activation_22", 0, 0, {}]]], "name": "res4a_branch2a"}, {"config": {"momentum": 0.99, "epsilon": 0.001, "moving_mean_initializer": {"config": {}, "class_name": "Zeros"}, "beta_regularizer": null, "scale": true, "gamma_initializer": {"config": {}, "class_name": "Ones"}, "name": "bn4a_branch2a", "trainable": false, "center": true, "moving_variance_initializer": {"config": {}, "class_name": "Ones"}, "beta_initializer": {"config": {}, "class_name": "Zeros"}, "beta_constraint": null, "gamma_constraint": null, "axis": 3, "gamma_regularizer": null}, "class_name": "BatchNormalization", "inbound_nodes": [[["res4a_branch2a", 0, 0, {}]]], "name": "bn4a_branch2a"}, {"config": {"name": "activation_23", "activation": "relu", "trainable": false}, "class_name": "Activation", "inbound_nodes": [[["bn4a_branch2a", 0, 0, {}]]], "name": "activation_23"}, {"config": {"kernel_size": [3, 3], "bias_constraint": null, "padding": "same", "bias_regularizer": null, "activity_regularizer": null, "use_bias": true, "filters": 256, "dilation_rate": [1, 1], "strides": [1, 1], "data_format": "channels_last", "trainable": false, "kernel_regularizer": null, "name": "res4a_branch2b", "activation": "linear", "kernel_initializer": {"config": {"mode": "fan_avg", "scale": 1.0, "distribution": "uniform", "seed": null}, "class_name": "VarianceScaling"}, "kernel_constraint": null, "bias_initializer": {"config": {}, "class_name": "Zeros"}}, "class_name": "Conv2D", "inbound_nodes": [[["activation_23", 0, 0, {}]]], "name": "res4a_branch2b"}, {"config": {"momentum": 0.99, "epsilon": 0.001, "moving_mean_initializer": {"config": {}, "class_name": "Zeros"}, "beta_regularizer": null, "scale": true, "gamma_initializer": {"config": {}, "class_name": "Ones"}, "name": "bn4a_branch2b", "trainable": false, "center": true, "moving_variance_initializer": {"config": {}, "class_name": "Ones"}, "beta_initializer": {"config": {}, "class_name": "Zeros"}, "beta_constraint": null, "gamma_constraint": null, "axis": 3, "gamma_regularizer": null}, "class_name": "BatchNormalization", "inbound_nodes": [[["res4a_branch2b", 0, 0, {}]]], "name": "bn4a_branch2b"}, {"config": {"name": "activation_24", "activation": "relu", "trainable": false}, "class_name": "Activation", "inbound_nodes": [[["bn4a_branch2b", 0, 0, {}]]], "name": "activation_24"}, {"config": {"kernel_size": [1, 1], "bias_constraint": null, "padding": "valid", "bias_regularizer": null, "activity_regularizer": null, "use_bias": true, "filters": 1024, "dilation_rate": [1, 1], "strides": [1, 1], "data_format": "channels_last", "trainable": false, "kernel_regularizer": null, "name": "res4a_branch2c", "activation": "linear", "kernel_initializer": {"config": {"mode": "fan_avg", "scale": 1.0, "distribution": "uniform", "seed": null}, "class_name": "VarianceScaling"}, "kernel_constraint": null, "bias_initializer": {"config": {}, "class_name": "Zeros"}}, "class_name": "Conv2D", "inbound_nodes": [[["activation_24", 0, 0, {}]]], "name": "res4a_branch2c"}, {"config": {"kernel_size": [1, 1], "bias_constraint": null, "padding": "valid", "bias_regularizer": null, "activity_regularizer": null, "use_bias": true, "filters": 1024, "dilation_rate": [1, 1], "strides": [2, 2], "data_format": "channels_last", "trainable": false, "kernel_regularizer": null, "name": "res4a_branch1", "activation": "linear", "kernel_initializer": {"config": {"mode": "fan_avg", "scale": 1.0, "distribution": "uniform", "seed": null}, "class_name": "VarianceScaling"}, "kernel_constraint": null, "bias_initializer": {"config": {}, "class_name": "Zeros"}}, "class_name": "Conv2D", "inbound_nodes": [[["activation_22", 0, 0, {}]]], "name": "res4a_branch1"}, {"config": {"momentum": 0.99, "epsilon": 0.001, "moving_mean_initializer": {"config": {}, "class_name": "Zeros"}, "beta_regularizer": null, "scale": true, "gamma_initializer": {"config": {}, "class_name": "Ones"}, "name": "bn4a_branch2c", "trainable": false, "center": true, "moving_variance_initializer": {"config": {}, "class_name": "Ones"}, "beta_initializer": {"config": {}, "class_name": "Zeros"}, "beta_constraint": null, "gamma_constraint": null, "axis": 3, "gamma_regularizer": null}, "class_name": "BatchNormalization", "inbound_nodes": [[["res4a_branch2c", 0, 0, {}]]], "name": "bn4a_branch2c"}, {"config": {"momentum": 0.99, "epsilon": 0.001, "moving_mean_initializer": {"config": {}, "class_name": "Zeros"}, "beta_regularizer": null, "scale": true, "gamma_initializer": {"config": {}, "class_name": "Ones"}, "name": "bn4a_branch1", "trainable": false, "center": true, "moving_variance_initializer": {"config": {}, "class_name": "Ones"}, "beta_initializer": {"config": {}, "class_name": "Zeros"}, "beta_constraint": null, "gamma_constraint": null, "axis": 3, "gamma_regularizer": null}, "class_name": "BatchNormalization", "inbound_nodes": [[["res4a_branch1", 0, 0, {}]]], "name": "bn4a_branch1"}, {"config": {"name": "add_8", "trainable": false}, "class_name": "Add", "inbound_nodes": [[["bn4a_branch2c", 0, 0, {}], ["bn4a_branch1", 0, 0, {}]]], "name": "add_8"}, {"config": {"name": "activation_25", "activation": "relu", "trainable": false}, "class_name": "Activation", "inbound_nodes": [[["add_8", 0, 0, {}]]], "name": "activation_25"}, {"config": {"kernel_size": [1, 1], "bias_constraint": null, "padding": "valid", "bias_regularizer": null, "activity_regularizer": null, "use_bias": true, "filters": 256, "dilation_rate": [1, 1], "strides": [1, 1], "data_format": "channels_last", "trainable": false, "kernel_regularizer": null, "name": "res4b_branch2a", "activation": "linear", "kernel_initializer": {"config": {"mode": "fan_avg", "scale": 1.0, "distribution": "uniform", "seed": null}, "class_name": "VarianceScaling"}, "kernel_constraint": null, "bias_initializer": {"config": {}, "class_name": "Zeros"}}, "class_name": "Conv2D", "inbound_nodes": [[["activation_25", 0, 0, {}]]], "name": "res4b_branch2a"}, {"config": {"momentum": 0.99, "epsilon": 0.001, "moving_mean_initializer": {"config": {}, "class_name": "Zeros"}, "beta_regularizer": null, "scale": true, "gamma_initializer": {"config": {}, "class_name": "Ones"}, "name": "bn4b_branch2a", "trainable": false, "center": true, "moving_variance_initializer": {"config": {}, "class_name": "Ones"}, "beta_initializer": {"config": {}, "class_name": "Zeros"}, "beta_constraint": null, "gamma_constraint": null, "axis": 3, "gamma_regularizer": null}, "class_name": "BatchNormalization", "inbound_nodes": [[["res4b_branch2a", 0, 0, {}]]], "name": "bn4b_branch2a"}, {"config": {"name": "activation_26", "activation": "relu", "trainable": false}, "class_name": "Activation", "inbound_nodes": [[["bn4b_branch2a", 0, 0, {}]]], "name": "activation_26"}, {"config": {"kernel_size": [3, 3], "bias_constraint": null, "padding": "same", "bias_regularizer": null, "activity_regularizer": null, "use_bias": true, "filters": 256, "dilation_rate": [1, 1], "strides": [1, 1], "data_format": "channels_last", "trainable": false, "kernel_regularizer": null, "name": "res4b_branch2b", "activation": "linear", "kernel_initializer": {"config": {"mode": "fan_avg", "scale": 1.0, "distribution": "uniform", "seed": null}, "class_name": "VarianceScaling"}, "kernel_constraint": null, "bias_initializer": {"config": {}, "class_name": "Zeros"}}, "class_name": "Conv2D", "inbound_nodes": [[["activation_26", 0, 0, {}]]], "name": "res4b_branch2b"}, {"config": {"momentum": 0.99, "epsilon": 0.001, "moving_mean_initializer": {"config": {}, "class_name": "Zeros"}, "beta_regularizer": null, "scale": true, "gamma_initializer": {"config": {}, "class_name": "Ones"}, "name": "bn4b_branch2b", "trainable": false, "center": true, "moving_variance_initializer": {"config": {}, "class_name": "Ones"}, "beta_initializer": {"config": {}, "class_name": "Zeros"}, "beta_constraint": null, "gamma_constraint": null, "axis": 3, "gamma_regularizer": null}, "class_name": "BatchNormalization", "inbound_nodes": [[["res4b_branch2b", 0, 0, {}]]], "name": "bn4b_branch2b"}, {"config": {"name": "activation_27", "activation": "relu", "trainable": false}, "class_name": "Activation", "inbound_nodes": [[["bn4b_branch2b", 0, 0, {}]]], "name": "activation_27"}, {"config": {"kernel_size": [1, 1], "bias_constraint": null, "padding": "valid", "bias_regularizer": null, "activity_regularizer": null, "use_bias": true, "filters": 1024, "dilation_rate": [1, 1], "strides": [1, 1], "data_format": "channels_last", "trainable": false, "kernel_regularizer": null, "name": "res4b_branch2c", "activation": "linear", "kernel_initializer": {"config": {"mode": "fan_avg", "scale": 1.0, "distribution": "uniform", "seed": null}, "class_name": "VarianceScaling"}, "kernel_constraint": null, "bias_initializer": {"config": {}, "class_name": "Zeros"}}, "class_name": "Conv2D", "inbound_nodes": [[["activation_27", 0, 0, {}]]], "name": "res4b_branch2c"}, {"config": {"momentum": 0.99, "epsilon": 0.001, "moving_mean_initializer": {"config": {}, "class_name": "Zeros"}, "beta_regularizer": null, "scale": true, "gamma_initializer": {"config": {}, "class_name": "Ones"}, "name": "bn4b_branch2c", "trainable": false, "center": true, "moving_variance_initializer": {"config": {}, "class_name": "Ones"}, "beta_initializer": {"config": {}, "class_name": "Zeros"}, "beta_constraint": null, "gamma_constraint": null, "axis": 3, "gamma_regularizer": null}, "class_name": "BatchNormalization", "inbound_nodes": [[["res4b_branch2c", 0, 0, {}]]], "name": "bn4b_branch2c"}, {"config": {"name": "add_9", "trainable": false}, "class_name": "Add", "inbound_nodes": [[["bn4b_branch2c", 0, 0, {}], ["activation_25", 0, 0, {}]]], "name": "add_9"}, {"config": {"name": "activation_28", "activation": "relu", "trainable": false}, "class_name": "Activation", "inbound_nodes": [[["add_9", 0, 0, {}]]], "name": "activation_28"}, {"config": {"kernel_size": [1, 1], "bias_constraint": null, "padding": "valid", "bias_regularizer": null, "activity_regularizer": null, "use_bias": true, "filters": 256, "dilation_rate": [1, 1], "strides": [1, 1], "data_format": "channels_last", "trainable": false, "kernel_regularizer": null, "name": "res4c_branch2a", "activation": "linear", "kernel_initializer": {"config": {"mode": "fan_avg", "scale": 1.0, "distribution": "uniform", "seed": null}, "class_name": "VarianceScaling"}, "kernel_constraint": null, "bias_initializer": {"config": {}, "class_name": "Zeros"}}, "class_name": "Conv2D", "inbound_nodes": [[["activation_28", 0, 0, {}]]], "name": "res4c_branch2a"}, {"config": {"momentum": 0.99, "epsilon": 0.001, "moving_mean_initializer": {"config": {}, "class_name": "Zeros"}, "beta_regularizer": null, "scale": true, "gamma_initializer": {"config": {}, "class_name": "Ones"}, "name": "bn4c_branch2a", "trainable": false, "center": true, "moving_variance_initializer": {"config": {}, "class_name": "Ones"}, "beta_initializer": {"config": {}, "class_name": "Zeros"}, "beta_constraint": null, "gamma_constraint": null, "axis": 3, "gamma_regularizer": null}, "class_name": "BatchNormalization", "inbound_nodes": [[["res4c_branch2a", 0, 0, {}]]], "name": "bn4c_branch2a"}, {"config": {"name": "activation_29", "activation": "relu", "trainable": false}, "class_name": "Activation", "inbound_nodes": [[["bn4c_branch2a", 0, 0, {}]]], "name": "activation_29"}, {"config": {"kernel_size": [3, 3], "bias_constraint": null, "padding": "same", "bias_regularizer": null, "activity_regularizer": null, "use_bias": true, "filters": 256, "dilation_rate": [1, 1], "strides": [1, 1], "data_format": "channels_last", "trainable": false, "kernel_regularizer": null, "name": "res4c_branch2b", "activation": "linear", "kernel_initializer": {"config": {"mode": "fan_avg", "scale": 1.0, "distribution": "uniform", "seed": null}, "class_name": "VarianceScaling"}, "kernel_constraint": null, "bias_initializer": {"config": {}, "class_name": "Zeros"}}, "class_name": "Conv2D", "inbound_nodes": [[["activation_29", 0, 0, {}]]], "name": "res4c_branch2b"}, {"config": {"momentum": 0.99, "epsilon": 0.001, "moving_mean_initializer": {"config": {}, "class_name": "Zeros"}, "beta_regularizer": null, "scale": true, "gamma_initializer": {"config": {}, "class_name": "Ones"}, "name": "bn4c_branch2b", "trainable": false, "center": true, "moving_variance_initializer": {"config": {}, "class_name": "Ones"}, "beta_initializer": {"config": {}, "class_name": "Zeros"}, "beta_constraint": null, "gamma_constraint": null, "axis": 3, "gamma_regularizer": null}, "class_name": "BatchNormalization", "inbound_nodes": [[["res4c_branch2b", 0, 0, {}]]], "name": "bn4c_branch2b"}, {"config": {"name": "activation_30", "activation": "relu", "trainable": false}, "class_name": "Activation", "inbound_nodes": [[["bn4c_branch2b", 0, 0, {}]]], "name": "activation_30"}, {"config": {"kernel_size": [1, 1], "bias_constraint": null, "padding": "valid", "bias_regularizer": null, "activity_regularizer": null, "use_bias": true, "filters": 1024, "dilation_rate": [1, 1], "strides": [1, 1], "data_format": "channels_last", "trainable": false, "kernel_regularizer": null, "name": "res4c_branch2c", "activation": "linear", "kernel_initializer": {"config": {"mode": "fan_avg", "scale": 1.0, "distribution": "uniform", "seed": null}, "class_name": "VarianceScaling"}, "kernel_constraint": null, "bias_initializer": {"config": {}, "class_name": "Zeros"}}, "class_name": "Conv2D", "inbound_nodes": [[["activation_30", 0, 0, {}]]], "name": "res4c_branch2c"}, {"config": {"momentum": 0.99, "epsilon": 0.001, "moving_mean_initializer": {"config": {}, "class_name": "Zeros"}, "beta_regularizer": null, "scale": true, "gamma_initializer": {"config": {}, "class_name": "Ones"}, "name": "bn4c_branch2c", "trainable": false, "center": true, "moving_variance_initializer": {"config": {}, "class_name": "Ones"}, "beta_initializer": {"config": {}, "class_name": "Zeros"}, "beta_constraint": null, "gamma_constraint": null, "axis": 3, "gamma_regularizer": null}, "class_name": "BatchNormalization", "inbound_nodes": [[["res4c_branch2c", 0, 0, {}]]], "name": "bn4c_branch2c"}, {"config": {"name": "add_10", "trainable": false}, "class_name": "Add", "inbound_nodes": [[["bn4c_branch2c", 0, 0, {}], ["activation_28", 0, 0, {}]]], "name": "add_10"}, {"config": {"name": "activation_31", "activation": "relu", "trainable": false}, "class_name": "Activation", "inbound_nodes": [[["add_10", 0, 0, {}]]], "name": "activation_31"}, {"config": {"kernel_size": [1, 1], "bias_constraint": null, "padding": "valid", "bias_regularizer": null, "activity_regularizer": null, "use_bias": true, "filters": 256, "dilation_rate": [1, 1], "strides": [1, 1], "data_format": "channels_last", "trainable": false, "kernel_regularizer": null, "name": "res4d_branch2a", "activation": "linear", "kernel_initializer": {"config": {"mode": "fan_avg", "scale": 1.0, "distribution": "uniform", "seed": null}, "class_name": "VarianceScaling"}, "kernel_constraint": null, "bias_initializer": {"config": {}, "class_name": "Zeros"}}, "class_name": "Conv2D", "inbound_nodes": [[["activation_31", 0, 0, {}]]], "name": "res4d_branch2a"}, {"config": {"momentum": 0.99, "epsilon": 0.001, "moving_mean_initializer": {"config": {}, "class_name": "Zeros"}, "beta_regularizer": null, "scale": true, "gamma_initializer": {"config": {}, "class_name": "Ones"}, "name": "bn4d_branch2a", "trainable": false, "center": true, "moving_variance_initializer": {"config": {}, "class_name": "Ones"}, "beta_initializer": {"config": {}, "class_name": "Zeros"}, "beta_constraint": null, "gamma_constraint": null, "axis": 3, "gamma_regularizer": null}, "class_name": "BatchNormalization", "inbound_nodes": [[["res4d_branch2a", 0, 0, {}]]], "name": "bn4d_branch2a"}, {"config": {"name": "activation_32", "activation": "relu", "trainable": false}, "class_name": "Activation", "inbound_nodes": [[["bn4d_branch2a", 0, 0, {}]]], "name": "activation_32"}, {"config": {"kernel_size": [3, 3], "bias_constraint": null, "padding": "same", "bias_regularizer": null, "activity_regularizer": null, "use_bias": true, "filters": 256, "dilation_rate": [1, 1], "strides": [1, 1], "data_format": "channels_last", "trainable": false, "kernel_regularizer": null, "name": "res4d_branch2b", "activation": "linear", "kernel_initializer": {"config": {"mode": "fan_avg", "scale": 1.0, "distribution": "uniform", "seed": null}, "class_name": "VarianceScaling"}, "kernel_constraint": null, "bias_initializer": {"config": {}, "class_name": "Zeros"}}, "class_name": "Conv2D", "inbound_nodes": [[["activation_32", 0, 0, {}]]], "name": "res4d_branch2b"}, {"config": {"momentum": 0.99, "epsilon": 0.001, "moving_mean_initializer": {"config": {}, "class_name": "Zeros"}, "beta_regularizer": null, "scale": true, "gamma_initializer": {"config": {}, "class_name": "Ones"}, "name": "bn4d_branch2b", "trainable": false, "center": true, "moving_variance_initializer": {"config": {}, "class_name": "Ones"}, "beta_initializer": {"config": {}, "class_name": "Zeros"}, "beta_constraint": null, "gamma_constraint": null, "axis": 3, "gamma_regularizer": null}, "class_name": "BatchNormalization", "inbound_nodes": [[["res4d_branch2b", 0, 0, {}]]], "name": "bn4d_branch2b"}, {"config": {"name": "activation_33", "activation": "relu", "trainable": false}, "class_name": "Activation", "inbound_nodes": [[["bn4d_branch2b", 0, 0, {}]]], "name": "activation_33"}, {"config": {"kernel_size": [1, 1], "bias_constraint": null, "padding": "valid", "bias_regularizer": null, "activity_regularizer": null, "use_bias": true, "filters": 1024, "dilation_rate": [1, 1], "strides": [1, 1], "data_format": "channels_last", "trainable": false, "kernel_regularizer": null, "name": "res4d_branch2c", "activation": "linear", "kernel_initializer": {"config": {"mode": "fan_avg", "scale": 1.0, "distribution": "uniform", "seed": null}, "class_name": "VarianceScaling"}, "kernel_constraint": null, "bias_initializer": {"config": {}, "class_name": "Zeros"}}, "class_name": "Conv2D", "inbound_nodes": [[["activation_33", 0, 0, {}]]], "name": "res4d_branch2c"}, {"config": {"momentum": 0.99, "epsilon": 0.001, "moving_mean_initializer": {"config": {}, "class_name": "Zeros"}, "beta_regularizer": null, "scale": true, "gamma_initializer": {"config": {}, "class_name": "Ones"}, "name": "bn4d_branch2c", "trainable": false, "center": true, "moving_variance_initializer": {"config": {}, "class_name": "Ones"}, "beta_initializer": {"config": {}, "class_name": "Zeros"}, "beta_constraint": null, "gamma_constraint": null, "axis": 3, "gamma_regularizer": null}, "class_name": "BatchNormalization", "inbound_nodes": [[["res4d_branch2c", 0, 0, {}]]], "name": "bn4d_branch2c"}, {"config": {"name": "add_11", "trainable": false}, "class_name": "Add", "inbound_nodes": [[["bn4d_branch2c", 0, 0, {}], ["activation_31", 0, 0, {}]]], "name": "add_11"}, {"config": {"name": "activation_34", "activation": "relu", "trainable": false}, "class_name": "Activation", "inbound_nodes": [[["add_11", 0, 0, {}]]], "name": "activation_34"}, {"config": {"kernel_size": [1, 1], "bias_constraint": null, "padding": "valid", "bias_regularizer": null, "activity_regularizer": null, "use_bias": true, "filters": 256, "dilation_rate": [1, 1], "strides": [1, 1], "data_format": "channels_last", "trainable": false, "kernel_regularizer": null, "name": "res4e_branch2a", "activation": "linear", "kernel_initializer": {"config": {"mode": "fan_avg", "scale": 1.0, "distribution": "uniform", "seed": null}, "class_name": "VarianceScaling"}, "kernel_constraint": null, "bias_initializer": {"config": {}, "class_name": "Zeros"}}, "class_name": "Conv2D", "inbound_nodes": [[["activation_34", 0, 0, {}]]], "name": "res4e_branch2a"}, {"config": {"momentum": 0.99, "epsilon": 0.001, "moving_mean_initializer": {"config": {}, "class_name": "Zeros"}, "beta_regularizer": null, "scale": true, "gamma_initializer": {"config": {}, "class_name": "Ones"}, "name": "bn4e_branch2a", "trainable": false, "center": true, "moving_variance_initializer": {"config": {}, "class_name": "Ones"}, "beta_initializer": {"config": {}, "class_name": "Zeros"}, "beta_constraint": null, "gamma_constraint": null, "axis": 3, "gamma_regularizer": null}, "class_name": "BatchNormalization", "inbound_nodes": [[["res4e_branch2a", 0, 0, {}]]], "name": "bn4e_branch2a"}, {"config": {"name": "activation_35", "activation": "relu", "trainable": false}, "class_name": "Activation", "inbound_nodes": [[["bn4e_branch2a", 0, 0, {}]]], "name": "activation_35"}, {"config": {"kernel_size": [3, 3], "bias_constraint": null, "padding": "same", "bias_regularizer": null, "activity_regularizer": null, "use_bias": true, "filters": 256, "dilation_rate": [1, 1], "strides": [1, 1], "data_format": "channels_last", "trainable": false, "kernel_regularizer": null, "name": "res4e_branch2b", "activation": "linear", "kernel_initializer": {"config": {"mode": "fan_avg", "scale": 1.0, "distribution": "uniform", "seed": null}, "class_name": "VarianceScaling"}, "kernel_constraint": null, "bias_initializer": {"config": {}, "class_name": "Zeros"}}, "class_name": "Conv2D", "inbound_nodes": [[["activation_35", 0, 0, {}]]], "name": "res4e_branch2b"}, {"config": {"momentum": 0.99, "epsilon": 0.001, "moving_mean_initializer": {"config": {}, "class_name": "Zeros"}, "beta_regularizer": null, "scale": true, "gamma_initializer": {"config": {}, "class_name": "Ones"}, "name": "bn4e_branch2b", "trainable": false, "center": true, "moving_variance_initializer": {"config": {}, "class_name": "Ones"}, "beta_initializer": {"config": {}, "class_name": "Zeros"}, "beta_constraint": null, "gamma_constraint": null, "axis": 3, "gamma_regularizer": null}, "class_name": "BatchNormalization", "inbound_nodes": [[["res4e_branch2b", 0, 0, {}]]], "name": "bn4e_branch2b"}, {"config": {"name": "activation_36", "activation": "relu", "trainable": false}, "class_name": "Activation", "inbound_nodes": [[["bn4e_branch2b", 0, 0, {}]]], "name": "activation_36"}, {"config": {"kernel_size": [1, 1], "bias_constraint": null, "padding": "valid", "bias_regularizer": null, "activity_regularizer": null, "use_bias": true, "filters": 1024, "dilation_rate": [1, 1], "strides": [1, 1], "data_format": "channels_last", "trainable": false, "kernel_regularizer": null, "name": "res4e_branch2c", "activation": "linear", "kernel_initializer": {"config": {"mode": "fan_avg", "scale": 1.0, "distribution": "uniform", "seed": null}, "class_name": "VarianceScaling"}, "kernel_constraint": null, "bias_initializer": {"config": {}, "class_name": "Zeros"}}, "class_name": "Conv2D", "inbound_nodes": [[["activation_36", 0, 0, {}]]], "name": "res4e_branch2c"}, {"config": {"momentum": 0.99, "epsilon": 0.001, "moving_mean_initializer": {"config": {}, "class_name": "Zeros"}, "beta_regularizer": null, "scale": true, "gamma_initializer": {"config": {}, "class_name": "Ones"}, "name": "bn4e_branch2c", "trainable": false, "center": true, "moving_variance_initializer": {"config": {}, "class_name": "Ones"}, "beta_initializer": {"config": {}, "class_name": "Zeros"}, "beta_constraint": null, "gamma_constraint": null, "axis": 3, "gamma_regularizer": null}, "class_name": "BatchNormalization", "inbound_nodes": [[["res4e_branch2c", 0, 0, {}]]], "name": "bn4e_branch2c"}, {"config": {"name": "add_12", "trainable": false}, "class_name": "Add", "inbound_nodes": [[["bn4e_branch2c", 0, 0, {}], ["activation_34", 0, 0, {}]]], "name": "add_12"}, {"config": {"name": "activation_37", "activation": "relu", "trainable": false}, "class_name": "Activation", "inbound_nodes": [[["add_12", 0, 0, {}]]], "name": "activation_37"}, {"config": {"kernel_size": [1, 1], "bias_constraint": null, "padding": "valid", "bias_regularizer": null, "activity_regularizer": null, "use_bias": true, "filters": 256, "dilation_rate": [1, 1], "strides": [1, 1], "data_format": "channels_last", "trainable": false, "kernel_regularizer": null, "name": "res4f_branch2a", "activation": "linear", "kernel_initializer": {"config": {"mode": "fan_avg", "scale": 1.0, "distribution": "uniform", "seed": null}, "class_name": "VarianceScaling"}, "kernel_constraint": null, "bias_initializer": {"config": {}, "class_name": "Zeros"}}, "class_name": "Conv2D", "inbound_nodes": [[["activation_37", 0, 0, {}]]], "name": "res4f_branch2a"}, {"config": {"momentum": 0.99, "epsilon": 0.001, "moving_mean_initializer": {"config": {}, "class_name": "Zeros"}, "beta_regularizer": null, "scale": true, "gamma_initializer": {"config": {}, "class_name": "Ones"}, "name": "bn4f_branch2a", "trainable": false, "center": true, "moving_variance_initializer": {"config": {}, "class_name": "Ones"}, "beta_initializer": {"config": {}, "class_name": "Zeros"}, "beta_constraint": null, "gamma_constraint": null, "axis": 3, "gamma_regularizer": null}, "class_name": "BatchNormalization", "inbound_nodes": [[["res4f_branch2a", 0, 0, {}]]], "name": "bn4f_branch2a"}, {"config": {"name": "activation_38", "activation": "relu", "trainable": false}, "class_name": "Activation", "inbound_nodes": [[["bn4f_branch2a", 0, 0, {}]]], "name": "activation_38"}, {"config": {"kernel_size": [3, 3], "bias_constraint": null, "padding": "same", "bias_regularizer": null, "activity_regularizer": null, "use_bias": true, "filters": 256, "dilation_rate": [1, 1], "strides": [1, 1], "data_format": "channels_last", "trainable": false, "kernel_regularizer": null, "name": "res4f_branch2b", "activation": "linear", "kernel_initializer": {"config": {"mode": "fan_avg", "scale": 1.0, "distribution": "uniform", "seed": null}, "class_name": "VarianceScaling"}, "kernel_constraint": null, "bias_initializer": {"config": {}, "class_name": "Zeros"}}, "class_name": "Conv2D", "inbound_nodes": [[["activation_38", 0, 0, {}]]], "name": "res4f_branch2b"}, {"config": {"momentum": 0.99, "epsilon": 0.001, "moving_mean_initializer": {"config": {}, "class_name": "Zeros"}, "beta_regularizer": null, "scale": true, "gamma_initializer": {"config": {}, "class_name": "Ones"}, "name": "bn4f_branch2b", "trainable": false, "center": true, "moving_variance_initializer": {"config": {}, "class_name": "Ones"}, "beta_initializer": {"config": {}, "class_name": "Zeros"}, "beta_constraint": null, "gamma_constraint": null, "axis": 3, "gamma_regularizer": null}, "class_name": "BatchNormalization", "inbound_nodes": [[["res4f_branch2b", 0, 0, {}]]], "name": "bn4f_branch2b"}, {"config": {"name": "activation_39", "activation": "relu", "trainable": false}, "class_name": "Activation", "inbound_nodes": [[["bn4f_branch2b", 0, 0, {}]]], "name": "activation_39"}, {"config": {"kernel_size": [1, 1], "bias_constraint": null, "padding": "valid", "bias_regularizer": null, "activity_regularizer": null, "use_bias": true, "filters": 1024, "dilation_rate": [1, 1], "strides": [1, 1], "data_format": "channels_last", "trainable": false, "kernel_regularizer": null, "name": "res4f_branch2c", "activation": "linear", "kernel_initializer": {"config": {"mode": "fan_avg", "scale": 1.0, "distribution": "uniform", "seed": null}, "class_name": "VarianceScaling"}, "kernel_constraint": null, "bias_initializer": {"config": {}, "class_name": "Zeros"}}, "class_name": "Conv2D", "inbound_nodes": [[["activation_39", 0, 0, {}]]], "name": "res4f_branch2c"}, {"config": {"momentum": 0.99, "epsilon": 0.001, "moving_mean_initializer": {"config": {}, "class_name": "Zeros"}, "beta_regularizer": null, "scale": true, "gamma_initializer": {"config": {}, "class_name": "Ones"}, "name": "bn4f_branch2c", "trainable": false, "center": true, "moving_variance_initializer": {"config": {}, "class_name": "Ones"}, "beta_initializer": {"config": {}, "class_name": "Zeros"}, "beta_constraint": null, "gamma_constraint": null, "axis": 3, "gamma_regularizer": null}, "class_name": "BatchNormalization", "inbound_nodes": [[["res4f_branch2c", 0, 0, {}]]], "name": "bn4f_branch2c"}, {"config": {"name": "add_13", "trainable": false}, "class_name": "Add", "inbound_nodes": [[["bn4f_branch2c", 0, 0, {}], ["activation_37", 0, 0, {}]]], "name": "add_13"}, {"config": {"name": "activation_40", "activation": "relu", "trainable": false}, "class_name": "Activation", "inbound_nodes": [[["add_13", 0, 0, {}]]], "name": "activation_40"}, {"config": {"kernel_size": [1, 1], "bias_constraint": null, "padding": "valid", "bias_regularizer": null, "activity_regularizer": null, "use_bias": true, "filters": 512, "dilation_rate": [1, 1], "strides": [2, 2], "data_format": "channels_last", "trainable": false, "kernel_regularizer": null, "name": "res5a_branch2a", "activation": "linear", "kernel_initializer": {"config": {"mode": "fan_avg", "scale": 1.0, "distribution": "uniform", "seed": null}, "class_name": "VarianceScaling"}, "kernel_constraint": null, "bias_initializer": {"config": {}, "class_name": "Zeros"}}, "class_name": "Conv2D", "inbound_nodes": [[["activation_40", 0, 0, {}]]], "name": "res5a_branch2a"}, {"config": {"momentum": 0.99, "epsilon": 0.001, "moving_mean_initializer": {"config": {}, "class_name": "Zeros"}, "beta_regularizer": null, "scale": true, "gamma_initializer": {"config": {}, "class_name": "Ones"}, "name": "bn5a_branch2a", "trainable": false, "center": true, "moving_variance_initializer": {"config": {}, "class_name": "Ones"}, "beta_initializer": {"config": {}, "class_name": "Zeros"}, "beta_constraint": null, "gamma_constraint": null, "axis": 3, "gamma_regularizer": null}, "class_name": "BatchNormalization", "inbound_nodes": [[["res5a_branch2a", 0, 0, {}]]], "name": "bn5a_branch2a"}, {"config": {"name": "activation_41", "activation": "relu", "trainable": false}, "class_name": "Activation", "inbound_nodes": [[["bn5a_branch2a", 0, 0, {}]]], "name": "activation_41"}, {"config": {"kernel_size": [3, 3], "bias_constraint": null, "padding": "same", "bias_regularizer": null, "activity_regularizer": null, "use_bias": true, "filters": 512, "dilation_rate": [1, 1], "strides": [1, 1], "data_format": "channels_last", "trainable": false, "kernel_regularizer": null, "name": "res5a_branch2b", "activation": "linear", "kernel_initializer": {"config": {"mode": "fan_avg", "scale": 1.0, "distribution": "uniform", "seed": null}, "class_name": "VarianceScaling"}, "kernel_constraint": null, "bias_initializer": {"config": {}, "class_name": "Zeros"}}, "class_name": "Conv2D", "inbound_nodes": [[["activation_41", 0, 0, {}]]], "name": "res5a_branch2b"}, {"config": {"momentum": 0.99, "epsilon": 0.001, "moving_mean_initializer": {"config": {}, "class_name": "Zeros"}, "beta_regularizer": null, "scale": true, "gamma_initializer": {"config": {}, "class_name": "Ones"}, "name": "bn5a_branch2b", "trainable": false, "center": true, "moving_variance_initializer": {"config": {}, "class_name": "Ones"}, "beta_initializer": {"config": {}, "class_name": "Zeros"}, "beta_constraint": null, "gamma_constraint": null, "axis": 3, "gamma_regularizer": null}, "class_name": "BatchNormalization", "inbound_nodes": [[["res5a_branch2b", 0, 0, {}]]], "name": "bn5a_branch2b"}, {"config": {"name": "activation_42", "activation": "relu", "trainable": false}, "class_name": "Activation", "inbound_nodes": [[["bn5a_branch2b", 0, 0, {}]]], "name": "activation_42"}, {"config": {"kernel_size": [1, 1], "bias_constraint": null, "padding": "valid", "bias_regularizer": null, "activity_regularizer": null, "use_bias": true, "filters": 2048, "dilation_rate": [1, 1], "strides": [1, 1], "data_format": "channels_last", "trainable": false, "kernel_regularizer": null, "name": "res5a_branch2c", "activation": "linear", "kernel_initializer": {"config": {"mode": "fan_avg", "scale": 1.0, "distribution": "uniform", "seed": null}, "class_name": "VarianceScaling"}, "kernel_constraint": null, "bias_initializer": {"config": {}, "class_name": "Zeros"}}, "class_name": "Conv2D", "inbound_nodes": [[["activation_42", 0, 0, {}]]], "name": "res5a_branch2c"}, {"config": {"kernel_size": [1, 1], "bias_constraint": null, "padding": "valid", "bias_regularizer": null, "activity_regularizer": null, "use_bias": true, "filters": 2048, "dilation_rate": [1, 1], "strides": [2, 2], "data_format": "channels_last", "trainable": false, "kernel_regularizer": null, "name": "res5a_branch1", "activation": "linear", "kernel_initializer": {"config": {"mode": "fan_avg", "scale": 1.0, "distribution": "uniform", "seed": null}, "class_name": "VarianceScaling"}, "kernel_constraint": null, "bias_initializer": {"config": {}, "class_name": "Zeros"}}, "class_name": "Conv2D", "inbound_nodes": [[["activation_40", 0, 0, {}]]], "name": "res5a_branch1"}, {"config": {"momentum": 0.99, "epsilon": 0.001, "moving_mean_initializer": {"config": {}, "class_name": "Zeros"}, "beta_regularizer": null, "scale": true, "gamma_initializer": {"config": {}, "class_name": "Ones"}, "name": "bn5a_branch2c", "trainable": false, "center": true, "moving_variance_initializer": {"config": {}, "class_name": "Ones"}, "beta_initializer": {"config": {}, "class_name": "Zeros"}, "beta_constraint": null, "gamma_constraint": null, "axis": 3, "gamma_regularizer": null}, "class_name": "BatchNormalization", "inbound_nodes": [[["res5a_branch2c", 0, 0, {}]]], "name": "bn5a_branch2c"}, {"config": {"momentum": 0.99, "epsilon": 0.001, "moving_mean_initializer": {"config": {}, "class_name": "Zeros"}, "beta_regularizer": null, "scale": true, "gamma_initializer": {"config": {}, "class_name": "Ones"}, "name": "bn5a_branch1", "trainable": false, "center": true, "moving_variance_initializer": {"config": {}, "class_name": "Ones"}, "beta_initializer": {"config": {}, "class_name": "Zeros"}, "beta_constraint": null, "gamma_constraint": null, "axis": 3, "gamma_regularizer": null}, "class_name": "BatchNormalization", "inbound_nodes": [[["res5a_branch1", 0, 0, {}]]], "name": "bn5a_branch1"}, {"config": {"name": "add_14", "trainable": false}, "class_name": "Add", "inbound_nodes": [[["bn5a_branch2c", 0, 0, {}], ["bn5a_branch1", 0, 0, {}]]], "name": "add_14"}, {"config": {"name": "activation_43", "activation": "relu", "trainable": false}, "class_name": "Activation", "inbound_nodes": [[["add_14", 0, 0, {}]]], "name": "activation_43"}, {"config": {"kernel_size": [1, 1], "bias_constraint": null, "padding": "valid", "bias_regularizer": null, "activity_regularizer": null, "use_bias": true, "filters": 512, "dilation_rate": [1, 1], "strides": [1, 1], "data_format": "channels_last", "trainable": false, "kernel_regularizer": null, "name": "res5b_branch2a", "activation": "linear", "kernel_initializer": {"config": {"mode": "fan_avg", "scale": 1.0, "distribution": "uniform", "seed": null}, "class_name": "VarianceScaling"}, "kernel_constraint": null, "bias_initializer": {"config": {}, "class_name": "Zeros"}}, "class_name": "Conv2D", "inbound_nodes": [[["activation_43", 0, 0, {}]]], "name": "res5b_branch2a"}, {"config": {"momentum": 0.99, "epsilon": 0.001, "moving_mean_initializer": {"config": {}, "class_name": "Zeros"}, "beta_regularizer": null, "scale": true, "gamma_initializer": {"config": {}, "class_name": "Ones"}, "name": "bn5b_branch2a", "trainable": false, "center": true, "moving_variance_initializer": {"config": {}, "class_name": "Ones"}, "beta_initializer": {"config": {}, "class_name": "Zeros"}, "beta_constraint": null, "gamma_constraint": null, "axis": 3, "gamma_regularizer": null}, "class_name": "BatchNormalization", "inbound_nodes": [[["res5b_branch2a", 0, 0, {}]]], "name": "bn5b_branch2a"}, {"config": {"name": "activation_44", "activation": "relu", "trainable": false}, "class_name": "Activation", "inbound_nodes": [[["bn5b_branch2a", 0, 0, {}]]], "name": "activation_44"}, {"config": {"kernel_size": [3, 3], "bias_constraint": null, "padding": "same", "bias_regularizer": null, "activity_regularizer": null, "use_bias": true, "filters": 512, "dilation_rate": [1, 1], "strides": [1, 1], "data_format": "channels_last", "trainable": false, "kernel_regularizer": null, "name": "res5b_branch2b", "activation": "linear", "kernel_initializer": {"config": {"mode": "fan_avg", "scale": 1.0, "distribution": "uniform", "seed": null}, "class_name": "VarianceScaling"}, "kernel_constraint": null, "bias_initializer": {"config": {}, "class_name": "Zeros"}}, "class_name": "Conv2D", "inbound_nodes": [[["activation_44", 0, 0, {}]]], "name": "res5b_branch2b"}, {"config": {"momentum": 0.99, "epsilon": 0.001, "moving_mean_initializer": {"config": {}, "class_name": "Zeros"}, "beta_regularizer": null, "scale": true, "gamma_initializer": {"config": {}, "class_name": "Ones"}, "name": "bn5b_branch2b", "trainable": false, "center": true, "moving_variance_initializer": {"config": {}, "class_name": "Ones"}, "beta_initializer": {"config": {}, "class_name": "Zeros"}, "beta_constraint": null, "gamma_constraint": null, "axis": 3, "gamma_regularizer": null}, "class_name": "BatchNormalization", "inbound_nodes": [[["res5b_branch2b", 0, 0, {}]]], "name": "bn5b_branch2b"}, {"config": {"name": "activation_45", "activation": "relu", "trainable": false}, "class_name": "Activation", "inbound_nodes": [[["bn5b_branch2b", 0, 0, {}]]], "name": "activation_45"}, {"config": {"kernel_size": [1, 1], "bias_constraint": null, "padding": "valid", "bias_regularizer": null, "activity_regularizer": null, "use_bias": true, "filters": 2048, "dilation_rate": [1, 1], "strides": [1, 1], "data_format": "channels_last", "trainable": false, "kernel_regularizer": null, "name": "res5b_branch2c", "activation": "linear", "kernel_initializer": {"config": {"mode": "fan_avg", "scale": 1.0, "distribution": "uniform", "seed": null}, "class_name": "VarianceScaling"}, "kernel_constraint": null, "bias_initializer": {"config": {}, "class_name": "Zeros"}}, "class_name": "Conv2D", "inbound_nodes": [[["activation_45", 0, 0, {}]]], "name": "res5b_branch2c"}, {"config": {"momentum": 0.99, "epsilon": 0.001, "moving_mean_initializer": {"config": {}, "class_name": "Zeros"}, "beta_regularizer": null, "scale": true, "gamma_initializer": {"config": {}, "class_name": "Ones"}, "name": "bn5b_branch2c", "trainable": false, "center": true, "moving_variance_initializer": {"config": {}, "class_name": "Ones"}, "beta_initializer": {"config": {}, "class_name": "Zeros"}, "beta_constraint": null, "gamma_constraint": null, "axis": 3, "gamma_regularizer": null}, "class_name": "BatchNormalization", "inbound_nodes": [[["res5b_branch2c", 0, 0, {}]]], "name": "bn5b_branch2c"}, {"config": {"name": "add_15", "trainable": false}, "class_name": "Add", "inbound_nodes": [[["bn5b_branch2c", 0, 0, {}], ["activation_43", 0, 0, {}]]], "name": "add_15"}, {"config": {"name": "activation_46", "activation": "relu", "trainable": false}, "class_name": "Activation", "inbound_nodes": [[["add_15", 0, 0, {}]]], "name": "activation_46"}, {"config": {"kernel_size": [1, 1], "bias_constraint": null, "padding": "valid", "bias_regularizer": null, "activity_regularizer": null, "use_bias": true, "filters": 512, "dilation_rate": [1, 1], "strides": [1, 1], "data_format": "channels_last", "trainable": false, "kernel_regularizer": null, "name": "res5c_branch2a", "activation": "linear", "kernel_initializer": {"config": {"mode": "fan_avg", "scale": 1.0, "distribution": "uniform", "seed": null}, "class_name": "VarianceScaling"}, "kernel_constraint": null, "bias_initializer": {"config": {}, "class_name": "Zeros"}}, "class_name": "Conv2D", "inbound_nodes": [[["activation_46", 0, 0, {}]]], "name": "res5c_branch2a"}, {"config": {"momentum": 0.99, "epsilon": 0.001, "moving_mean_initializer": {"config": {}, "class_name": "Zeros"}, "beta_regularizer": null, "scale": true, "gamma_initializer": {"config": {}, "class_name": "Ones"}, "name": "bn5c_branch2a", "trainable": false, "center": true, "moving_variance_initializer": {"config": {}, "class_name": "Ones"}, "beta_initializer": {"config": {}, "class_name": "Zeros"}, "beta_constraint": null, "gamma_constraint": null, "axis": 3, "gamma_regularizer": null}, "class_name": "BatchNormalization", "inbound_nodes": [[["res5c_branch2a", 0, 0, {}]]], "name": "bn5c_branch2a"}, {"config": {"name": "activation_47", "activation": "relu", "trainable": false}, "class_name": "Activation", "inbound_nodes": [[["bn5c_branch2a", 0, 0, {}]]], "name": "activation_47"}, {"config": {"kernel_size": [3, 3], "bias_constraint": null, "padding": "same", "bias_regularizer": null, "activity_regularizer": null, "use_bias": true, "filters": 512, "dilation_rate": [1, 1], "strides": [1, 1], "data_format": "channels_last", "trainable": false, "kernel_regularizer": null, "name": "res5c_branch2b", "activation": "linear", "kernel_initializer": {"config": {"mode": "fan_avg", "scale": 1.0, "distribution": "uniform", "seed": null}, "class_name": "VarianceScaling"}, "kernel_constraint": null, "bias_initializer": {"config": {}, "class_name": "Zeros"}}, "class_name": "Conv2D", "inbound_nodes": [[["activation_47", 0, 0, {}]]], "name": "res5c_branch2b"}, {"config": {"momentum": 0.99, "epsilon": 0.001, "moving_mean_initializer": {"config": {}, "class_name": "Zeros"}, "beta_regularizer": null, "scale": true, "gamma_initializer": {"config": {}, "class_name": "Ones"}, "name": "bn5c_branch2b", "trainable": false, "center": true, "moving_variance_initializer": {"config": {}, "class_name": "Ones"}, "beta_initializer": {"config": {}, "class_name": "Zeros"}, "beta_constraint": null, "gamma_constraint": null, "axis": 3, "gamma_regularizer": null}, "class_name": "BatchNormalization", "inbound_nodes": [[["res5c_branch2b", 0, 0, {}]]], "name": "bn5c_branch2b"}, {"config": {"name": "activation_48", "activation": "relu", "trainable": false}, "class_name": "Activation", "inbound_nodes": [[["bn5c_branch2b", 0, 0, {}]]], "name": "activation_48"}, {"config": {"kernel_size": [1, 1], "bias_constraint": null, "padding": "valid", "bias_regularizer": null, "activity_regularizer": null, "use_bias": true, "filters": 2048, "dilation_rate": [1, 1], "strides": [1, 1], "data_format": "channels_last", "trainable": false, "kernel_regularizer": null, "name": "res5c_branch2c", "activation": "linear", "kernel_initializer": {"config": {"mode": "fan_avg", "scale": 1.0, "distribution": "uniform", "seed": null}, "class_name": "VarianceScaling"}, "kernel_constraint": null, "bias_initializer": {"config": {}, "class_name": "Zeros"}}, "class_name": "Conv2D", "inbound_nodes": [[["activation_48", 0, 0, {}]]], "name": "res5c_branch2c"}, {"config": {"momentum": 0.99, "epsilon": 0.001, "moving_mean_initializer": {"config": {}, "class_name": "Zeros"}, "beta_regularizer": null, "scale": true, "gamma_initializer": {"config": {}, "class_name": "Ones"}, "name": "bn5c_branch2c", "trainable": false, "center": true, "moving_variance_initializer": {"config": {}, "class_name": "Ones"}, "beta_initializer": {"config": {}, "class_name": "Zeros"}, "beta_constraint": null, "gamma_constraint": null, "axis": 3, "gamma_regularizer": null}, "class_name": "BatchNormalization", "inbound_nodes": [[["res5c_branch2c", 0, 0, {}]]], "name": "bn5c_branch2c"}, {"config": {"name": "add_16", "trainable": false}, "class_name": "Add", "inbound_nodes": [[["bn5c_branch2c", 0, 0, {}], ["activation_46", 0, 0, {}]]], "name": "add_16"}, {"config": {"name": "activation_49", "activation": "relu", "trainable": false}, "class_name": "Activation", "inbound_nodes": [[["add_16", 0, 0, {}]]], "name": "activation_49"}, {"config": {"pool_size": [7, 7], "padding": "valid", "strides": [7, 7], "data_format": "channels_last", "name": "avg_pool", "trainable": false}, "class_name": "AveragePooling2D", "inbound_nodes": [[["activation_49", 0, 0, {}]]], "name": "avg_pool"}, {"config": {"name": "global_average_pooling2d_4", "data_format": "channels_last", "trainable": false}, "class_name": "GlobalAveragePooling2D", "inbound_nodes": [[["avg_pool", 0, 0, {}]]], "name": "global_average_pooling2d_4"}, {"config": {"bias_constraint": null, "bias_regularizer": null, "activity_regularizer": null, "use_bias": true, "name": "dense_11", "trainable": true, "kernel_regularizer": null, "units": 1, "activation": "sigmoid", "kernel_initializer": {"config": {"mode": "fan_avg", "scale": 1.0, "distribution": "uniform", "seed": null}, "class_name": "VarianceScaling"}, "kernel_constraint": null, "bias_initializer": {"config": {}, "class_name": "Zeros"}}, "class_name": "Dense", "inbound_nodes": [[["global_average_pooling2d_4", 0, 0, {}]]], "name": "dense_11"}], "name": "model_1", "output_layers": [["dense_11", 0, 0]]}, "class_name": "Model", "keras_version": "2.0.6", "backend": "tensorflow"}