{"config": {"input_layers": [["input_6", 0, 0]], "layers": [{"config": {"batch_input_shape": [null, 224, 224, 3], "sparse": false, "name": "input_6", "dtype": "float32"}, "class_name": "InputLayer", "inbound_nodes": [], "name": "input_6"}, {"config": {"padding": [[3, 3], [3, 3]], "name": "zero_padding2d_3", "data_format": "channels_last", "trainable": false}, "class_name": "ZeroPadding2D", "inbound_nodes": [[["input_6", 0, 0, {}]]], "name": "zero_padding2d_3"}, {"config": {"kernel_size": [7, 7], "bias_constraint": null, "padding": "valid", "bias_regularizer": null, "activity_regularizer": null, "use_bias": true, "filters": 64, "dilation_rate": [1, 1], "strides": [2, 2], "data_format": "channels_last", "trainable": false, "kernel_regularizer": null, "name": "conv1", "activation": "linear", "kernel_initializer": {"config": {"mode": "fan_avg", "scale": 1.0, "distribution": "uniform", "seed": null}, "class_name": "VarianceScaling"}, "kernel_constraint": null, "bias_initializer": {"config": {}, "class_name": "Zeros"}}, "class_name": "Conv2D", "inbound_nodes": [[["zero_padding2d_3", 0, 0, {}]]], "name": "conv1"}, {"config": {"momentum": 0.99, "epsilon": 0.001, "moving_mean_initializer": {"config": {}, "class_name": "Zeros"}, "beta_regularizer": null, "scale": true, "gamma_initializer": {"config": {}, "class_name": "Ones"}, "name": "bn_conv1", "trainable": false, "center": true, "moving_variance_initializer": {"config": {}, "class_name": "Ones"}, "beta_initializer": {"config": {}, "class_name": "Zeros"}, "beta_constraint": null, "gamma_constraint": null, "axis": 3, "gamma_regularizer": null}, "class_name": "BatchNormalization", "inbound_nodes": [[["conv1", 0, 0, {}]]], "name": "bn_conv1"}, {"config": {"name": "activation_99", "activation": "relu", "trainable": false}, "class_name": "Activation", "inbound_nodes": [[["bn_conv1", 0, 0, {}]]], "name": "activation_99"}, {"config": {"pool_size": [3, 3], "padding": "valid", "strides": [2, 2], "data_format": "channels_last", "name": "max_pooling2d_3", "trainable": false}, "class_name": "MaxPooling2D", "inbound_nodes": [[["activation_99", 0, 0, {}]]], "name": "max_pooling2d_3"}, {"config": {"kernel_size": [1, 1], "bias_constraint": null, "padding": "valid", "bias_regularizer": null, "activity_regularizer": null, "use_bias": true, "filters": 64, "dilation_rate": [1, 1], "strides": [1, 1], "data_format": "channels_last", "trainable": false, "kernel_regularizer": null, "name": "res2a_branch2a", "activation": "linear", "kernel_initializer": {"config": {"mode": "fan_avg", "scale": 1.0, "distribution": "uniform", "seed": null}, "class_name": "VarianceScaling"}, "kernel_constraint": null, "bias_initializer": {"config": {}, "class_name": "Zeros"}}, "class_name": "Conv2D", "inbound_nodes": [[["max_pooling2d_3", 0, 0, {}]]], "name": "res2a_branch2a"}, {"config": {"momentum": 0.99, "epsilon": 0.001, "moving_mean_initializer": {"config": {}, "class_name": "Zeros"}, "beta_regularizer": null, "scale": true, "gamma_initializer": {"config": {}, "class_name": "Ones"}, "name": "bn2a_branch2a", "trainable": false, "center": true, "moving_variance_initializer": {"config": {}, "class_name": "Ones"}, "beta_initializer": {"config": {}, "class_name": "Zeros"}, "beta_constraint": null, "gamma_constraint": null, "axis": 3, "gamma_regularizer": null}, "class_name": "BatchNormalization", "inbound_nodes": [[["res2a_branch2a", 0, 0, {}]]], "name": "bn2a_branch2a"}, {"config": {"name": "activation_100", "activation": "relu", "trainable": false}, "class_name": "Activation", "inbound_nodes": [[["bn2a_branch2a", 0, 0, {}]]], "name": "activation_100"}, {"config": {"kernel_size": [3, 3], "bias_constraint": null, "padding": "same", "bias_regularizer": null, "activity_regularizer": null, "use_bias": true, "filters": 64, "dilation_rate": [1, 1], "strides": [1, 1], "data_format": "channels_last", "trainable": false, "kernel_regularizer": null, "name": "res2a_branch2b", "activation": "linear", "kernel_initializer": {"config": {"mode": "fan_avg", "scale": 1.0, "distribution": "uniform", "seed": null}, "class_name": "VarianceScaling"}, "kernel_constraint": null, "bias_initializer": {"config": {}, "class_name": "Zeros"}}, "class_name": "Conv2D", "inbound_nodes": [[["activation_100", 0, 0, {}]]], "name": "res2a_branch2b"}, {"config": {"momentum": 0.99, "epsilon": 0.001, "moving_mean_initializer": {"config": {}, "class_name": "Zeros"}, "beta_regularizer": null, "scale": true, "gamma_initializer": {"config": {}, "class_name": "Ones"}, "name": "bn2a_branch2b", "trainable": false, "center": true, "moving_variance_initializer": {"config": {}, "class_name": "Ones"}, "beta_initializer": {"config": {}, "class_name": "Zeros"}, "beta_constraint": null, "gamma_constraint": null, "axis": 3, "gamma_regularizer": null}, "class_name": "BatchNormalization", "inbound_nodes": [[["res2a_branch2b", 0, 0, {}]]], "name": "bn2a_branch2b"}, {"config": {"name": "activation_101", "activation": "relu", "trainable": false}, "class_name": "Activation", "inbound_nodes": [[["bn2a_branch2b", 0, 0, {}]]], "name": "activation_101"}, {"config": {"kernel_size": [1, 1], "bias_constraint": null, "padding": "valid", "bias_regularizer": null, "activity_regularizer": null, "use_bias": true, "filters": 256, "dilation_rate": [1, 1], "strides": [1, 1], "data_format": "channels_last", "trainable": false, "kernel_regularizer": null, "name": "res2a_branch2c", "activation": "linear", "kernel_initializer": {"config": {"mode": "fan_avg", "scale": 1.0, "distribution": "uniform", "seed": null}, "class_name": "VarianceScaling"}, "kernel_constraint": null, "bias_initializer": {"config": {}, "class_name": "Zeros"}}, "class_name": "Conv2D", "inbound_nodes": [[["activation_101", 0, 0, {}]]], "name": "res2a_branch2c"}, {"config": {"kernel_size": [1, 1], "bias_constraint": null, "padding": "valid", "bias_regularizer": null, "activity_regularizer": null, "use_bias": true, "filters": 256, "dilation_rate": [1, 1], "strides": [1, 1], "data_format": "channels_last", "trainable": false, "kernel_regularizer": null, "name": "res2a_branch1", "activation": "linear", "kernel_initializer": {"config": {"mode": "fan_avg", "scale": 1.0, "distribution": "uniform", "seed": null}, "class_name": "VarianceScaling"}, "kernel_constraint": null, "bias_initializer": {"config": {}, "class_name": "Zeros"}}, "class_name": "Conv2D", "inbound_nodes": [[["max_pooling2d_3", 0, 0, {}]]], "name": "res2a_branch1"}, {"config": {"momentum": 0.99, "epsilon": 0.001, "moving_mean_initializer": {"config": {}, "class_name": "Zeros"}, "beta_regularizer": null, "scale": true, "gamma_initializer": {"config": {}, "class_name": "Ones"}, "name": "bn2a_branch2c", "trainable": false, "center": true, "moving_variance_initializer": {"config": {}, "class_name": "Ones"}, "beta_initializer": {"config": {}, "class_name": "Zeros"}, "beta_constraint": null, "gamma_constraint": null, "axis": 3, "gamma_regularizer": null}, "class_name": "BatchNormalization", "inbound_nodes": [[["res2a_branch2c", 0, 0, {}]]], "name": "bn2a_branch2c"}, {"config": {"momentum": 0.99, "epsilon": 0.001, "moving_mean_initializer": {"config": {}, "class_name": "Zeros"}, "beta_regularizer": null, "scale": true, "gamma_initializer": {"config": {}, "class_name": "Ones"}, "name": "bn2a_branch1", "trainable": false, "center": true, "moving_variance_initializer": {"config": {}, "class_name": "Ones"}, "beta_initializer": {"config": {}, "class_name": "Zeros"}, "beta_constraint": null, "gamma_constraint": null, "axis": 3, "gamma_regularizer": null}, "class_name": "BatchNormalization", "inbound_nodes": [[["res2a_branch1", 0, 0, {}]]], "name": "bn2a_branch1"}, {"config": {"name": "add_33", "trainable": false}, "class_name": "Add", "inbound_nodes": [[["bn2a_branch2c", 0, 0, {}], ["bn2a_branch1", 0, 0, {}]]], "name": "add_33"}, {"config": {"name": "activation_102", "activation": "relu", "trainable": false}, "class_name": "Activation", "inbound_nodes": [[["add_33", 0, 0, {}]]], "name": "activation_102"}, {"config": {"kernel_size": [1, 1], "bias_constraint": null, "padding": "valid", "bias_regularizer": null, "activity_regularizer": null, "use_bias": true, "filters": 64, "dilation_rate": [1, 1], "strides": [1, 1], "data_format": "channels_last", "trainable": false, "kernel_regularizer": null, "name": "res2b_branch2a", "activation": "linear", "kernel_initializer": {"config": {"mode": "fan_avg", "scale": 1.0, "distribution": "uniform", "seed": null}, "class_name": "VarianceScaling"}, "kernel_constraint": null, "bias_initializer": {"config": {}, "class_name": "Zeros"}}, "class_name": "Conv2D", "inbound_nodes": [[["activation_102", 0, 0, {}]]], "name": "res2b_branch2a"}, {"config": {"momentum": 0.99, "epsilon": 0.001, "moving_mean_initializer": {"config": {}, "class_name": "Zeros"}, "beta_regularizer": null, "scale": true, "gamma_initializer": {"config": {}, "class_name": "Ones"}, "name": "bn2b_branch2a", "trainable": false, "center": true, "moving_variance_initializer": {"config": {}, "class_name": "Ones"}, "beta_initializer": {"config": {}, "class_name": "Zeros"}, "beta_constraint": null, "gamma_constraint": null, "axis": 3, "gamma_regularizer": null}, "class_name": "BatchNormalization", "inbound_nodes": [[["res2b_branch2a", 0, 0, {}]]], "name": "bn2b_branch2a"}, {"config": {"name": "activation_103", "activation": "relu", "trainable": false}, "class_name": "Activation", "inbound_nodes": [[["bn2b_branch2a", 0, 0, {}]]], "name": "activation_103"}, {"config": {"kernel_size": [3, 3], "bias_constraint": null, "padding": "same", "bias_regularizer": null, "activity_regularizer": null, "use_bias": true, "filters": 64, "dilation_rate": [1, 1], "strides": [1, 1], "data_format": "channels_last", "trainable": false, "kernel_regularizer": null, "name": "res2b_branch2b", "activation": "linear", "kernel_initializer": {"config": {"mode": "fan_avg", "scale": 1.0, "distribution": "uniform", "seed": null}, "class_name": "VarianceScaling"}, "kernel_constraint": null, "bias_initializer": {"config": {}, "class_name": "Zeros"}}, "class_name": "Conv2D", "inbound_nodes": [[["activation_103", 0, 0, {}]]], "name": "res2b_branch2b"}, {"config": {"momentum": 0.99, "epsilon": 0.001, "moving_mean_initializer": {"config": {}, "class_name": "Zeros"}, "beta_regularizer": null, "scale": true, "gamma_initializer": {"config": {}, "class_name": "Ones"}, "name": "bn2b_branch2b", "trainable": false, "center": true, "moving_variance_initializer": {"config": {}, "class_name": "Ones"}, "beta_initializer": {"config": {}, "class_name": "Zeros"}, "beta_constraint": null, "gamma_constraint": null, "axis": 3, "gamma_regularizer": null}, "class_name": "BatchNormalization", "inbound_nodes": [[["res2b_branch2b", 0, 0, {}]]], "name": "bn2b_branch2b"}, {"config": {"name": "activation_104", "activation": "relu", "trainable": false}, "class_name": "Activation", "inbound_nodes": [[["bn2b_branch2b", 0, 0, {}]]], "name": "activation_104"}, {"config": {"kernel_size": [1, 1], "bias_constraint": null, "padding": "valid", "bias_regularizer": null, "activity_regularizer": null, "use_bias": true, "filters": 256, "dilation_rate": [1, 1], "strides": [1, 1], "data_format": "channels_last", "trainable": false, "kernel_regularizer": null, "name": "res2b_branch2c", "activation": "linear", "kernel_initializer": {"config": {"mode": "fan_avg", "scale": 1.0, "distribution": "uniform", "seed": null}, "class_name": "VarianceScaling"}, "kernel_constraint": null, "bias_initializer": {"config": {}, "class_name": "Zeros"}}, "class_name": "Conv2D", "inbound_nodes": [[["activation_104", 0, 0, {}]]], "name": "res2b_branch2c"}, {"config": {"momentum": 0.99, "epsilon": 0.001, "moving_mean_initializer": {"config": {}, "class_name": "Zeros"}, "beta_regularizer": null, "scale": true, "gamma_initializer": {"config": {}, "class_name": "Ones"}, "name": "bn2b_branch2c", "trainable": false, "center": true, "moving_variance_initializer": {"config": {}, "class_name": "Ones"}, "beta_initializer": {"config": {}, "class_name": "Zeros"}, "beta_constraint": null, "gamma_constraint": null, "axis": 3, "gamma_regularizer": null}, "class_name": "BatchNormalization", "inbound_nodes": [[["res2b_branch2c", 0, 0, {}]]], "name": "bn2b_branch2c"}, {"config": {"name": "add_34", "trainable": false}, "class_name": "Add", "inbound_nodes": [[["bn2b_branch2c", 0, 0, {}], ["activation_102", 0, 0, {}]]], "name": "add_34"}, {"config": {"name": "activation_105", "activation": "relu", "trainable": false}, "class_name": "Activation", "inbound_nodes": [[["add_34", 0, 0, {}]]], "name": "activation_105"}, {"config": {"kernel_size": [1, 1], "bias_constraint": null, "padding": "valid", "bias_regularizer": null, "activity_regularizer": null, "use_bias": true, "filters": 64, "dilation_rate": [1, 1], "strides": [1, 1], "data_format": "channels_last", "trainable": false, "kernel_regularizer": null, "name": "res2c_branch2a", "activation": "linear", "kernel_initializer": {"config": {"mode": "fan_avg", "scale": 1.0, "distribution": "uniform", "seed": null}, "class_name": "VarianceScaling"}, "kernel_constraint": null, "bias_initializer": {"config": {}, "class_name": "Zeros"}}, "class_name": "Conv2D", "inbound_nodes": [[["activation_105", 0, 0, {}]]], "name": "res2c_branch2a"}, {"config": {"momentum": 0.99, "epsilon": 0.001, "moving_mean_initializer": {"config": {}, "class_name": "Zeros"}, "beta_regularizer": null, "scale": true, "gamma_initializer": {"config": {}, "class_name": "Ones"}, "name": "bn2c_branch2a", "trainable": false, "center": true, "moving_variance_initializer": {"config": {}, "class_name": "Ones"}, "beta_initializer": {"config": {}, "class_name": "Zeros"}, "beta_constraint": null, "gamma_constraint": null, "axis": 3, "gamma_regularizer": null}, "class_name": "BatchNormalization", "inbound_nodes": [[["res2c_branch2a", 0, 0, {}]]], "name": "bn2c_branch2a"}, {"config": {"name": "activation_106", "activation": "relu", "trainable": false}, "class_name": "Activation", "inbound_nodes": [[["bn2c_branch2a", 0, 0, {}]]], "name": "activation_106"}, {"config": {"kernel_size": [3, 3], "bias_constraint": null, "padding": "same", "bias_regularizer": null, "activity_regularizer": null, "use_bias": true, "filters": 64, "dilation_rate": [1, 1], "strides": [1, 1], "data_format": "channels_last", "trainable": false, "kernel_regularizer": null, "name": "res2c_branch2b", "activation": "linear", "kernel_initializer": {"config": {"mode": "fan_avg", "scale": 1.0, "distribution": "uniform", "seed": null}, "class_name": "VarianceScaling"}, "kernel_constraint": null, "bias_initializer": {"config": {}, "class_name": "Zeros"}}, "class_name": "Conv2D", "inbound_nodes": [[["activation_106", 0, 0, {}]]], "name": "res2c_branch2b"}, {"config": {"momentum": 0.99, "epsilon": 0.001, "moving_mean_initializer": {"config": {}, "class_name": "Zeros"}, "beta_regularizer": null, "scale": true, "gamma_initializer": {"config": {}, "class_name": "Ones"}, "name": "bn2c_branch2b", "trainable": false, "center": true, "moving_variance_initializer": {"config": {}, "class_name": "Ones"}, "beta_initializer": {"config": {}, "class_name": "Zeros"}, "beta_constraint": null, "gamma_constraint": null, "axis": 3, "gamma_regularizer": null}, "class_name": "BatchNormalization", "inbound_nodes": [[["res2c_branch2b", 0, 0, {}]]], "name": "bn2c_branch2b"}, {"config": {"name": "activation_107", "activation": "relu", "trainable": false}, "class_name": "Activation", "inbound_nodes": [[["bn2c_branch2b", 0, 0, {}]]], "name": "activation_107"}, {"config": {"kernel_size": [1, 1], "bias_constraint": null, "padding": "valid", "bias_regularizer": null, "activity_regularizer": null, "use_bias": true, "filters": 256, "dilation_rate": [1, 1], "strides": [1, 1], "data_format": "channels_last", "trainable": false, "kernel_regularizer": null, "name": "res2c_branch2c", "activation": "linear", "kernel_initializer": {"config": {"mode": "fan_avg", "scale": 1.0, "distribution": "uniform", "seed": null}, "class_name": "VarianceScaling"}, "kernel_constraint": null, "bias_initializer": {"config": {}, "class_name": "Zeros"}}, "class_name": "Conv2D", "inbound_nodes": [[["activation_107", 0, 0, {}]]], "name": "res2c_branch2c"}, {"config": {"momentum": 0.99, "epsilon": 0.001, "moving_mean_initializer": {"config": {}, "class_name": "Zeros"}, "beta_regularizer": null, "scale": true, "gamma_initializer": {"config": {}, "class_name": "Ones"}, "name": "bn2c_branch2c", "trainable": false, "center": true, "moving_variance_initializer": {"config": {}, "class_name": "Ones"}, "beta_initializer": {"config": {}, "class_name": "Zeros"}, "beta_constraint": null, "gamma_constraint": null, "axis": 3, "gamma_regularizer": null}, "class_name": "BatchNormalization", "inbound_nodes": [[["res2c_branch2c", 0, 0, {}]]], "name": "bn2c_branch2c"}, {"config": {"name": "add_35", "trainable": false}, "class_name": "Add", "inbound_nodes": [[["bn2c_branch2c", 0, 0, {}], ["activation_105", 0, 0, {}]]], "name": "add_35"}, {"config": {"name": "activation_108", "activation": "relu", "trainable": false}, "class_name": "Activation", "inbound_nodes": [[["add_35", 0, 0, {}]]], "name": "activation_108"}, {"config": {"kernel_size": [1, 1], "bias_constraint": null, "padding": "valid", "bias_regularizer": null, "activity_regularizer": null, "use_bias": true, "filters": 128, "dilation_rate": [1, 1], "strides": [2, 2], "data_format": "channels_last", "trainable": false, "kernel_regularizer": null, "name": "res3a_branch2a", "activation": "linear", "kernel_initializer": {"config": {"mode": "fan_avg", "scale": 1.0, "distribution": "uniform", "seed": null}, "class_name": "VarianceScaling"}, "kernel_constraint": null, "bias_initializer": {"config": {}, "class_name": "Zeros"}}, "class_name": "Conv2D", "inbound_nodes": [[["activation_108", 0, 0, {}]]], "name": "res3a_branch2a"}, {"config": {"momentum": 0.99, "epsilon": 0.001, "moving_mean_initializer": {"config": {}, "class_name": "Zeros"}, "beta_regularizer": null, "scale": true, "gamma_initializer": {"config": {}, "class_name": "Ones"}, "name": "bn3a_branch2a", "trainable": false, "center": true, "moving_variance_initializer": {"config": {}, "class_name": "Ones"}, "beta_initializer": {"config": {}, "class_name": "Zeros"}, "beta_constraint": null, "gamma_constraint": null, "axis": 3, "gamma_regularizer": null}, "class_name": "BatchNormalization", "inbound_nodes": [[["res3a_branch2a", 0, 0, {}]]], "name": "bn3a_branch2a"}, {"config": {"name": "activation_109", "activation": "relu", "trainable": false}, "class_name": "Activation", "inbound_nodes": [[["bn3a_branch2a", 0, 0, {}]]], "name": "activation_109"}, {"config": {"kernel_size": [3, 3], "bias_constraint": null, "padding": "same", "bias_regularizer": null, "activity_regularizer": null, "use_bias": true, "filters": 128, "dilation_rate": [1, 1], "strides": [1, 1], "data_format": "channels_last", "trainable": false, "kernel_regularizer": null, "name": "res3a_branch2b", "activation": "linear", "kernel_initializer": {"config": {"mode": "fan_avg", "scale": 1.0, "distribution": "uniform", "seed": null}, "class_name": "VarianceScaling"}, "kernel_constraint": null, "bias_initializer": {"config": {}, "class_name": "Zeros"}}, "class_name": "Conv2D", "inbound_nodes": [[["activation_109", 0, 0, {}]]], "name": "res3a_branch2b"}, {"config": {"momentum": 0.99, "epsilon": 0.001, "moving_mean_initializer": {"config": {}, "class_name": "Zeros"}, "beta_regularizer": null, "scale": true, "gamma_initializer": {"config": {}, "class_name": "Ones"}, "name": "bn3a_branch2b", "trainable": false, "center": true, "moving_variance_initializer": {"config": {}, "class_name": "Ones"}, "beta_initializer": {"config": {}, "class_name": "Zeros"}, "beta_constraint": null, "gamma_constraint": null, "axis": 3, "gamma_regularizer": null}, "class_name": "BatchNormalization", "inbound_nodes": [[["res3a_branch2b", 0, 0, {}]]], "name": "bn3a_branch2b"}, {"config": {"name": "activation_110", "activation": "relu", "trainable": false}, "class_name": "Activation", "inbound_nodes": [[["bn3a_branch2b", 0, 0, {}]]], "name": "activation_110"}, {"config": {"kernel_size": [1, 1], "bias_constraint": null, "padding": "valid", "bias_regularizer": null, "activity_regularizer": null, "use_bias": true, "filters": 512, "dilation_rate": [1, 1], "strides": [1, 1], "data_format": "channels_last", "trainable": false, "kernel_regularizer": null, "name": "res3a_branch2c", "activation": "linear", "kernel_initializer": {"config": {"mode": "fan_avg", "scale": 1.0, "distribution": "uniform", "seed": null}, "class_name": "VarianceScaling"}, "kernel_constraint": null, "bias_initializer": {"config": {}, "class_name": "Zeros"}}, "class_name": "Conv2D", "inbound_nodes": [[["activation_110", 0, 0, {}]]], "name": "res3a_branch2c"}, {"config": {"kernel_size": [1, 1], "bias_constraint": null, "padding": "valid", "bias_regularizer": null, "activity_regularizer": null, "use_bias": true, "filters": 512, "dilation_rate": [1, 1], "strides": [2, 2], "data_format": "channels_last", "trainable": false, "kernel_regularizer": null, "name": "res3a_branch1", "activation": "linear", "kernel_initializer": {"config": {"mode": "fan_avg", "scale": 1.0, "distribution": "uniform", "seed": null}, "class_name": "VarianceScaling"}, "kernel_constraint": null, "bias_initializer": {"config": {}, "class_name": "Zeros"}}, "class_name": "Conv2D", "inbound_nodes": [[["activation_108", 0, 0, {}]]], "name": "res3a_branch1"}, {"config": {"momentum": 0.99, "epsilon": 0.001, "moving_mean_initializer": {"config": {}, "class_name": "Zeros"}, "beta_regularizer": null, "scale": true, "gamma_initializer": {"config": {}, "class_name": "Ones"}, "name": "bn3a_branch2c", "trainable": false, "center": true, "moving_variance_initializer": {"config": {}, "class_name": "Ones"}, "beta_initializer": {"config": {}, "class_name": "Zeros"}, "beta_constraint": null, "gamma_constraint": null, "axis": 3, "gamma_regularizer": null}, "class_name": "BatchNormalization", "inbound_nodes": [[["res3a_branch2c", 0, 0, {}]]], "name": "bn3a_branch2c"}, {"config": {"momentum": 0.99, "epsilon": 0.001, "moving_mean_initializer": {"config": {}, "class_name": "Zeros"}, "beta_regularizer": null, "scale": true, "gamma_initializer": {"config": {}, "class_name": "Ones"}, "name": "bn3a_branch1", "trainable": false, "center": true, "moving_variance_initializer": {"config": {}, "class_name": "Ones"}, "beta_initializer": {"config": {}, "class_name": "Zeros"}, "beta_constraint": null, "gamma_constraint": null, "axis": 3, "gamma_regularizer": null}, "class_name": "BatchNormalization", "inbound_nodes": [[["res3a_branch1", 0, 0, {}]]], "name": "bn3a_branch1"}, {"config": {"name": "add_36", "trainable": false}, "class_name": "Add", "inbound_nodes": [[["bn3a_branch2c", 0, 0, {}], ["bn3a_branch1", 0, 0, {}]]], "name": "add_36"}, {"config": {"name": "activation_111", "activation": "relu", "trainable": false}, "class_name": "Activation", "inbound_nodes": [[["add_36", 0, 0, {}]]], "name": "activation_111"}, {"config": {"kernel_size": [1, 1], "bias_constraint": null, "padding": "valid", "bias_regularizer": null, "activity_regularizer": null, "use_bias": true, "filters": 128, "dilation_rate": [1, 1], "strides": [1, 1], "data_format": "channels_last", "trainable": false, "kernel_regularizer": null, "name": "res3b_branch2a", "activation": "linear", "kernel_initializer": {"config": {"mode": "fan_avg", "scale": 1.0, "distribution": "uniform", "seed": null}, "class_name": "VarianceScaling"}, "kernel_constraint": null, "bias_initializer": {"config": {}, "class_name": "Zeros"}}, "class_name": "Conv2D", "inbound_nodes": [[["activation_111", 0, 0, {}]]], "name": "res3b_branch2a"}, {"config": {"momentum": 0.99, "epsilon": 0.001, "moving_mean_initializer": {"config": {}, "class_name": "Zeros"}, "beta_regularizer": null, "scale": true, "gamma_initializer": {"config": {}, "class_name": "Ones"}, "name": "bn3b_branch2a", "trainable": false, "center": true, "moving_variance_initializer": {"config": {}, "class_name": "Ones"}, "beta_initializer": {"config": {}, "class_name": "Zeros"}, "beta_constraint": null, "gamma_constraint": null, "axis": 3, "gamma_regularizer": null}, "class_name": "BatchNormalization", "inbound_nodes": [[["res3b_branch2a", 0, 0, {}]]], "name": "bn3b_branch2a"}, {"config": {"name": "activation_112", "activation": "relu", "trainable": false}, "class_name": "Activation", "inbound_nodes": [[["bn3b_branch2a", 0, 0, {}]]], "name": "activation_112"}, {"config": {"kernel_size": [3, 3], "bias_constraint": null, "padding": "same", "bias_regularizer": null, "activity_regularizer": null, "use_bias": true, "filters": 128, "dilation_rate": [1, 1], "strides": [1, 1], "data_format": "channels_last", "trainable": false, "kernel_regularizer": null, "name": "res3b_branch2b", "activation": "linear", "kernel_initializer": {"config": {"mode": "fan_avg", "scale": 1.0, "distribution": "uniform", "seed": null}, "class_name": "VarianceScaling"}, "kernel_constraint": null, "bias_initializer": {"config": {}, "class_name": "Zeros"}}, "class_name": "Conv2D", "inbound_nodes": [[["activation_112", 0, 0, {}]]], "name": "res3b_branch2b"}, {"config": {"momentum": 0.99, "epsilon": 0.001, "moving_mean_initializer": {"config": {}, "class_name": "Zeros"}, "beta_regularizer": null, "scale": true, "gamma_initializer": {"config": {}, "class_name": "Ones"}, "name": "bn3b_branch2b", "trainable": false, "center": true, "moving_variance_initializer": {"config": {}, "class_name": "Ones"}, "beta_initializer": {"config": {}, "class_name": "Zeros"}, "beta_constraint": null, "gamma_constraint": null, "axis": 3, "gamma_regularizer": null}, "class_name": "BatchNormalization", "inbound_nodes": [[["res3b_branch2b", 0, 0, {}]]], "name": "bn3b_branch2b"}, {"config": {"name": "activation_113", "activation": "relu", "trainable": false}, "class_name": "Activation", "inbound_nodes": [[["bn3b_branch2b", 0, 0, {}]]], "name": "activation_113"}, {"config": {"kernel_size": [1, 1], "bias_constraint": null, "padding": "valid", "bias_regularizer": null, "activity_regularizer": null, "use_bias": true, "filters": 512, "dilation_rate": [1, 1], "strides": [1, 1], "data_format": "channels_last", "trainable": false, "kernel_regularizer": null, "name": "res3b_branch2c", "activation": "linear", "kernel_initializer": {"config": {"mode": "fan_avg", "scale": 1.0, "distribution": "uniform", "seed": null}, "class_name": "VarianceScaling"}, "kernel_constraint": null, "bias_initializer": {"config": {}, "class_name": "Zeros"}}, "class_name": "Conv2D", "inbound_nodes": [[["activation_113", 0, 0, {}]]], "name": "res3b_branch2c"}, {"config": {"momentum": 0.99, "epsilon": 0.001, "moving_mean_initializer": {"config": {}, "class_name": "Zeros"}, "beta_regularizer": null, "scale": true, "gamma_initializer": {"config": {}, "class_name": "Ones"}, "name": "bn3b_branch2c", "trainable": false, "center": true, "moving_variance_initializer": {"config": {}, "class_name": "Ones"}, "beta_initializer": {"config": {}, "class_name": "Zeros"}, "beta_constraint": null, "gamma_constraint": null, "axis": 3, "gamma_regularizer": null}, "class_name": "BatchNormalization", "inbound_nodes": [[["res3b_branch2c", 0, 0, {}]]], "name": "bn3b_branch2c"}, {"config": {"name": "add_37", "trainable": false}, "class_name": "Add", "inbound_nodes": [[["bn3b_branch2c", 0, 0, {}], ["activation_111", 0, 0, {}]]], "name": "add_37"}, {"config": {"name": "activation_114", "activation": "relu", "trainable": false}, "class_name": "Activation", "inbound_nodes": [[["add_37", 0, 0, {}]]], "name": "activation_114"}, {"config": {"kernel_size": [1, 1], "bias_constraint": null, "padding": "valid", "bias_regularizer": null, "activity_regularizer": null, "use_bias": true, "filters": 128, "dilation_rate": [1, 1], "strides": [1, 1], "data_format": "channels_last", "trainable": false, "kernel_regularizer": null, "name": "res3c_branch2a", "activation": "linear", "kernel_initializer": {"config": {"mode": "fan_avg", "scale": 1.0, "distribution": "uniform", "seed": null}, "class_name": "VarianceScaling"}, "kernel_constraint": null, "bias_initializer": {"config": {}, "class_name": "Zeros"}}, "class_name": "Conv2D", "inbound_nodes": [[["activation_114", 0, 0, {}]]], "name": "res3c_branch2a"}, {"config": {"momentum": 0.99, "epsilon": 0.001, "moving_mean_initializer": {"config": {}, "class_name": "Zeros"}, "beta_regularizer": null, "scale": true, "gamma_initializer": {"config": {}, "class_name": "Ones"}, "name": "bn3c_branch2a", "trainable": false, "center": true, "moving_variance_initializer": {"config": {}, "class_name": "Ones"}, "beta_initializer": {"config": {}, "class_name": "Zeros"}, "beta_constraint": null, "gamma_constraint": null, "axis": 3, "gamma_regularizer": null}, "class_name": "BatchNormalization", "inbound_nodes": [[["res3c_branch2a", 0, 0, {}]]], "name": "bn3c_branch2a"}, {"config": {"name": "activation_115", "activation": "relu", "trainable": false}, "class_name": "Activation", "inbound_nodes": [[["bn3c_branch2a", 0, 0, {}]]], "name": "activation_115"}, {"config": {"kernel_size": [3, 3], "bias_constraint": null, "padding": "same", "bias_regularizer": null, "activity_regularizer": null, "use_bias": true, "filters": 128, "dilation_rate": [1, 1], "strides": [1, 1], "data_format": "channels_last", "trainable": false, "kernel_regularizer": null, "name": "res3c_branch2b", "activation": "linear", "kernel_initializer": {"config": {"mode": "fan_avg", "scale": 1.0, "distribution": "uniform", "seed": null}, "class_name": "VarianceScaling"}, "kernel_constraint": null, "bias_initializer": {"config": {}, "class_name": "Zeros"}}, "class_name": "Conv2D", "inbound_nodes": [[["activation_115", 0, 0, {}]]], "name": "res3c_branch2b"}, {"config": {"momentum": 0.99, "epsilon": 0.001, "moving_mean_initializer": {"config": {}, "class_name": "Zeros"}, "beta_regularizer": null, "scale": true, "gamma_initializer": {"config": {}, "class_name": "Ones"}, "name": "bn3c_branch2b", "trainable": false, "center": true, "moving_variance_initializer": {"config": {}, "class_name": "Ones"}, "beta_initializer": {"config": {}, "class_name": "Zeros"}, "beta_constraint": null, "gamma_constraint": null, "axis": 3, "gamma_regularizer": null}, "class_name": "BatchNormalization", "inbound_nodes": [[["res3c_branch2b", 0, 0, {}]]], "name": "bn3c_branch2b"}, {"config": {"name": "activation_116", "activation": "relu", "trainable": false}, "class_name": "Activation", "inbound_nodes": [[["bn3c_branch2b", 0, 0, {}]]], "name": "activation_116"}, {"config": {"kernel_size": [1, 1], "bias_constraint": null, "padding": "valid", "bias_regularizer": null, "activity_regularizer": null, "use_bias": true, "filters": 512, "dilation_rate": [1, 1], "strides": [1, 1], "data_format": "channels_last", "trainable": false, "kernel_regularizer": null, "name": "res3c_branch2c", "activation": "linear", "kernel_initializer": {"config": {"mode": "fan_avg", "scale": 1.0, "distribution": "uniform", "seed": null}, "class_name": "VarianceScaling"}, "kernel_constraint": null, "bias_initializer": {"config": {}, "class_name": "Zeros"}}, "class_name": "Conv2D", "inbound_nodes": [[["activation_116", 0, 0, {}]]], "name": "res3c_branch2c"}, {"config": {"momentum": 0.99, "epsilon": 0.001, "moving_mean_initializer": {"config": {}, "class_name": "Zeros"}, "beta_regularizer": null, "scale": true, "gamma_initializer": {"config": {}, "class_name": "Ones"}, "name": "bn3c_branch2c", "trainable": false, "center": true, "moving_variance_initializer": {"config": {}, "class_name": "Ones"}, "beta_initializer": {"config": {}, "class_name": "Zeros"}, "beta_constraint": null, "gamma_constraint": null, "axis": 3, "gamma_regularizer": null}, "class_name": "BatchNormalization", "inbound_nodes": [[["res3c_branch2c", 0, 0, {}]]], "name": "bn3c_branch2c"}, {"config": {"name": "add_38", "trainable": false}, "class_name": "Add", "inbound_nodes": [[["bn3c_branch2c", 0, 0, {}], ["activation_114", 0, 0, {}]]], "name": "add_38"}, {"config": {"name": "activation_117", "activation": "relu", "trainable": false}, "class_name": "Activation", "inbound_nodes": [[["add_38", 0, 0, {}]]], "name": "activation_117"}, {"config": {"kernel_size": [1, 1], "bias_constraint": null, "padding": "valid", "bias_regularizer": null, "activity_regularizer": null, "use_bias": true, "filters": 128, "dilation_rate": [1, 1], "strides": [1, 1], "data_format": "channels_last", "trainable": false, "kernel_regularizer": null, "name": "res3d_branch2a", "activation": "linear", "kernel_initializer": {"config": {"mode": "fan_avg", "scale": 1.0, "distribution": "uniform", "seed": null}, "class_name": "VarianceScaling"}, "kernel_constraint": null, "bias_initializer": {"config": {}, "class_name": "Zeros"}}, "class_name": "Conv2D", "inbound_nodes": [[["activation_117", 0, 0, {}]]], "name": "res3d_branch2a"}, {"config": {"momentum": 0.99, "epsilon": 0.001, "moving_mean_initializer": {"config": {}, "class_name": "Zeros"}, "beta_regularizer": null, "scale": true, "gamma_initializer": {"config": {}, "class_name": "Ones"}, "name": "bn3d_branch2a", "trainable": false, "center": true, "moving_variance_initializer": {"config": {}, "class_name": "Ones"}, "beta_initializer": {"config": {}, "class_name": "Zeros"}, "beta_constraint": null, "gamma_constraint": null, "axis": 3, "gamma_regularizer": null}, "class_name": "BatchNormalization", "inbound_nodes": [[["res3d_branch2a", 0, 0, {}]]], "name": "bn3d_branch2a"}, {"config": {"name": "activation_118", "activation": "relu", "trainable": false}, "class_name": "Activation", "inbound_nodes": [[["bn3d_branch2a", 0, 0, {}]]], "name": "activation_118"}, {"config": {"kernel_size": [3, 3], "bias_constraint": null, "padding": "same", "bias_regularizer": null, "activity_regularizer": null, "use_bias": true, "filters": 128, "dilation_rate": [1, 1], "strides": [1, 1], "data_format": "channels_last", "trainable": false, "kernel_regularizer": null, "name": "res3d_branch2b", "activation": "linear", "kernel_initializer": {"config": {"mode": "fan_avg", "scale": 1.0, "distribution": "uniform", "seed": null}, "class_name": "VarianceScaling"}, "kernel_constraint": null, "bias_initializer": {"config": {}, "class_name": "Zeros"}}, "class_name": "Conv2D", "inbound_nodes": [[["activation_118", 0, 0, {}]]], "name": "res3d_branch2b"}, {"config": {"momentum": 0.99, "epsilon": 0.001, "moving_mean_initializer": {"config": {}, "class_name": "Zeros"}, "beta_regularizer": null, "scale": true, "gamma_initializer": {"config": {}, "class_name": "Ones"}, "name": "bn3d_branch2b", "trainable": false, "center": true, "moving_variance_initializer": {"config": {}, "class_name": "Ones"}, "beta_initializer": {"config": {}, "class_name": "Zeros"}, "beta_constraint": null, "gamma_constraint": null, "axis": 3, "gamma_regularizer": null}, "class_name": "BatchNormalization", "inbound_nodes": [[["res3d_branch2b", 0, 0, {}]]], "name": "bn3d_branch2b"}, {"config": {"name": "activation_119", "activation": "relu", "trainable": false}, "class_name": "Activation", "inbound_nodes": [[["bn3d_branch2b", 0, 0, {}]]], "name": "activation_119"}, {"config": {"kernel_size": [1, 1], "bias_constraint": null, "padding": "valid", "bias_regularizer": null, "activity_regularizer": null, "use_bias": true, "filters": 512, "dilation_rate": [1, 1], "strides": [1, 1], "data_format": "channels_last", "trainable": false, "kernel_regularizer": null, "name": "res3d_branch2c", "activation": "linear", "kernel_initializer": {"config": {"mode": "fan_avg", "scale": 1.0, "distribution": "uniform", "seed": null}, "class_name": "VarianceScaling"}, "kernel_constraint": null, "bias_initializer": {"config": {}, "class_name": "Zeros"}}, "class_name": "Conv2D", "inbound_nodes": [[["activation_119", 0, 0, {}]]], "name": "res3d_branch2c"}, {"config": {"momentum": 0.99, "epsilon": 0.001, "moving_mean_initializer": {"config": {}, "class_name": "Zeros"}, "beta_regularizer": null, "scale": true, "gamma_initializer": {"config": {}, "class_name": "Ones"}, "name": "bn3d_branch2c", "trainable": false, "center": true, "moving_variance_initializer": {"config": {}, "class_name": "Ones"}, "beta_initializer": {"config": {}, "class_name": "Zeros"}, "beta_constraint": null, "gamma_constraint": null, "axis": 3, "gamma_regularizer": null}, "class_name": "BatchNormalization", "inbound_nodes": [[["res3d_branch2c", 0, 0, {}]]], "name": "bn3d_branch2c"}, {"config": {"name": "add_39", "trainable": false}, "class_name": "Add", "inbound_nodes": [[["bn3d_branch2c", 0, 0, {}], ["activation_117", 0, 0, {}]]], "name": "add_39"}, {"config": {"name": "activation_120", "activation": "relu", "trainable": false}, "class_name": "Activation", "inbound_nodes": [[["add_39", 0, 0, {}]]], "name": "activation_120"}, {"config": {"kernel_size": [1, 1], "bias_constraint": null, "padding": "valid", "bias_regularizer": null, "activity_regularizer": null, "use_bias": true, "filters": 256, "dilation_rate": [1, 1], "strides": [2, 2], "data_format": "channels_last", "trainable": false, "kernel_regularizer": null, "name": "res4a_branch2a", "activation": "linear", "kernel_initializer": {"config": {"mode": "fan_avg", "scale": 1.0, "distribution": "uniform", "seed": null}, "class_name": "VarianceScaling"}, "kernel_constraint": null, "bias_initializer": {"config": {}, "class_name": "Zeros"}}, "class_name": "Conv2D", "inbound_nodes": [[["activation_120", 0, 0, {}]]], "name": "res4a_branch2a"}, {"config": {"momentum": 0.99, "epsilon": 0.001, "moving_mean_initializer": {"config": {}, "class_name": "Zeros"}, "beta_regularizer": null, "scale": true, "gamma_initializer": {"config": {}, "class_name": "Ones"}, "name": "bn4a_branch2a", "trainable": false, "center": true, "moving_variance_initializer": {"config": {}, "class_name": "Ones"}, "beta_initializer": {"config": {}, "class_name": "Zeros"}, "beta_constraint": null, "gamma_constraint": null, "axis": 3, "gamma_regularizer": null}, "class_name": "BatchNormalization", "inbound_nodes": [[["res4a_branch2a", 0, 0, {}]]], "name": "bn4a_branch2a"}, {"config": {"name": "activation_121", "activation": "relu", "trainable": false}, "class_name": "Activation", "inbound_nodes": [[["bn4a_branch2a", 0, 0, {}]]], "name": "activation_121"}, {"config": {"kernel_size": [3, 3], "bias_constraint": null, "padding": "same", "bias_regularizer": null, "activity_regularizer": null, "use_bias": true, "filters": 256, "dilation_rate": [1, 1], "strides": [1, 1], "data_format": "channels_last", "trainable": false, "kernel_regularizer": null, "name": "res4a_branch2b", "activation": "linear", "kernel_initializer": {"config": {"mode": "fan_avg", "scale": 1.0, "distribution": "uniform", "seed": null}, "class_name": "VarianceScaling"}, "kernel_constraint": null, "bias_initializer": {"config": {}, "class_name": "Zeros"}}, "class_name": "Conv2D", "inbound_nodes": [[["activation_121", 0, 0, {}]]], "name": "res4a_branch2b"}, {"config": {"momentum": 0.99, "epsilon": 0.001, "moving_mean_initializer": {"config": {}, "class_name": "Zeros"}, "beta_regularizer": null, "scale": true, "gamma_initializer": {"config": {}, "class_name": "Ones"}, "name": "bn4a_branch2b", "trainable": false, "center": true, "moving_variance_initializer": {"config": {}, "class_name": "Ones"}, "beta_initializer": {"config": {}, "class_name": "Zeros"}, "beta_constraint": null, "gamma_constraint": null, "axis": 3, "gamma_regularizer": null}, "class_name": "BatchNormalization", "inbound_nodes": [[["res4a_branch2b", 0, 0, {}]]], "name": "bn4a_branch2b"}, {"config": {"name": "activation_122", "activation": "relu", "trainable": false}, "class_name": "Activation", "inbound_nodes": [[["bn4a_branch2b", 0, 0, {}]]], "name": "activation_122"}, {"config": {"kernel_size": [1, 1], "bias_constraint": null, "padding": "valid", "bias_regularizer": null, "activity_regularizer": null, "use_bias": true, "filters": 1024, "dilation_rate": [1, 1], "strides": [1, 1], "data_format": "channels_last", "trainable": false, "kernel_regularizer": null, "name": "res4a_branch2c", "activation": "linear", "kernel_initializer": {"config": {"mode": "fan_avg", "scale": 1.0, "distribution": "uniform", "seed": null}, "class_name": "VarianceScaling"}, "kernel_constraint": null, "bias_initializer": {"config": {}, "class_name": "Zeros"}}, "class_name": "Conv2D", "inbound_nodes": [[["activation_122", 0, 0, {}]]], "name": "res4a_branch2c"}, {"config": {"kernel_size": [1, 1], "bias_constraint": null, "padding": "valid", "bias_regularizer": null, "activity_regularizer": null, "use_bias": true, "filters": 1024, "dilation_rate": [1, 1], "strides": [2, 2], "data_format": "channels_last", "trainable": false, "kernel_regularizer": null, "name": "res4a_branch1", "activation": "linear", "kernel_initializer": {"config": {"mode": "fan_avg", "scale": 1.0, "distribution": "uniform", "seed": null}, "class_name": "VarianceScaling"}, "kernel_constraint": null, "bias_initializer": {"config": {}, "class_name": "Zeros"}}, "class_name": "Conv2D", "inbound_nodes": [[["activation_120", 0, 0, {}]]], "name": "res4a_branch1"}, {"config": {"momentum": 0.99, "epsilon": 0.001, "moving_mean_initializer": {"config": {}, "class_name": "Zeros"}, "beta_regularizer": null, "scale": true, "gamma_initializer": {"config": {}, "class_name": "Ones"}, "name": "bn4a_branch2c", "trainable": false, "center": true, "moving_variance_initializer": {"config": {}, "class_name": "Ones"}, "beta_initializer": {"config": {}, "class_name": "Zeros"}, "beta_constraint": null, "gamma_constraint": null, "axis": 3, "gamma_regularizer": null}, "class_name": "BatchNormalization", "inbound_nodes": [[["res4a_branch2c", 0, 0, {}]]], "name": "bn4a_branch2c"}, {"config": {"momentum": 0.99, "epsilon": 0.001, "moving_mean_initializer": {"config": {}, "class_name": "Zeros"}, "beta_regularizer": null, "scale": true, "gamma_initializer": {"config": {}, "class_name": "Ones"}, "name": "bn4a_branch1", "trainable": false, "center": true, "moving_variance_initializer": {"config": {}, "class_name": "Ones"}, "beta_initializer": {"config": {}, "class_name": "Zeros"}, "beta_constraint": null, "gamma_constraint": null, "axis": 3, "gamma_regularizer": null}, "class_name": "BatchNormalization", "inbound_nodes": [[["res4a_branch1", 0, 0, {}]]], "name": "bn4a_branch1"}, {"config": {"name": "add_40", "trainable": false}, "class_name": "Add", "inbound_nodes": [[["bn4a_branch2c", 0, 0, {}], ["bn4a_branch1", 0, 0, {}]]], "name": "add_40"}, {"config": {"name": "activation_123", "activation": "relu", "trainable": false}, "class_name": "Activation", "inbound_nodes": [[["add_40", 0, 0, {}]]], "name": "activation_123"}, {"config": {"kernel_size": [1, 1], "bias_constraint": null, "padding": "valid", "bias_regularizer": null, "activity_regularizer": null, "use_bias": true, "filters": 256, "dilation_rate": [1, 1], "strides": [1, 1], "data_format": "channels_last", "trainable": false, "kernel_regularizer": null, "name": "res4b_branch2a", "activation": "linear", "kernel_initializer": {"config": {"mode": "fan_avg", "scale": 1.0, "distribution": "uniform", "seed": null}, "class_name": "VarianceScaling"}, "kernel_constraint": null, "bias_initializer": {"config": {}, "class_name": "Zeros"}}, "class_name": "Conv2D", "inbound_nodes": [[["activation_123", 0, 0, {}]]], "name": "res4b_branch2a"}, {"config": {"momentum": 0.99, "epsilon": 0.001, "moving_mean_initializer": {"config": {}, "class_name": "Zeros"}, "beta_regularizer": null, "scale": true, "gamma_initializer": {"config": {}, "class_name": "Ones"}, "name": "bn4b_branch2a", "trainable": false, "center": true, "moving_variance_initializer": {"config": {}, "class_name": "Ones"}, "beta_initializer": {"config": {}, "class_name": "Zeros"}, "beta_constraint": null, "gamma_constraint": null, "axis": 3, "gamma_regularizer": null}, "class_name": "BatchNormalization", "inbound_nodes": [[["res4b_branch2a", 0, 0, {}]]], "name": "bn4b_branch2a"}, {"config": {"name": "activation_124", "activation": "relu", "trainable": false}, "class_name": "Activation", "inbound_nodes": [[["bn4b_branch2a", 0, 0, {}]]], "name": "activation_124"}, {"config": {"kernel_size": [3, 3], "bias_constraint": null, "padding": "same", "bias_regularizer": null, "activity_regularizer": null, "use_bias": true, "filters": 256, "dilation_rate": [1, 1], "strides": [1, 1], "data_format": "channels_last", "trainable": false, "kernel_regularizer": null, "name": "res4b_branch2b", "activation": "linear", "kernel_initializer": {"config": {"mode": "fan_avg", "scale": 1.0, "distribution": "uniform", "seed": null}, "class_name": "VarianceScaling"}, "kernel_constraint": null, "bias_initializer": {"config": {}, "class_name": "Zeros"}}, "class_name": "Conv2D", "inbound_nodes": [[["activation_124", 0, 0, {}]]], "name": "res4b_branch2b"}, {"config": {"momentum": 0.99, "epsilon": 0.001, "moving_mean_initializer": {"config": {}, "class_name": "Zeros"}, "beta_regularizer": null, "scale": true, "gamma_initializer": {"config": {}, "class_name": "Ones"}, "name": "bn4b_branch2b", "trainable": false, "center": true, "moving_variance_initializer": {"config": {}, "class_name": "Ones"}, "beta_initializer": {"config": {}, "class_name": "Zeros"}, "beta_constraint": null, "gamma_constraint": null, "axis": 3, "gamma_regularizer": null}, "class_name": "BatchNormalization", "inbound_nodes": [[["res4b_branch2b", 0, 0, {}]]], "name": "bn4b_branch2b"}, {"config": {"name": "activation_125", "activation": "relu", "trainable": false}, "class_name": "Activation", "inbound_nodes": [[["bn4b_branch2b", 0, 0, {}]]], "name": "activation_125"}, {"config": {"kernel_size": [1, 1], "bias_constraint": null, "padding": "valid", "bias_regularizer": null, "activity_regularizer": null, "use_bias": true, "filters": 1024, "dilation_rate": [1, 1], "strides": [1, 1], "data_format": "channels_last", "trainable": false, "kernel_regularizer": null, "name": "res4b_branch2c", "activation": "linear", "kernel_initializer": {"config": {"mode": "fan_avg", "scale": 1.0, "distribution": "uniform", "seed": null}, "class_name": "VarianceScaling"}, "kernel_constraint": null, "bias_initializer": {"config": {}, "class_name": "Zeros"}}, "class_name": "Conv2D", "inbound_nodes": [[["activation_125", 0, 0, {}]]], "name": "res4b_branch2c"}, {"config": {"momentum": 0.99, "epsilon": 0.001, "moving_mean_initializer": {"config": {}, "class_name": "Zeros"}, "beta_regularizer": null, "scale": true, "gamma_initializer": {"config": {}, "class_name": "Ones"}, "name": "bn4b_branch2c", "trainable": false, "center": true, "moving_variance_initializer": {"config": {}, "class_name": "Ones"}, "beta_initializer": {"config": {}, "class_name": "Zeros"}, "beta_constraint": null, "gamma_constraint": null, "axis": 3, "gamma_regularizer": null}, "class_name": "BatchNormalization", "inbound_nodes": [[["res4b_branch2c", 0, 0, {}]]], "name": "bn4b_branch2c"}, {"config": {"name": "add_41", "trainable": false}, "class_name": "Add", "inbound_nodes": [[["bn4b_branch2c", 0, 0, {}], ["activation_123", 0, 0, {}]]], "name": "add_41"}, {"config": {"name": "activation_126", "activation": "relu", "trainable": false}, "class_name": "Activation", "inbound_nodes": [[["add_41", 0, 0, {}]]], "name": "activation_126"}, {"config": {"kernel_size": [1, 1], "bias_constraint": null, "padding": "valid", "bias_regularizer": null, "activity_regularizer": null, "use_bias": true, "filters": 256, "dilation_rate": [1, 1], "strides": [1, 1], "data_format": "channels_last", "trainable": false, "kernel_regularizer": null, "name": "res4c_branch2a", "activation": "linear", "kernel_initializer": {"config": {"mode": "fan_avg", "scale": 1.0, "distribution": "uniform", "seed": null}, "class_name": "VarianceScaling"}, "kernel_constraint": null, "bias_initializer": {"config": {}, "class_name": "Zeros"}}, "class_name": "Conv2D", "inbound_nodes": [[["activation_126", 0, 0, {}]]], "name": "res4c_branch2a"}, {"config": {"momentum": 0.99, "epsilon": 0.001, "moving_mean_initializer": {"config": {}, "class_name": "Zeros"}, "beta_regularizer": null, "scale": true, "gamma_initializer": {"config": {}, "class_name": "Ones"}, "name": "bn4c_branch2a", "trainable": false, "center": true, "moving_variance_initializer": {"config": {}, "class_name": "Ones"}, "beta_initializer": {"config": {}, "class_name": "Zeros"}, "beta_constraint": null, "gamma_constraint": null, "axis": 3, "gamma_regularizer": null}, "class_name": "BatchNormalization", "inbound_nodes": [[["res4c_branch2a", 0, 0, {}]]], "name": "bn4c_branch2a"}, {"config": {"name": "activation_127", "activation": "relu", "trainable": false}, "class_name": "Activation", "inbound_nodes": [[["bn4c_branch2a", 0, 0, {}]]], "name": "activation_127"}, {"config": {"kernel_size": [3, 3], "bias_constraint": null, "padding": "same", "bias_regularizer": null, "activity_regularizer": null, "use_bias": true, "filters": 256, "dilation_rate": [1, 1], "strides": [1, 1], "data_format": "channels_last", "trainable": false, "kernel_regularizer": null, "name": "res4c_branch2b", "activation": "linear", "kernel_initializer": {"config": {"mode": "fan_avg", "scale": 1.0, "distribution": "uniform", "seed": null}, "class_name": "VarianceScaling"}, "kernel_constraint": null, "bias_initializer": {"config": {}, "class_name": "Zeros"}}, "class_name": "Conv2D", "inbound_nodes": [[["activation_127", 0, 0, {}]]], "name": "res4c_branch2b"}, {"config": {"momentum": 0.99, "epsilon": 0.001, "moving_mean_initializer": {"config": {}, "class_name": "Zeros"}, "beta_regularizer": null, "scale": true, "gamma_initializer": {"config": {}, "class_name": "Ones"}, "name": "bn4c_branch2b", "trainable": false, "center": true, "moving_variance_initializer": {"config": {}, "class_name": "Ones"}, "beta_initializer": {"config": {}, "class_name": "Zeros"}, "beta_constraint": null, "gamma_constraint": null, "axis": 3, "gamma_regularizer": null}, "class_name": "BatchNormalization", "inbound_nodes": [[["res4c_branch2b", 0, 0, {}]]], "name": "bn4c_branch2b"}, {"config": {"name": "activation_128", "activation": "relu", "trainable": false}, "class_name": "Activation", "inbound_nodes": [[["bn4c_branch2b", 0, 0, {}]]], "name": "activation_128"}, {"config": {"kernel_size": [1, 1], "bias_constraint": null, "padding": "valid", "bias_regularizer": null, "activity_regularizer": null, "use_bias": true, "filters": 1024, "dilation_rate": [1, 1], "strides": [1, 1], "data_format": "channels_last", "trainable": false, "kernel_regularizer": null, "name": "res4c_branch2c", "activation": "linear", "kernel_initializer": {"config": {"mode": "fan_avg", "scale": 1.0, "distribution": "uniform", "seed": null}, "class_name": "VarianceScaling"}, "kernel_constraint": null, "bias_initializer": {"config": {}, "class_name": "Zeros"}}, "class_name": "Conv2D", "inbound_nodes": [[["activation_128", 0, 0, {}]]], "name": "res4c_branch2c"}, {"config": {"momentum": 0.99, "epsilon": 0.001, "moving_mean_initializer": {"config": {}, "class_name": "Zeros"}, "beta_regularizer": null, "scale": true, "gamma_initializer": {"config": {}, "class_name": "Ones"}, "name": "bn4c_branch2c", "trainable": false, "center": true, "moving_variance_initializer": {"config": {}, "class_name": "Ones"}, "beta_initializer": {"config": {}, "class_name": "Zeros"}, "beta_constraint": null, "gamma_constraint": null, "axis": 3, "gamma_regularizer": null}, "class_name": "BatchNormalization", "inbound_nodes": [[["res4c_branch2c", 0, 0, {}]]], "name": "bn4c_branch2c"}, {"config": {"name": "add_42", "trainable": false}, "class_name": "Add", "inbound_nodes": [[["bn4c_branch2c", 0, 0, {}], ["activation_126", 0, 0, {}]]], "name": "add_42"}, {"config": {"name": "activation_129", "activation": "relu", "trainable": false}, "class_name": "Activation", "inbound_nodes": [[["add_42", 0, 0, {}]]], "name": "activation_129"}, {"config": {"kernel_size": [1, 1], "bias_constraint": null, "padding": "valid", "bias_regularizer": null, "activity_regularizer": null, "use_bias": true, "filters": 256, "dilation_rate": [1, 1], "strides": [1, 1], "data_format": "channels_last", "trainable": false, "kernel_regularizer": null, "name": "res4d_branch2a", "activation": "linear", "kernel_initializer": {"config": {"mode": "fan_avg", "scale": 1.0, "distribution": "uniform", "seed": null}, "class_name": "VarianceScaling"}, "kernel_constraint": null, "bias_initializer": {"config": {}, "class_name": "Zeros"}}, "class_name": "Conv2D", "inbound_nodes": [[["activation_129", 0, 0, {}]]], "name": "res4d_branch2a"}, {"config": {"momentum": 0.99, "epsilon": 0.001, "moving_mean_initializer": {"config": {}, "class_name": "Zeros"}, "beta_regularizer": null, "scale": true, "gamma_initializer": {"config": {}, "class_name": "Ones"}, "name": "bn4d_branch2a", "trainable": false, "center": true, "moving_variance_initializer": {"config": {}, "class_name": "Ones"}, "beta_initializer": {"config": {}, "class_name": "Zeros"}, "beta_constraint": null, "gamma_constraint": null, "axis": 3, "gamma_regularizer": null}, "class_name": "BatchNormalization", "inbound_nodes": [[["res4d_branch2a", 0, 0, {}]]], "name": "bn4d_branch2a"}, {"config": {"name": "activation_130", "activation": "relu", "trainable": false}, "class_name": "Activation", "inbound_nodes": [[["bn4d_branch2a", 0, 0, {}]]], "name": "activation_130"}, {"config": {"kernel_size": [3, 3], "bias_constraint": null, "padding": "same", "bias_regularizer": null, "activity_regularizer": null, "use_bias": true, "filters": 256, "dilation_rate": [1, 1], "strides": [1, 1], "data_format": "channels_last", "trainable": false, "kernel_regularizer": null, "name": "res4d_branch2b", "activation": "linear", "kernel_initializer": {"config": {"mode": "fan_avg", "scale": 1.0, "distribution": "uniform", "seed": null}, "class_name": "VarianceScaling"}, "kernel_constraint": null, "bias_initializer": {"config": {}, "class_name": "Zeros"}}, "class_name": "Conv2D", "inbound_nodes": [[["activation_130", 0, 0, {}]]], "name": "res4d_branch2b"}, {"config": {"momentum": 0.99, "epsilon": 0.001, "moving_mean_initializer": {"config": {}, "class_name": "Zeros"}, "beta_regularizer": null, "scale": true, "gamma_initializer": {"config": {}, "class_name": "Ones"}, "name": "bn4d_branch2b", "trainable": false, "center": true, "moving_variance_initializer": {"config": {}, "class_name": "Ones"}, "beta_initializer": {"config": {}, "class_name": "Zeros"}, "beta_constraint": null, "gamma_constraint": null, "axis": 3, "gamma_regularizer": null}, "class_name": "BatchNormalization", "inbound_nodes": [[["res4d_branch2b", 0, 0, {}]]], "name": "bn4d_branch2b"}, {"config": {"name": "activation_131", "activation": "relu", "trainable": false}, "class_name": "Activation", "inbound_nodes": [[["bn4d_branch2b", 0, 0, {}]]], "name": "activation_131"}, {"config": {"kernel_size": [1, 1], "bias_constraint": null, "padding": "valid", "bias_regularizer": null, "activity_regularizer": null, "use_bias": true, "filters": 1024, "dilation_rate": [1, 1], "strides": [1, 1], "data_format": "channels_last", "trainable": false, "kernel_regularizer": null, "name": "res4d_branch2c", "activation": "linear", "kernel_initializer": {"config": {"mode": "fan_avg", "scale": 1.0, "distribution": "uniform", "seed": null}, "class_name": "VarianceScaling"}, "kernel_constraint": null, "bias_initializer": {"config": {}, "class_name": "Zeros"}}, "class_name": "Conv2D", "inbound_nodes": [[["activation_131", 0, 0, {}]]], "name": "res4d_branch2c"}, {"config": {"momentum": 0.99, "epsilon": 0.001, "moving_mean_initializer": {"config": {}, "class_name": "Zeros"}, "beta_regularizer": null, "scale": true, "gamma_initializer": {"config": {}, "class_name": "Ones"}, "name": "bn4d_branch2c", "trainable": false, "center": true, "moving_variance_initializer": {"config": {}, "class_name": "Ones"}, "beta_initializer": {"config": {}, "class_name": "Zeros"}, "beta_constraint": null, "gamma_constraint": null, "axis": 3, "gamma_regularizer": null}, "class_name": "BatchNormalization", "inbound_nodes": [[["res4d_branch2c", 0, 0, {}]]], "name": "bn4d_branch2c"}, {"config": {"name": "add_43", "trainable": false}, "class_name": "Add", "inbound_nodes": [[["bn4d_branch2c", 0, 0, {}], ["activation_129", 0, 0, {}]]], "name": "add_43"}, {"config": {"name": "activation_132", "activation": "relu", "trainable": false}, "class_name": "Activation", "inbound_nodes": [[["add_43", 0, 0, {}]]], "name": "activation_132"}, {"config": {"kernel_size": [1, 1], "bias_constraint": null, "padding": "valid", "bias_regularizer": null, "activity_regularizer": null, "use_bias": true, "filters": 256, "dilation_rate": [1, 1], "strides": [1, 1], "data_format": "channels_last", "trainable": false, "kernel_regularizer": null, "name": "res4e_branch2a", "activation": "linear", "kernel_initializer": {"config": {"mode": "fan_avg", "scale": 1.0, "distribution": "uniform", "seed": null}, "class_name": "VarianceScaling"}, "kernel_constraint": null, "bias_initializer": {"config": {}, "class_name": "Zeros"}}, "class_name": "Conv2D", "inbound_nodes": [[["activation_132", 0, 0, {}]]], "name": "res4e_branch2a"}, {"config": {"momentum": 0.99, "epsilon": 0.001, "moving_mean_initializer": {"config": {}, "class_name": "Zeros"}, "beta_regularizer": null, "scale": true, "gamma_initializer": {"config": {}, "class_name": "Ones"}, "name": "bn4e_branch2a", "trainable": false, "center": true, "moving_variance_initializer": {"config": {}, "class_name": "Ones"}, "beta_initializer": {"config": {}, "class_name": "Zeros"}, "beta_constraint": null, "gamma_constraint": null, "axis": 3, "gamma_regularizer": null}, "class_name": "BatchNormalization", "inbound_nodes": [[["res4e_branch2a", 0, 0, {}]]], "name": "bn4e_branch2a"}, {"config": {"name": "activation_133", "activation": "relu", "trainable": false}, "class_name": "Activation", "inbound_nodes": [[["bn4e_branch2a", 0, 0, {}]]], "name": "activation_133"}, {"config": {"kernel_size": [3, 3], "bias_constraint": null, "padding": "same", "bias_regularizer": null, "activity_regularizer": null, "use_bias": true, "filters": 256, "dilation_rate": [1, 1], "strides": [1, 1], "data_format": "channels_last", "trainable": false, "kernel_regularizer": null, "name": "res4e_branch2b", "activation": "linear", "kernel_initializer": {"config": {"mode": "fan_avg", "scale": 1.0, "distribution": "uniform", "seed": null}, "class_name": "VarianceScaling"}, "kernel_constraint": null, "bias_initializer": {"config": {}, "class_name": "Zeros"}}, "class_name": "Conv2D", "inbound_nodes": [[["activation_133", 0, 0, {}]]], "name": "res4e_branch2b"}, {"config": {"momentum": 0.99, "epsilon": 0.001, "moving_mean_initializer": {"config": {}, "class_name": "Zeros"}, "beta_regularizer": null, "scale": true, "gamma_initializer": {"config": {}, "class_name": "Ones"}, "name": "bn4e_branch2b", "trainable": false, "center": true, "moving_variance_initializer": {"config": {}, "class_name": "Ones"}, "beta_initializer": {"config": {}, "class_name": "Zeros"}, "beta_constraint": null, "gamma_constraint": null, "axis": 3, "gamma_regularizer": null}, "class_name": "BatchNormalization", "inbound_nodes": [[["res4e_branch2b", 0, 0, {}]]], "name": "bn4e_branch2b"}, {"config": {"name": "activation_134", "activation": "relu", "trainable": false}, "class_name": "Activation", "inbound_nodes": [[["bn4e_branch2b", 0, 0, {}]]], "name": "activation_134"}, {"config": {"kernel_size": [1, 1], "bias_constraint": null, "padding": "valid", "bias_regularizer": null, "activity_regularizer": null, "use_bias": true, "filters": 1024, "dilation_rate": [1, 1], "strides": [1, 1], "data_format": "channels_last", "trainable": false, "kernel_regularizer": null, "name": "res4e_branch2c", "activation": "linear", "kernel_initializer": {"config": {"mode": "fan_avg", "scale": 1.0, "distribution": "uniform", "seed": null}, "class_name": "VarianceScaling"}, "kernel_constraint": null, "bias_initializer": {"config": {}, "class_name": "Zeros"}}, "class_name": "Conv2D", "inbound_nodes": [[["activation_134", 0, 0, {}]]], "name": "res4e_branch2c"}, {"config": {"momentum": 0.99, "epsilon": 0.001, "moving_mean_initializer": {"config": {}, "class_name": "Zeros"}, "beta_regularizer": null, "scale": true, "gamma_initializer": {"config": {}, "class_name": "Ones"}, "name": "bn4e_branch2c", "trainable": false, "center": true, "moving_variance_initializer": {"config": {}, "class_name": "Ones"}, "beta_initializer": {"config": {}, "class_name": "Zeros"}, "beta_constraint": null, "gamma_constraint": null, "axis": 3, "gamma_regularizer": null}, "class_name": "BatchNormalization", "inbound_nodes": [[["res4e_branch2c", 0, 0, {}]]], "name": "bn4e_branch2c"}, {"config": {"name": "add_44", "trainable": false}, "class_name": "Add", "inbound_nodes": [[["bn4e_branch2c", 0, 0, {}], ["activation_132", 0, 0, {}]]], "name": "add_44"}, {"config": {"name": "activation_135", "activation": "relu", "trainable": false}, "class_name": "Activation", "inbound_nodes": [[["add_44", 0, 0, {}]]], "name": "activation_135"}, {"config": {"kernel_size": [1, 1], "bias_constraint": null, "padding": "valid", "bias_regularizer": null, "activity_regularizer": null, "use_bias": true, "filters": 256, "dilation_rate": [1, 1], "strides": [1, 1], "data_format": "channels_last", "trainable": false, "kernel_regularizer": null, "name": "res4f_branch2a", "activation": "linear", "kernel_initializer": {"config": {"mode": "fan_avg", "scale": 1.0, "distribution": "uniform", "seed": null}, "class_name": "VarianceScaling"}, "kernel_constraint": null, "bias_initializer": {"config": {}, "class_name": "Zeros"}}, "class_name": "Conv2D", "inbound_nodes": [[["activation_135", 0, 0, {}]]], "name": "res4f_branch2a"}, {"config": {"momentum": 0.99, "epsilon": 0.001, "moving_mean_initializer": {"config": {}, "class_name": "Zeros"}, "beta_regularizer": null, "scale": true, "gamma_initializer": {"config": {}, "class_name": "Ones"}, "name": "bn4f_branch2a", "trainable": false, "center": true, "moving_variance_initializer": {"config": {}, "class_name": "Ones"}, "beta_initializer": {"config": {}, "class_name": "Zeros"}, "beta_constraint": null, "gamma_constraint": null, "axis": 3, "gamma_regularizer": null}, "class_name": "BatchNormalization", "inbound_nodes": [[["res4f_branch2a", 0, 0, {}]]], "name": "bn4f_branch2a"}, {"config": {"name": "activation_136", "activation": "relu", "trainable": false}, "class_name": "Activation", "inbound_nodes": [[["bn4f_branch2a", 0, 0, {}]]], "name": "activation_136"}, {"config": {"kernel_size": [3, 3], "bias_constraint": null, "padding": "same", "bias_regularizer": null, "activity_regularizer": null, "use_bias": true, "filters": 256, "dilation_rate": [1, 1], "strides": [1, 1], "data_format": "channels_last", "trainable": false, "kernel_regularizer": null, "name": "res4f_branch2b", "activation": "linear", "kernel_initializer": {"config": {"mode": "fan_avg", "scale": 1.0, "distribution": "uniform", "seed": null}, "class_name": "VarianceScaling"}, "kernel_constraint": null, "bias_initializer": {"config": {}, "class_name": "Zeros"}}, "class_name": "Conv2D", "inbound_nodes": [[["activation_136", 0, 0, {}]]], "name": "res4f_branch2b"}, {"config": {"momentum": 0.99, "epsilon": 0.001, "moving_mean_initializer": {"config": {}, "class_name": "Zeros"}, "beta_regularizer": null, "scale": true, "gamma_initializer": {"config": {}, "class_name": "Ones"}, "name": "bn4f_branch2b", "trainable": false, "center": true, "moving_variance_initializer": {"config": {}, "class_name": "Ones"}, "beta_initializer": {"config": {}, "class_name": "Zeros"}, "beta_constraint": null, "gamma_constraint": null, "axis": 3, "gamma_regularizer": null}, "class_name": "BatchNormalization", "inbound_nodes": [[["res4f_branch2b", 0, 0, {}]]], "name": "bn4f_branch2b"}, {"config": {"name": "activation_137", "activation": "relu", "trainable": false}, "class_name": "Activation", "inbound_nodes": [[["bn4f_branch2b", 0, 0, {}]]], "name": "activation_137"}, {"config": {"kernel_size": [1, 1], "bias_constraint": null, "padding": "valid", "bias_regularizer": null, "activity_regularizer": null, "use_bias": true, "filters": 1024, "dilation_rate": [1, 1], "strides": [1, 1], "data_format": "channels_last", "trainable": false, "kernel_regularizer": null, "name": "res4f_branch2c", "activation": "linear", "kernel_initializer": {"config": {"mode": "fan_avg", "scale": 1.0, "distribution": "uniform", "seed": null}, "class_name": "VarianceScaling"}, "kernel_constraint": null, "bias_initializer": {"config": {}, "class_name": "Zeros"}}, "class_name": "Conv2D", "inbound_nodes": [[["activation_137", 0, 0, {}]]], "name": "res4f_branch2c"}, {"config": {"momentum": 0.99, "epsilon": 0.001, "moving_mean_initializer": {"config": {}, "class_name": "Zeros"}, "beta_regularizer": null, "scale": true, "gamma_initializer": {"config": {}, "class_name": "Ones"}, "name": "bn4f_branch2c", "trainable": false, "center": true, "moving_variance_initializer": {"config": {}, "class_name": "Ones"}, "beta_initializer": {"config": {}, "class_name": "Zeros"}, "beta_constraint": null, "gamma_constraint": null, "axis": 3, "gamma_regularizer": null}, "class_name": "BatchNormalization", "inbound_nodes": [[["res4f_branch2c", 0, 0, {}]]], "name": "bn4f_branch2c"}, {"config": {"name": "add_45", "trainable": false}, "class_name": "Add", "inbound_nodes": [[["bn4f_branch2c", 0, 0, {}], ["activation_135", 0, 0, {}]]], "name": "add_45"}, {"config": {"name": "activation_138", "activation": "relu", "trainable": false}, "class_name": "Activation", "inbound_nodes": [[["add_45", 0, 0, {}]]], "name": "activation_138"}, {"config": {"kernel_size": [1, 1], "bias_constraint": null, "padding": "valid", "bias_regularizer": null, "activity_regularizer": null, "use_bias": true, "filters": 512, "dilation_rate": [1, 1], "strides": [2, 2], "data_format": "channels_last", "trainable": false, "kernel_regularizer": null, "name": "res5a_branch2a", "activation": "linear", "kernel_initializer": {"config": {"mode": "fan_avg", "scale": 1.0, "distribution": "uniform", "seed": null}, "class_name": "VarianceScaling"}, "kernel_constraint": null, "bias_initializer": {"config": {}, "class_name": "Zeros"}}, "class_name": "Conv2D", "inbound_nodes": [[["activation_138", 0, 0, {}]]], "name": "res5a_branch2a"}, {"config": {"momentum": 0.99, "epsilon": 0.001, "moving_mean_initializer": {"config": {}, "class_name": "Zeros"}, "beta_regularizer": null, "scale": true, "gamma_initializer": {"config": {}, "class_name": "Ones"}, "name": "bn5a_branch2a", "trainable": false, "center": true, "moving_variance_initializer": {"config": {}, "class_name": "Ones"}, "beta_initializer": {"config": {}, "class_name": "Zeros"}, "beta_constraint": null, "gamma_constraint": null, "axis": 3, "gamma_regularizer": null}, "class_name": "BatchNormalization", "inbound_nodes": [[["res5a_branch2a", 0, 0, {}]]], "name": "bn5a_branch2a"}, {"config": {"name": "activation_139", "activation": "relu", "trainable": false}, "class_name": "Activation", "inbound_nodes": [[["bn5a_branch2a", 0, 0, {}]]], "name": "activation_139"}, {"config": {"kernel_size": [3, 3], "bias_constraint": null, "padding": "same", "bias_regularizer": null, "activity_regularizer": null, "use_bias": true, "filters": 512, "dilation_rate": [1, 1], "strides": [1, 1], "data_format": "channels_last", "trainable": false, "kernel_regularizer": null, "name": "res5a_branch2b", "activation": "linear", "kernel_initializer": {"config": {"mode": "fan_avg", "scale": 1.0, "distribution": "uniform", "seed": null}, "class_name": "VarianceScaling"}, "kernel_constraint": null, "bias_initializer": {"config": {}, "class_name": "Zeros"}}, "class_name": "Conv2D", "inbound_nodes": [[["activation_139", 0, 0, {}]]], "name": "res5a_branch2b"}, {"config": {"momentum": 0.99, "epsilon": 0.001, "moving_mean_initializer": {"config": {}, "class_name": "Zeros"}, "beta_regularizer": null, "scale": true, "gamma_initializer": {"config": {}, "class_name": "Ones"}, "name": "bn5a_branch2b", "trainable": false, "center": true, "moving_variance_initializer": {"config": {}, "class_name": "Ones"}, "beta_initializer": {"config": {}, "class_name": "Zeros"}, "beta_constraint": null, "gamma_constraint": null, "axis": 3, "gamma_regularizer": null}, "class_name": "BatchNormalization", "inbound_nodes": [[["res5a_branch2b", 0, 0, {}]]], "name": "bn5a_branch2b"}, {"config": {"name": "activation_140", "activation": "relu", "trainable": false}, "class_name": "Activation", "inbound_nodes": [[["bn5a_branch2b", 0, 0, {}]]], "name": "activation_140"}, {"config": {"kernel_size": [1, 1], "bias_constraint": null, "padding": "valid", "bias_regularizer": null, "activity_regularizer": null, "use_bias": true, "filters": 2048, "dilation_rate": [1, 1], "strides": [1, 1], "data_format": "channels_last", "trainable": false, "kernel_regularizer": null, "name": "res5a_branch2c", "activation": "linear", "kernel_initializer": {"config": {"mode": "fan_avg", "scale": 1.0, "distribution": "uniform", "seed": null}, "class_name": "VarianceScaling"}, "kernel_constraint": null, "bias_initializer": {"config": {}, "class_name": "Zeros"}}, "class_name": "Conv2D", "inbound_nodes": [[["activation_140", 0, 0, {}]]], "name": "res5a_branch2c"}, {"config": {"kernel_size": [1, 1], "bias_constraint": null, "padding": "valid", "bias_regularizer": null, "activity_regularizer": null, "use_bias": true, "filters": 2048, "dilation_rate": [1, 1], "strides": [2, 2], "data_format": "channels_last", "trainable": false, "kernel_regularizer": null, "name": "res5a_branch1", "activation": "linear", "kernel_initializer": {"config": {"mode": "fan_avg", "scale": 1.0, "distribution": "uniform", "seed": null}, "class_name": "VarianceScaling"}, "kernel_constraint": null, "bias_initializer": {"config": {}, "class_name": "Zeros"}}, "class_name": "Conv2D", "inbound_nodes": [[["activation_138", 0, 0, {}]]], "name": "res5a_branch1"}, {"config": {"momentum": 0.99, "epsilon": 0.001, "moving_mean_initializer": {"config": {}, "class_name": "Zeros"}, "beta_regularizer": null, "scale": true, "gamma_initializer": {"config": {}, "class_name": "Ones"}, "name": "bn5a_branch2c", "trainable": false, "center": true, "moving_variance_initializer": {"config": {}, "class_name": "Ones"}, "beta_initializer": {"config": {}, "class_name": "Zeros"}, "beta_constraint": null, "gamma_constraint": null, "axis": 3, "gamma_regularizer": null}, "class_name": "BatchNormalization", "inbound_nodes": [[["res5a_branch2c", 0, 0, {}]]], "name": "bn5a_branch2c"}, {"config": {"momentum": 0.99, "epsilon": 0.001, "moving_mean_initializer": {"config": {}, "class_name": "Zeros"}, "beta_regularizer": null, "scale": true, "gamma_initializer": {"config": {}, "class_name": "Ones"}, "name": "bn5a_branch1", "trainable": false, "center": true, "moving_variance_initializer": {"config": {}, "class_name": "Ones"}, "beta_initializer": {"config": {}, "class_name": "Zeros"}, "beta_constraint": null, "gamma_constraint": null, "axis": 3, "gamma_regularizer": null}, "class_name": "BatchNormalization", "inbound_nodes": [[["res5a_branch1", 0, 0, {}]]], "name": "bn5a_branch1"}, {"config": {"name": "add_46", "trainable": false}, "class_name": "Add", "inbound_nodes": [[["bn5a_branch2c", 0, 0, {}], ["bn5a_branch1", 0, 0, {}]]], "name": "add_46"}, {"config": {"name": "activation_141", "activation": "relu", "trainable": false}, "class_name": "Activation", "inbound_nodes": [[["add_46", 0, 0, {}]]], "name": "activation_141"}, {"config": {"kernel_size": [1, 1], "bias_constraint": null, "padding": "valid", "bias_regularizer": null, "activity_regularizer": null, "use_bias": true, "filters": 512, "dilation_rate": [1, 1], "strides": [1, 1], "data_format": "channels_last", "trainable": false, "kernel_regularizer": null, "name": "res5b_branch2a", "activation": "linear", "kernel_initializer": {"config": {"mode": "fan_avg", "scale": 1.0, "distribution": "uniform", "seed": null}, "class_name": "VarianceScaling"}, "kernel_constraint": null, "bias_initializer": {"config": {}, "class_name": "Zeros"}}, "class_name": "Conv2D", "inbound_nodes": [[["activation_141", 0, 0, {}]]], "name": "res5b_branch2a"}, {"config": {"momentum": 0.99, "epsilon": 0.001, "moving_mean_initializer": {"config": {}, "class_name": "Zeros"}, "beta_regularizer": null, "scale": true, "gamma_initializer": {"config": {}, "class_name": "Ones"}, "name": "bn5b_branch2a", "trainable": false, "center": true, "moving_variance_initializer": {"config": {}, "class_name": "Ones"}, "beta_initializer": {"config": {}, "class_name": "Zeros"}, "beta_constraint": null, "gamma_constraint": null, "axis": 3, "gamma_regularizer": null}, "class_name": "BatchNormalization", "inbound_nodes": [[["res5b_branch2a", 0, 0, {}]]], "name": "bn5b_branch2a"}, {"config": {"name": "activation_142", "activation": "relu", "trainable": false}, "class_name": "Activation", "inbound_nodes": [[["bn5b_branch2a", 0, 0, {}]]], "name": "activation_142"}, {"config": {"kernel_size": [3, 3], "bias_constraint": null, "padding": "same", "bias_regularizer": null, "activity_regularizer": null, "use_bias": true, "filters": 512, "dilation_rate": [1, 1], "strides": [1, 1], "data_format": "channels_last", "trainable": false, "kernel_regularizer": null, "name": "res5b_branch2b", "activation": "linear", "kernel_initializer": {"config": {"mode": "fan_avg", "scale": 1.0, "distribution": "uniform", "seed": null}, "class_name": "VarianceScaling"}, "kernel_constraint": null, "bias_initializer": {"config": {}, "class_name": "Zeros"}}, "class_name": "Conv2D", "inbound_nodes": [[["activation_142", 0, 0, {}]]], "name": "res5b_branch2b"}, {"config": {"momentum": 0.99, "epsilon": 0.001, "moving_mean_initializer": {"config": {}, "class_name": "Zeros"}, "beta_regularizer": null, "scale": true, "gamma_initializer": {"config": {}, "class_name": "Ones"}, "name": "bn5b_branch2b", "trainable": false, "center": true, "moving_variance_initializer": {"config": {}, "class_name": "Ones"}, "beta_initializer": {"config": {}, "class_name": "Zeros"}, "beta_constraint": null, "gamma_constraint": null, "axis": 3, "gamma_regularizer": null}, "class_name": "BatchNormalization", "inbound_nodes": [[["res5b_branch2b", 0, 0, {}]]], "name": "bn5b_branch2b"}, {"config": {"name": "activation_143", "activation": "relu", "trainable": false}, "class_name": "Activation", "inbound_nodes": [[["bn5b_branch2b", 0, 0, {}]]], "name": "activation_143"}, {"config": {"kernel_size": [1, 1], "bias_constraint": null, "padding": "valid", "bias_regularizer": null, "activity_regularizer": null, "use_bias": true, "filters": 2048, "dilation_rate": [1, 1], "strides": [1, 1], "data_format": "channels_last", "trainable": false, "kernel_regularizer": null, "name": "res5b_branch2c", "activation": "linear", "kernel_initializer": {"config": {"mode": "fan_avg", "scale": 1.0, "distribution": "uniform", "seed": null}, "class_name": "VarianceScaling"}, "kernel_constraint": null, "bias_initializer": {"config": {}, "class_name": "Zeros"}}, "class_name": "Conv2D", "inbound_nodes": [[["activation_143", 0, 0, {}]]], "name": "res5b_branch2c"}, {"config": {"momentum": 0.99, "epsilon": 0.001, "moving_mean_initializer": {"config": {}, "class_name": "Zeros"}, "beta_regularizer": null, "scale": true, "gamma_initializer": {"config": {}, "class_name": "Ones"}, "name": "bn5b_branch2c", "trainable": false, "center": true, "moving_variance_initializer": {"config": {}, "class_name": "Ones"}, "beta_initializer": {"config": {}, "class_name": "Zeros"}, "beta_constraint": null, "gamma_constraint": null, "axis": 3, "gamma_regularizer": null}, "class_name": "BatchNormalization", "inbound_nodes": [[["res5b_branch2c", 0, 0, {}]]], "name": "bn5b_branch2c"}, {"config": {"name": "add_47", "trainable": false}, "class_name": "Add", "inbound_nodes": [[["bn5b_branch2c", 0, 0, {}], ["activation_141", 0, 0, {}]]], "name": "add_47"}, {"config": {"name": "activation_144", "activation": "relu", "trainable": false}, "class_name": "Activation", "inbound_nodes": [[["add_47", 0, 0, {}]]], "name": "activation_144"}, {"config": {"kernel_size": [1, 1], "bias_constraint": null, "padding": "valid", "bias_regularizer": null, "activity_regularizer": null, "use_bias": true, "filters": 512, "dilation_rate": [1, 1], "strides": [1, 1], "data_format": "channels_last", "trainable": false, "kernel_regularizer": null, "name": "res5c_branch2a", "activation": "linear", "kernel_initializer": {"config": {"mode": "fan_avg", "scale": 1.0, "distribution": "uniform", "seed": null}, "class_name": "VarianceScaling"}, "kernel_constraint": null, "bias_initializer": {"config": {}, "class_name": "Zeros"}}, "class_name": "Conv2D", "inbound_nodes": [[["activation_144", 0, 0, {}]]], "name": "res5c_branch2a"}, {"config": {"momentum": 0.99, "epsilon": 0.001, "moving_mean_initializer": {"config": {}, "class_name": "Zeros"}, "beta_regularizer": null, "scale": true, "gamma_initializer": {"config": {}, "class_name": "Ones"}, "name": "bn5c_branch2a", "trainable": false, "center": true, "moving_variance_initializer": {"config": {}, "class_name": "Ones"}, "beta_initializer": {"config": {}, "class_name": "Zeros"}, "beta_constraint": null, "gamma_constraint": null, "axis": 3, "gamma_regularizer": null}, "class_name": "BatchNormalization", "inbound_nodes": [[["res5c_branch2a", 0, 0, {}]]], "name": "bn5c_branch2a"}, {"config": {"name": "activation_145", "activation": "relu", "trainable": false}, "class_name": "Activation", "inbound_nodes": [[["bn5c_branch2a", 0, 0, {}]]], "name": "activation_145"}, {"config": {"kernel_size": [3, 3], "bias_constraint": null, "padding": "same", "bias_regularizer": null, "activity_regularizer": null, "use_bias": true, "filters": 512, "dilation_rate": [1, 1], "strides": [1, 1], "data_format": "channels_last", "trainable": false, "kernel_regularizer": null, "name": "res5c_branch2b", "activation": "linear", "kernel_initializer": {"config": {"mode": "fan_avg", "scale": 1.0, "distribution": "uniform", "seed": null}, "class_name": "VarianceScaling"}, "kernel_constraint": null, "bias_initializer": {"config": {}, "class_name": "Zeros"}}, "class_name": "Conv2D", "inbound_nodes": [[["activation_145", 0, 0, {}]]], "name": "res5c_branch2b"}, {"config": {"momentum": 0.99, "epsilon": 0.001, "moving_mean_initializer": {"config": {}, "class_name": "Zeros"}, "beta_regularizer": null, "scale": true, "gamma_initializer": {"config": {}, "class_name": "Ones"}, "name": "bn5c_branch2b", "trainable": false, "center": true, "moving_variance_initializer": {"config": {}, "class_name": "Ones"}, "beta_initializer": {"config": {}, "class_name": "Zeros"}, "beta_constraint": null, "gamma_constraint": null, "axis": 3, "gamma_regularizer": null}, "class_name": "BatchNormalization", "inbound_nodes": [[["res5c_branch2b", 0, 0, {}]]], "name": "bn5c_branch2b"}, {"config": {"name": "activation_146", "activation": "relu", "trainable": false}, "class_name": "Activation", "inbound_nodes": [[["bn5c_branch2b", 0, 0, {}]]], "name": "activation_146"}, {"config": {"kernel_size": [1, 1], "bias_constraint": null, "padding": "valid", "bias_regularizer": null, "activity_regularizer": null, "use_bias": true, "filters": 2048, "dilation_rate": [1, 1], "strides": [1, 1], "data_format": "channels_last", "trainable": false, "kernel_regularizer": null, "name": "res5c_branch2c", "activation": "linear", "kernel_initializer": {"config": {"mode": "fan_avg", "scale": 1.0, "distribution": "uniform", "seed": null}, "class_name": "VarianceScaling"}, "kernel_constraint": null, "bias_initializer": {"config": {}, "class_name": "Zeros"}}, "class_name": "Conv2D", "inbound_nodes": [[["activation_146", 0, 0, {}]]], "name": "res5c_branch2c"}, {"config": {"momentum": 0.99, "epsilon": 0.001, "moving_mean_initializer": {"config": {}, "class_name": "Zeros"}, "beta_regularizer": null, "scale": true, "gamma_initializer": {"config": {}, "class_name": "Ones"}, "name": "bn5c_branch2c", "trainable": false, "center": true, "moving_variance_initializer": {"config": {}, "class_name": "Ones"}, "beta_initializer": {"config": {}, "class_name": "Zeros"}, "beta_constraint": null, "gamma_constraint": null, "axis": 3, "gamma_regularizer": null}, "class_name": "BatchNormalization", "inbound_nodes": [[["res5c_branch2c", 0, 0, {}]]], "name": "bn5c_branch2c"}, {"config": {"name": "add_48", "trainable": false}, "class_name": "Add", "inbound_nodes": [[["bn5c_branch2c", 0, 0, {}], ["activation_144", 0, 0, {}]]], "name": "add_48"}, {"config": {"name": "activation_147", "activation": "relu", "trainable": false}, "class_name": "Activation", "inbound_nodes": [[["add_48", 0, 0, {}]]], "name": "activation_147"}, {"config": {"pool_size": [7, 7], "padding": "valid", "strides": [7, 7], "data_format": "channels_last", "name": "avg_pool", "trainable": false}, "class_name": "AveragePooling2D", "inbound_nodes": [[["activation_147", 0, 0, {}]]], "name": "avg_pool"}, {"config": {"name": "global_average_pooling2d_6", "data_format": "channels_last", "trainable": false}, "class_name": "GlobalAveragePooling2D", "inbound_nodes": [[["avg_pool", 0, 0, {}]]], "name": "global_average_pooling2d_6"}, {"config": {"bias_constraint": null, "bias_regularizer": null, "activity_regularizer": null, "use_bias": true, "name": "dense_13", "trainable": true, "kernel_regularizer": null, "units": 1, "activation": "sigmoid", "kernel_initializer": {"config": {"mode": "fan_avg", "scale": 1.0, "distribution": "uniform", "seed": null}, "class_name": "VarianceScaling"}, "kernel_constraint": null, "bias_initializer": {"config": {}, "class_name": "Zeros"}}, "class_name": "Dense", "inbound_nodes": [[["global_average_pooling2d_6", 0, 0, {}]]], "name": "dense_13"}], "name": "model_3", "output_layers": [["dense_13", 0, 0]]}, "class_name": "Model", "keras_version": "2.0.6", "backend": "tensorflow"}