{"config": {"input_layers": [["input_11", 0, 0]], "layers": [{"inbound_nodes": [], "config": {"sparse": false, "dtype": "float32", "batch_input_shape": [null, 224, 224, 3], "name": "input_11"}, "name": "input_11", "class_name": "InputLayer"}, {"inbound_nodes": [[["input_11", 0, 0, {}]]], "config": {"padding": [[3, 3], [3, 3]], "data_format": "channels_last", "name": "zero_padding2d_11", "trainable": false}, "name": "zero_padding2d_11", "class_name": "ZeroPadding2D"}, {"inbound_nodes": [[["zero_padding2d_11", 0, 0, {}]]], "config": {"padding": "valid", "bias_initializer": {"config": {}, "class_name": "Zeros"}, "trainable": false, "bias_regularizer": null, "name": "conv1", "use_bias": true, "activation": "linear", "strides": [2, 2], "kernel_initializer": {"config": {"scale": 1.0, "seed": null, "distribution": "uniform", "mode": "fan_avg"}, "class_name": "VarianceScaling"}, "activity_regularizer": null, "dilation_rate": [1, 1], "filters": 64, "kernel_size": [7, 7], "kernel_constraint": null, "bias_constraint": null, "data_format": "channels_last", "kernel_regularizer": null}, "name": "conv1", "class_name": "Conv2D"}, {"inbound_nodes": [[["conv1", 0, 0, {}]]], "config": {"axis": 3, "beta_constraint": null, "trainable": false, "name": "bn_conv1", "moving_variance_initializer": {"config": {}, "class_name": "Ones"}, "gamma_constraint": null, "momentum": 0.99, "epsilon": 0.001, "gamma_regularizer": null, "gamma_initializer": {"config": {}, "class_name": "Ones"}, "scale": true, "beta_regularizer": null, "center": true, "beta_initializer": {"config": {}, "class_name": "Zeros"}, "moving_mean_initializer": {"config": {}, "class_name": "Zeros"}}, "name": "bn_conv1", "class_name": "BatchNormalization"}, {"inbound_nodes": [[["bn_conv1", 0, 0, {}]]], "config": {"activation": "relu", "trainable": false, "name": "activation_500"}, "name": "activation_500", "class_name": "Activation"}, {"inbound_nodes": [[["activation_500", 0, 0, {}]]], "config": {"padding": "valid", "pool_size": [3, 3], "trainable": false, "name": "max_pooling2d_11", "data_format": "channels_last", "strides": [2, 2]}, "name": "max_pooling2d_11", "class_name": "MaxPooling2D"}, {"inbound_nodes": [[["max_pooling2d_11", 0, 0, {}]]], "config": {"padding": "valid", "bias_initializer": {"config": {}, "class_name": "Zeros"}, "trainable": false, "bias_regularizer": null, "name": "res2a_branch2a", "use_bias": true, "activation": "linear", "strides": [1, 1], "kernel_initializer": {"config": {"scale": 1.0, "seed": null, "distribution": "uniform", "mode": "fan_avg"}, "class_name": "VarianceScaling"}, "activity_regularizer": null, "dilation_rate": [1, 1], "filters": 64, "kernel_size": [1, 1], "kernel_constraint": null, "bias_constraint": null, "data_format": "channels_last", "kernel_regularizer": null}, "name": "res2a_branch2a", "class_name": "Conv2D"}, {"inbound_nodes": [[["res2a_branch2a", 0, 0, {}]]], "config": {"axis": 3, "beta_constraint": null, "trainable": false, "name": "bn2a_branch2a", "moving_variance_initializer": {"config": {}, "class_name": "Ones"}, "gamma_constraint": null, "momentum": 0.99, "epsilon": 0.001, "gamma_regularizer": null, "gamma_initializer": {"config": {}, "class_name": "Ones"}, "scale": true, "beta_regularizer": null, "center": true, "beta_initializer": {"config": {}, "class_name": "Zeros"}, "moving_mean_initializer": {"config": {}, "class_name": "Zeros"}}, "name": "bn2a_branch2a", "class_name": "BatchNormalization"}, {"inbound_nodes": [[["bn2a_branch2a", 0, 0, {}]]], "config": {"activation": "relu", "trainable": false, "name": "activation_501"}, "name": "activation_501", "class_name": "Activation"}, {"inbound_nodes": [[["activation_501", 0, 0, {}]]], "config": {"padding": "same", "bias_initializer": {"config": {}, "class_name": "Zeros"}, "trainable": false, "bias_regularizer": null, "name": "res2a_branch2b", "use_bias": true, "activation": "linear", "strides": [1, 1], "kernel_initializer": {"config": {"scale": 1.0, "seed": null, "distribution": "uniform", "mode": "fan_avg"}, "class_name": "VarianceScaling"}, "activity_regularizer": null, "dilation_rate": [1, 1], "filters": 64, "kernel_size": [3, 3], "kernel_constraint": null, "bias_constraint": null, "data_format": "channels_last", "kernel_regularizer": null}, "name": "res2a_branch2b", "class_name": "Conv2D"}, {"inbound_nodes": [[["res2a_branch2b", 0, 0, {}]]], "config": {"axis": 3, "beta_constraint": null, "trainable": false, "name": "bn2a_branch2b", "moving_variance_initializer": {"config": {}, "class_name": "Ones"}, "gamma_constraint": null, "momentum": 0.99, "epsilon": 0.001, "gamma_regularizer": null, "gamma_initializer": {"config": {}, "class_name": "Ones"}, "scale": true, "beta_regularizer": null, "center": true, "beta_initializer": {"config": {}, "class_name": "Zeros"}, "moving_mean_initializer": {"config": {}, "class_name": "Zeros"}}, "name": "bn2a_branch2b", "class_name": "BatchNormalization"}, {"inbound_nodes": [[["bn2a_branch2b", 0, 0, {}]]], "config": {"activation": "relu", "trainable": false, "name": "activation_502"}, "name": "activation_502", "class_name": "Activation"}, {"inbound_nodes": [[["activation_502", 0, 0, {}]]], "config": {"padding": "valid", "bias_initializer": {"config": {}, "class_name": "Zeros"}, "trainable": false, "bias_regularizer": null, "name": "res2a_branch2c", "use_bias": true, "activation": "linear", "strides": [1, 1], "kernel_initializer": {"config": {"scale": 1.0, "seed": null, "distribution": "uniform", "mode": "fan_avg"}, "class_name": "VarianceScaling"}, "activity_regularizer": null, "dilation_rate": [1, 1], "filters": 256, "kernel_size": [1, 1], "kernel_constraint": null, "bias_constraint": null, "data_format": "channels_last", "kernel_regularizer": null}, "name": "res2a_branch2c", "class_name": "Conv2D"}, {"inbound_nodes": [[["max_pooling2d_11", 0, 0, {}]]], "config": {"padding": "valid", "bias_initializer": {"config": {}, "class_name": "Zeros"}, "trainable": false, "bias_regularizer": null, "name": "res2a_branch1", "use_bias": true, "activation": "linear", "strides": [1, 1], "kernel_initializer": {"config": {"scale": 1.0, "seed": null, "distribution": "uniform", "mode": "fan_avg"}, "class_name": "VarianceScaling"}, "activity_regularizer": null, "dilation_rate": [1, 1], "filters": 256, "kernel_size": [1, 1], "kernel_constraint": null, "bias_constraint": null, "data_format": "channels_last", "kernel_regularizer": null}, "name": "res2a_branch1", "class_name": "Conv2D"}, {"inbound_nodes": [[["res2a_branch2c", 0, 0, {}]]], "config": {"axis": 3, "beta_constraint": null, "trainable": false, "name": "bn2a_branch2c", "moving_variance_initializer": {"config": {}, "class_name": "Ones"}, "gamma_constraint": null, "momentum": 0.99, "epsilon": 0.001, "gamma_regularizer": null, "gamma_initializer": {"config": {}, "class_name": "Ones"}, "scale": true, "beta_regularizer": null, "center": true, "beta_initializer": {"config": {}, "class_name": "Zeros"}, "moving_mean_initializer": {"config": {}, "class_name": "Zeros"}}, "name": "bn2a_branch2c", "class_name": "BatchNormalization"}, {"inbound_nodes": [[["res2a_branch1", 0, 0, {}]]], "config": {"axis": 3, "beta_constraint": null, "trainable": false, "name": "bn2a_branch1", "moving_variance_initializer": {"config": {}, "class_name": "Ones"}, "gamma_constraint": null, "momentum": 0.99, "epsilon": 0.001, "gamma_regularizer": null, "gamma_initializer": {"config": {}, "class_name": "Ones"}, "scale": true, "beta_regularizer": null, "center": true, "beta_initializer": {"config": {}, "class_name": "Zeros"}, "moving_mean_initializer": {"config": {}, "class_name": "Zeros"}}, "name": "bn2a_branch1", "class_name": "BatchNormalization"}, {"inbound_nodes": [[["bn2a_branch2c", 0, 0, {}], ["bn2a_branch1", 0, 0, {}]]], "config": {"trainable": false, "name": "add_161"}, "name": "add_161", "class_name": "Add"}, {"inbound_nodes": [[["add_161", 0, 0, {}]]], "config": {"activation": "relu", "trainable": false, "name": "activation_503"}, "name": "activation_503", "class_name": "Activation"}, {"inbound_nodes": [[["activation_503", 0, 0, {}]]], "config": {"padding": "valid", "bias_initializer": {"config": {}, "class_name": "Zeros"}, "trainable": false, "bias_regularizer": null, "name": "res2b_branch2a", "use_bias": true, "activation": "linear", "strides": [1, 1], "kernel_initializer": {"config": {"scale": 1.0, "seed": null, "distribution": "uniform", "mode": "fan_avg"}, "class_name": "VarianceScaling"}, "activity_regularizer": null, "dilation_rate": [1, 1], "filters": 64, "kernel_size": [1, 1], "kernel_constraint": null, "bias_constraint": null, "data_format": "channels_last", "kernel_regularizer": null}, "name": "res2b_branch2a", "class_name": "Conv2D"}, {"inbound_nodes": [[["res2b_branch2a", 0, 0, {}]]], "config": {"axis": 3, "beta_constraint": null, "trainable": false, "name": "bn2b_branch2a", "moving_variance_initializer": {"config": {}, "class_name": "Ones"}, "gamma_constraint": null, "momentum": 0.99, "epsilon": 0.001, "gamma_regularizer": null, "gamma_initializer": {"config": {}, "class_name": "Ones"}, "scale": true, "beta_regularizer": null, "center": true, "beta_initializer": {"config": {}, "class_name": "Zeros"}, "moving_mean_initializer": {"config": {}, "class_name": "Zeros"}}, "name": "bn2b_branch2a", "class_name": "BatchNormalization"}, {"inbound_nodes": [[["bn2b_branch2a", 0, 0, {}]]], "config": {"activation": "relu", "trainable": false, "name": "activation_504"}, "name": "activation_504", "class_name": "Activation"}, {"inbound_nodes": [[["activation_504", 0, 0, {}]]], "config": {"padding": "same", "bias_initializer": {"config": {}, "class_name": "Zeros"}, "trainable": false, "bias_regularizer": null, "name": "res2b_branch2b", "use_bias": true, "activation": "linear", "strides": [1, 1], "kernel_initializer": {"config": {"scale": 1.0, "seed": null, "distribution": "uniform", "mode": "fan_avg"}, "class_name": "VarianceScaling"}, "activity_regularizer": null, "dilation_rate": [1, 1], "filters": 64, "kernel_size": [3, 3], "kernel_constraint": null, "bias_constraint": null, "data_format": "channels_last", "kernel_regularizer": null}, "name": "res2b_branch2b", "class_name": "Conv2D"}, {"inbound_nodes": [[["res2b_branch2b", 0, 0, {}]]], "config": {"axis": 3, "beta_constraint": null, "trainable": false, "name": "bn2b_branch2b", "moving_variance_initializer": {"config": {}, "class_name": "Ones"}, "gamma_constraint": null, "momentum": 0.99, "epsilon": 0.001, "gamma_regularizer": null, "gamma_initializer": {"config": {}, "class_name": "Ones"}, "scale": true, "beta_regularizer": null, "center": true, "beta_initializer": {"config": {}, "class_name": "Zeros"}, "moving_mean_initializer": {"config": {}, "class_name": "Zeros"}}, "name": "bn2b_branch2b", "class_name": "BatchNormalization"}, {"inbound_nodes": [[["bn2b_branch2b", 0, 0, {}]]], "config": {"activation": "relu", "trainable": false, "name": "activation_505"}, "name": "activation_505", "class_name": "Activation"}, {"inbound_nodes": [[["activation_505", 0, 0, {}]]], "config": {"padding": "valid", "bias_initializer": {"config": {}, "class_name": "Zeros"}, "trainable": false, "bias_regularizer": null, "name": "res2b_branch2c", "use_bias": true, "activation": "linear", "strides": [1, 1], "kernel_initializer": {"config": {"scale": 1.0, "seed": null, "distribution": "uniform", "mode": "fan_avg"}, "class_name": "VarianceScaling"}, "activity_regularizer": null, "dilation_rate": [1, 1], "filters": 256, "kernel_size": [1, 1], "kernel_constraint": null, "bias_constraint": null, "data_format": "channels_last", "kernel_regularizer": null}, "name": "res2b_branch2c", "class_name": "Conv2D"}, {"inbound_nodes": [[["res2b_branch2c", 0, 0, {}]]], "config": {"axis": 3, "beta_constraint": null, "trainable": false, "name": "bn2b_branch2c", "moving_variance_initializer": {"config": {}, "class_name": "Ones"}, "gamma_constraint": null, "momentum": 0.99, "epsilon": 0.001, "gamma_regularizer": null, "gamma_initializer": {"config": {}, "class_name": "Ones"}, "scale": true, "beta_regularizer": null, "center": true, "beta_initializer": {"config": {}, "class_name": "Zeros"}, "moving_mean_initializer": {"config": {}, "class_name": "Zeros"}}, "name": "bn2b_branch2c", "class_name": "BatchNormalization"}, {"inbound_nodes": [[["bn2b_branch2c", 0, 0, {}], ["activation_503", 0, 0, {}]]], "config": {"trainable": false, "name": "add_162"}, "name": "add_162", "class_name": "Add"}, {"inbound_nodes": [[["add_162", 0, 0, {}]]], "config": {"activation": "relu", "trainable": false, "name": "activation_506"}, "name": "activation_506", "class_name": "Activation"}, {"inbound_nodes": [[["activation_506", 0, 0, {}]]], "config": {"padding": "valid", "bias_initializer": {"config": {}, "class_name": "Zeros"}, "trainable": false, "bias_regularizer": null, "name": "res2c_branch2a", "use_bias": true, "activation": "linear", "strides": [1, 1], "kernel_initializer": {"config": {"scale": 1.0, "seed": null, "distribution": "uniform", "mode": "fan_avg"}, "class_name": "VarianceScaling"}, "activity_regularizer": null, "dilation_rate": [1, 1], "filters": 64, "kernel_size": [1, 1], "kernel_constraint": null, "bias_constraint": null, "data_format": "channels_last", "kernel_regularizer": null}, "name": "res2c_branch2a", "class_name": "Conv2D"}, {"inbound_nodes": [[["res2c_branch2a", 0, 0, {}]]], "config": {"axis": 3, "beta_constraint": null, "trainable": false, "name": "bn2c_branch2a", "moving_variance_initializer": {"config": {}, "class_name": "Ones"}, "gamma_constraint": null, "momentum": 0.99, "epsilon": 0.001, "gamma_regularizer": null, "gamma_initializer": {"config": {}, "class_name": "Ones"}, "scale": true, "beta_regularizer": null, "center": true, "beta_initializer": {"config": {}, "class_name": "Zeros"}, "moving_mean_initializer": {"config": {}, "class_name": "Zeros"}}, "name": "bn2c_branch2a", "class_name": "BatchNormalization"}, {"inbound_nodes": [[["bn2c_branch2a", 0, 0, {}]]], "config": {"activation": "relu", "trainable": false, "name": "activation_507"}, "name": "activation_507", "class_name": "Activation"}, {"inbound_nodes": [[["activation_507", 0, 0, {}]]], "config": {"padding": "same", "bias_initializer": {"config": {}, "class_name": "Zeros"}, "trainable": false, "bias_regularizer": null, "name": "res2c_branch2b", "use_bias": true, "activation": "linear", "strides": [1, 1], "kernel_initializer": {"config": {"scale": 1.0, "seed": null, "distribution": "uniform", "mode": "fan_avg"}, "class_name": "VarianceScaling"}, "activity_regularizer": null, "dilation_rate": [1, 1], "filters": 64, "kernel_size": [3, 3], "kernel_constraint": null, "bias_constraint": null, "data_format": "channels_last", "kernel_regularizer": null}, "name": "res2c_branch2b", "class_name": "Conv2D"}, {"inbound_nodes": [[["res2c_branch2b", 0, 0, {}]]], "config": {"axis": 3, "beta_constraint": null, "trainable": false, "name": "bn2c_branch2b", "moving_variance_initializer": {"config": {}, "class_name": "Ones"}, "gamma_constraint": null, "momentum": 0.99, "epsilon": 0.001, "gamma_regularizer": null, "gamma_initializer": {"config": {}, "class_name": "Ones"}, "scale": true, "beta_regularizer": null, "center": true, "beta_initializer": {"config": {}, "class_name": "Zeros"}, "moving_mean_initializer": {"config": {}, "class_name": "Zeros"}}, "name": "bn2c_branch2b", "class_name": "BatchNormalization"}, {"inbound_nodes": [[["bn2c_branch2b", 0, 0, {}]]], "config": {"activation": "relu", "trainable": false, "name": "activation_508"}, "name": "activation_508", "class_name": "Activation"}, {"inbound_nodes": [[["activation_508", 0, 0, {}]]], "config": {"padding": "valid", "bias_initializer": {"config": {}, "class_name": "Zeros"}, "trainable": false, "bias_regularizer": null, "name": "res2c_branch2c", "use_bias": true, "activation": "linear", "strides": [1, 1], "kernel_initializer": {"config": {"scale": 1.0, "seed": null, "distribution": "uniform", "mode": "fan_avg"}, "class_name": "VarianceScaling"}, "activity_regularizer": null, "dilation_rate": [1, 1], "filters": 256, "kernel_size": [1, 1], "kernel_constraint": null, "bias_constraint": null, "data_format": "channels_last", "kernel_regularizer": null}, "name": "res2c_branch2c", "class_name": "Conv2D"}, {"inbound_nodes": [[["res2c_branch2c", 0, 0, {}]]], "config": {"axis": 3, "beta_constraint": null, "trainable": false, "name": "bn2c_branch2c", "moving_variance_initializer": {"config": {}, "class_name": "Ones"}, "gamma_constraint": null, "momentum": 0.99, "epsilon": 0.001, "gamma_regularizer": null, "gamma_initializer": {"config": {}, "class_name": "Ones"}, "scale": true, "beta_regularizer": null, "center": true, "beta_initializer": {"config": {}, "class_name": "Zeros"}, "moving_mean_initializer": {"config": {}, "class_name": "Zeros"}}, "name": "bn2c_branch2c", "class_name": "BatchNormalization"}, {"inbound_nodes": [[["bn2c_branch2c", 0, 0, {}], ["activation_506", 0, 0, {}]]], "config": {"trainable": false, "name": "add_163"}, "name": "add_163", "class_name": "Add"}, {"inbound_nodes": [[["add_163", 0, 0, {}]]], "config": {"activation": "relu", "trainable": false, "name": "activation_509"}, "name": "activation_509", "class_name": "Activation"}, {"inbound_nodes": [[["activation_509", 0, 0, {}]]], "config": {"padding": "valid", "bias_initializer": {"config": {}, "class_name": "Zeros"}, "trainable": false, "bias_regularizer": null, "name": "res3a_branch2a", "use_bias": true, "activation": "linear", "strides": [2, 2], "kernel_initializer": {"config": {"scale": 1.0, "seed": null, "distribution": "uniform", "mode": "fan_avg"}, "class_name": "VarianceScaling"}, "activity_regularizer": null, "dilation_rate": [1, 1], "filters": 128, "kernel_size": [1, 1], "kernel_constraint": null, "bias_constraint": null, "data_format": "channels_last", "kernel_regularizer": null}, "name": "res3a_branch2a", "class_name": "Conv2D"}, {"inbound_nodes": [[["res3a_branch2a", 0, 0, {}]]], "config": {"axis": 3, "beta_constraint": null, "trainable": false, "name": "bn3a_branch2a", "moving_variance_initializer": {"config": {}, "class_name": "Ones"}, "gamma_constraint": null, "momentum": 0.99, "epsilon": 0.001, "gamma_regularizer": null, "gamma_initializer": {"config": {}, "class_name": "Ones"}, "scale": true, "beta_regularizer": null, "center": true, "beta_initializer": {"config": {}, "class_name": "Zeros"}, "moving_mean_initializer": {"config": {}, "class_name": "Zeros"}}, "name": "bn3a_branch2a", "class_name": "BatchNormalization"}, {"inbound_nodes": [[["bn3a_branch2a", 0, 0, {}]]], "config": {"activation": "relu", "trainable": false, "name": "activation_510"}, "name": "activation_510", "class_name": "Activation"}, {"inbound_nodes": [[["activation_510", 0, 0, {}]]], "config": {"padding": "same", "bias_initializer": {"config": {}, "class_name": "Zeros"}, "trainable": false, "bias_regularizer": null, "name": "res3a_branch2b", "use_bias": true, "activation": "linear", "strides": [1, 1], "kernel_initializer": {"config": {"scale": 1.0, "seed": null, "distribution": "uniform", "mode": "fan_avg"}, "class_name": "VarianceScaling"}, "activity_regularizer": null, "dilation_rate": [1, 1], "filters": 128, "kernel_size": [3, 3], "kernel_constraint": null, "bias_constraint": null, "data_format": "channels_last", "kernel_regularizer": null}, "name": "res3a_branch2b", "class_name": "Conv2D"}, {"inbound_nodes": [[["res3a_branch2b", 0, 0, {}]]], "config": {"axis": 3, "beta_constraint": null, "trainable": false, "name": "bn3a_branch2b", "moving_variance_initializer": {"config": {}, "class_name": "Ones"}, "gamma_constraint": null, "momentum": 0.99, "epsilon": 0.001, "gamma_regularizer": null, "gamma_initializer": {"config": {}, "class_name": "Ones"}, "scale": true, "beta_regularizer": null, "center": true, "beta_initializer": {"config": {}, "class_name": "Zeros"}, "moving_mean_initializer": {"config": {}, "class_name": "Zeros"}}, "name": "bn3a_branch2b", "class_name": "BatchNormalization"}, {"inbound_nodes": [[["bn3a_branch2b", 0, 0, {}]]], "config": {"activation": "relu", "trainable": false, "name": "activation_511"}, "name": "activation_511", "class_name": "Activation"}, {"inbound_nodes": [[["activation_511", 0, 0, {}]]], "config": {"padding": "valid", "bias_initializer": {"config": {}, "class_name": "Zeros"}, "trainable": false, "bias_regularizer": null, "name": "res3a_branch2c", "use_bias": true, "activation": "linear", "strides": [1, 1], "kernel_initializer": {"config": {"scale": 1.0, "seed": null, "distribution": "uniform", "mode": "fan_avg"}, "class_name": "VarianceScaling"}, "activity_regularizer": null, "dilation_rate": [1, 1], "filters": 512, "kernel_size": [1, 1], "kernel_constraint": null, "bias_constraint": null, "data_format": "channels_last", "kernel_regularizer": null}, "name": "res3a_branch2c", "class_name": "Conv2D"}, {"inbound_nodes": [[["activation_509", 0, 0, {}]]], "config": {"padding": "valid", "bias_initializer": {"config": {}, "class_name": "Zeros"}, "trainable": false, "bias_regularizer": null, "name": "res3a_branch1", "use_bias": true, "activation": "linear", "strides": [2, 2], "kernel_initializer": {"config": {"scale": 1.0, "seed": null, "distribution": "uniform", "mode": "fan_avg"}, "class_name": "VarianceScaling"}, "activity_regularizer": null, "dilation_rate": [1, 1], "filters": 512, "kernel_size": [1, 1], "kernel_constraint": null, "bias_constraint": null, "data_format": "channels_last", "kernel_regularizer": null}, "name": "res3a_branch1", "class_name": "Conv2D"}, {"inbound_nodes": [[["res3a_branch2c", 0, 0, {}]]], "config": {"axis": 3, "beta_constraint": null, "trainable": false, "name": "bn3a_branch2c", "moving_variance_initializer": {"config": {}, "class_name": "Ones"}, "gamma_constraint": null, "momentum": 0.99, "epsilon": 0.001, "gamma_regularizer": null, "gamma_initializer": {"config": {}, "class_name": "Ones"}, "scale": true, "beta_regularizer": null, "center": true, "beta_initializer": {"config": {}, "class_name": "Zeros"}, "moving_mean_initializer": {"config": {}, "class_name": "Zeros"}}, "name": "bn3a_branch2c", "class_name": "BatchNormalization"}, {"inbound_nodes": [[["res3a_branch1", 0, 0, {}]]], "config": {"axis": 3, "beta_constraint": null, "trainable": false, "name": "bn3a_branch1", "moving_variance_initializer": {"config": {}, "class_name": "Ones"}, "gamma_constraint": null, "momentum": 0.99, "epsilon": 0.001, "gamma_regularizer": null, "gamma_initializer": {"config": {}, "class_name": "Ones"}, "scale": true, "beta_regularizer": null, "center": true, "beta_initializer": {"config": {}, "class_name": "Zeros"}, "moving_mean_initializer": {"config": {}, "class_name": "Zeros"}}, "name": "bn3a_branch1", "class_name": "BatchNormalization"}, {"inbound_nodes": [[["bn3a_branch2c", 0, 0, {}], ["bn3a_branch1", 0, 0, {}]]], "config": {"trainable": false, "name": "add_164"}, "name": "add_164", "class_name": "Add"}, {"inbound_nodes": [[["add_164", 0, 0, {}]]], "config": {"activation": "relu", "trainable": false, "name": "activation_512"}, "name": "activation_512", "class_name": "Activation"}, {"inbound_nodes": [[["activation_512", 0, 0, {}]]], "config": {"padding": "valid", "bias_initializer": {"config": {}, "class_name": "Zeros"}, "trainable": false, "bias_regularizer": null, "name": "res3b_branch2a", "use_bias": true, "activation": "linear", "strides": [1, 1], "kernel_initializer": {"config": {"scale": 1.0, "seed": null, "distribution": "uniform", "mode": "fan_avg"}, "class_name": "VarianceScaling"}, "activity_regularizer": null, "dilation_rate": [1, 1], "filters": 128, "kernel_size": [1, 1], "kernel_constraint": null, "bias_constraint": null, "data_format": "channels_last", "kernel_regularizer": null}, "name": "res3b_branch2a", "class_name": "Conv2D"}, {"inbound_nodes": [[["res3b_branch2a", 0, 0, {}]]], "config": {"axis": 3, "beta_constraint": null, "trainable": false, "name": "bn3b_branch2a", "moving_variance_initializer": {"config": {}, "class_name": "Ones"}, "gamma_constraint": null, "momentum": 0.99, "epsilon": 0.001, "gamma_regularizer": null, "gamma_initializer": {"config": {}, "class_name": "Ones"}, "scale": true, "beta_regularizer": null, "center": true, "beta_initializer": {"config": {}, "class_name": "Zeros"}, "moving_mean_initializer": {"config": {}, "class_name": "Zeros"}}, "name": "bn3b_branch2a", "class_name": "BatchNormalization"}, {"inbound_nodes": [[["bn3b_branch2a", 0, 0, {}]]], "config": {"activation": "relu", "trainable": false, "name": "activation_513"}, "name": "activation_513", "class_name": "Activation"}, {"inbound_nodes": [[["activation_513", 0, 0, {}]]], "config": {"padding": "same", "bias_initializer": {"config": {}, "class_name": "Zeros"}, "trainable": false, "bias_regularizer": null, "name": "res3b_branch2b", "use_bias": true, "activation": "linear", "strides": [1, 1], "kernel_initializer": {"config": {"scale": 1.0, "seed": null, "distribution": "uniform", "mode": "fan_avg"}, "class_name": "VarianceScaling"}, "activity_regularizer": null, "dilation_rate": [1, 1], "filters": 128, "kernel_size": [3, 3], "kernel_constraint": null, "bias_constraint": null, "data_format": "channels_last", "kernel_regularizer": null}, "name": "res3b_branch2b", "class_name": "Conv2D"}, {"inbound_nodes": [[["res3b_branch2b", 0, 0, {}]]], "config": {"axis": 3, "beta_constraint": null, "trainable": false, "name": "bn3b_branch2b", "moving_variance_initializer": {"config": {}, "class_name": "Ones"}, "gamma_constraint": null, "momentum": 0.99, "epsilon": 0.001, "gamma_regularizer": null, "gamma_initializer": {"config": {}, "class_name": "Ones"}, "scale": true, "beta_regularizer": null, "center": true, "beta_initializer": {"config": {}, "class_name": "Zeros"}, "moving_mean_initializer": {"config": {}, "class_name": "Zeros"}}, "name": "bn3b_branch2b", "class_name": "BatchNormalization"}, {"inbound_nodes": [[["bn3b_branch2b", 0, 0, {}]]], "config": {"activation": "relu", "trainable": false, "name": "activation_514"}, "name": "activation_514", "class_name": "Activation"}, {"inbound_nodes": [[["activation_514", 0, 0, {}]]], "config": {"padding": "valid", "bias_initializer": {"config": {}, "class_name": "Zeros"}, "trainable": false, "bias_regularizer": null, "name": "res3b_branch2c", "use_bias": true, "activation": "linear", "strides": [1, 1], "kernel_initializer": {"config": {"scale": 1.0, "seed": null, "distribution": "uniform", "mode": "fan_avg"}, "class_name": "VarianceScaling"}, "activity_regularizer": null, "dilation_rate": [1, 1], "filters": 512, "kernel_size": [1, 1], "kernel_constraint": null, "bias_constraint": null, "data_format": "channels_last", "kernel_regularizer": null}, "name": "res3b_branch2c", "class_name": "Conv2D"}, {"inbound_nodes": [[["res3b_branch2c", 0, 0, {}]]], "config": {"axis": 3, "beta_constraint": null, "trainable": false, "name": "bn3b_branch2c", "moving_variance_initializer": {"config": {}, "class_name": "Ones"}, "gamma_constraint": null, "momentum": 0.99, "epsilon": 0.001, "gamma_regularizer": null, "gamma_initializer": {"config": {}, "class_name": "Ones"}, "scale": true, "beta_regularizer": null, "center": true, "beta_initializer": {"config": {}, "class_name": "Zeros"}, "moving_mean_initializer": {"config": {}, "class_name": "Zeros"}}, "name": "bn3b_branch2c", "class_name": "BatchNormalization"}, {"inbound_nodes": [[["bn3b_branch2c", 0, 0, {}], ["activation_512", 0, 0, {}]]], "config": {"trainable": false, "name": "add_165"}, "name": "add_165", "class_name": "Add"}, {"inbound_nodes": [[["add_165", 0, 0, {}]]], "config": {"activation": "relu", "trainable": false, "name": "activation_515"}, "name": "activation_515", "class_name": "Activation"}, {"inbound_nodes": [[["activation_515", 0, 0, {}]]], "config": {"padding": "valid", "bias_initializer": {"config": {}, "class_name": "Zeros"}, "trainable": false, "bias_regularizer": null, "name": "res3c_branch2a", "use_bias": true, "activation": "linear", "strides": [1, 1], "kernel_initializer": {"config": {"scale": 1.0, "seed": null, "distribution": "uniform", "mode": "fan_avg"}, "class_name": "VarianceScaling"}, "activity_regularizer": null, "dilation_rate": [1, 1], "filters": 128, "kernel_size": [1, 1], "kernel_constraint": null, "bias_constraint": null, "data_format": "channels_last", "kernel_regularizer": null}, "name": "res3c_branch2a", "class_name": "Conv2D"}, {"inbound_nodes": [[["res3c_branch2a", 0, 0, {}]]], "config": {"axis": 3, "beta_constraint": null, "trainable": false, "name": "bn3c_branch2a", "moving_variance_initializer": {"config": {}, "class_name": "Ones"}, "gamma_constraint": null, "momentum": 0.99, "epsilon": 0.001, "gamma_regularizer": null, "gamma_initializer": {"config": {}, "class_name": "Ones"}, "scale": true, "beta_regularizer": null, "center": true, "beta_initializer": {"config": {}, "class_name": "Zeros"}, "moving_mean_initializer": {"config": {}, "class_name": "Zeros"}}, "name": "bn3c_branch2a", "class_name": "BatchNormalization"}, {"inbound_nodes": [[["bn3c_branch2a", 0, 0, {}]]], "config": {"activation": "relu", "trainable": false, "name": "activation_516"}, "name": "activation_516", "class_name": "Activation"}, {"inbound_nodes": [[["activation_516", 0, 0, {}]]], "config": {"padding": "same", "bias_initializer": {"config": {}, "class_name": "Zeros"}, "trainable": false, "bias_regularizer": null, "name": "res3c_branch2b", "use_bias": true, "activation": "linear", "strides": [1, 1], "kernel_initializer": {"config": {"scale": 1.0, "seed": null, "distribution": "uniform", "mode": "fan_avg"}, "class_name": "VarianceScaling"}, "activity_regularizer": null, "dilation_rate": [1, 1], "filters": 128, "kernel_size": [3, 3], "kernel_constraint": null, "bias_constraint": null, "data_format": "channels_last", "kernel_regularizer": null}, "name": "res3c_branch2b", "class_name": "Conv2D"}, {"inbound_nodes": [[["res3c_branch2b", 0, 0, {}]]], "config": {"axis": 3, "beta_constraint": null, "trainable": false, "name": "bn3c_branch2b", "moving_variance_initializer": {"config": {}, "class_name": "Ones"}, "gamma_constraint": null, "momentum": 0.99, "epsilon": 0.001, "gamma_regularizer": null, "gamma_initializer": {"config": {}, "class_name": "Ones"}, "scale": true, "beta_regularizer": null, "center": true, "beta_initializer": {"config": {}, "class_name": "Zeros"}, "moving_mean_initializer": {"config": {}, "class_name": "Zeros"}}, "name": "bn3c_branch2b", "class_name": "BatchNormalization"}, {"inbound_nodes": [[["bn3c_branch2b", 0, 0, {}]]], "config": {"activation": "relu", "trainable": false, "name": "activation_517"}, "name": "activation_517", "class_name": "Activation"}, {"inbound_nodes": [[["activation_517", 0, 0, {}]]], "config": {"padding": "valid", "bias_initializer": {"config": {}, "class_name": "Zeros"}, "trainable": false, "bias_regularizer": null, "name": "res3c_branch2c", "use_bias": true, "activation": "linear", "strides": [1, 1], "kernel_initializer": {"config": {"scale": 1.0, "seed": null, "distribution": "uniform", "mode": "fan_avg"}, "class_name": "VarianceScaling"}, "activity_regularizer": null, "dilation_rate": [1, 1], "filters": 512, "kernel_size": [1, 1], "kernel_constraint": null, "bias_constraint": null, "data_format": "channels_last", "kernel_regularizer": null}, "name": "res3c_branch2c", "class_name": "Conv2D"}, {"inbound_nodes": [[["res3c_branch2c", 0, 0, {}]]], "config": {"axis": 3, "beta_constraint": null, "trainable": false, "name": "bn3c_branch2c", "moving_variance_initializer": {"config": {}, "class_name": "Ones"}, "gamma_constraint": null, "momentum": 0.99, "epsilon": 0.001, "gamma_regularizer": null, "gamma_initializer": {"config": {}, "class_name": "Ones"}, "scale": true, "beta_regularizer": null, "center": true, "beta_initializer": {"config": {}, "class_name": "Zeros"}, "moving_mean_initializer": {"config": {}, "class_name": "Zeros"}}, "name": "bn3c_branch2c", "class_name": "BatchNormalization"}, {"inbound_nodes": [[["bn3c_branch2c", 0, 0, {}], ["activation_515", 0, 0, {}]]], "config": {"trainable": false, "name": "add_166"}, "name": "add_166", "class_name": "Add"}, {"inbound_nodes": [[["add_166", 0, 0, {}]]], "config": {"activation": "relu", "trainable": false, "name": "activation_518"}, "name": "activation_518", "class_name": "Activation"}, {"inbound_nodes": [[["activation_518", 0, 0, {}]]], "config": {"padding": "valid", "bias_initializer": {"config": {}, "class_name": "Zeros"}, "trainable": false, "bias_regularizer": null, "name": "res3d_branch2a", "use_bias": true, "activation": "linear", "strides": [1, 1], "kernel_initializer": {"config": {"scale": 1.0, "seed": null, "distribution": "uniform", "mode": "fan_avg"}, "class_name": "VarianceScaling"}, "activity_regularizer": null, "dilation_rate": [1, 1], "filters": 128, "kernel_size": [1, 1], "kernel_constraint": null, "bias_constraint": null, "data_format": "channels_last", "kernel_regularizer": null}, "name": "res3d_branch2a", "class_name": "Conv2D"}, {"inbound_nodes": [[["res3d_branch2a", 0, 0, {}]]], "config": {"axis": 3, "beta_constraint": null, "trainable": false, "name": "bn3d_branch2a", "moving_variance_initializer": {"config": {}, "class_name": "Ones"}, "gamma_constraint": null, "momentum": 0.99, "epsilon": 0.001, "gamma_regularizer": null, "gamma_initializer": {"config": {}, "class_name": "Ones"}, "scale": true, "beta_regularizer": null, "center": true, "beta_initializer": {"config": {}, "class_name": "Zeros"}, "moving_mean_initializer": {"config": {}, "class_name": "Zeros"}}, "name": "bn3d_branch2a", "class_name": "BatchNormalization"}, {"inbound_nodes": [[["bn3d_branch2a", 0, 0, {}]]], "config": {"activation": "relu", "trainable": false, "name": "activation_519"}, "name": "activation_519", "class_name": "Activation"}, {"inbound_nodes": [[["activation_519", 0, 0, {}]]], "config": {"padding": "same", "bias_initializer": {"config": {}, "class_name": "Zeros"}, "trainable": false, "bias_regularizer": null, "name": "res3d_branch2b", "use_bias": true, "activation": "linear", "strides": [1, 1], "kernel_initializer": {"config": {"scale": 1.0, "seed": null, "distribution": "uniform", "mode": "fan_avg"}, "class_name": "VarianceScaling"}, "activity_regularizer": null, "dilation_rate": [1, 1], "filters": 128, "kernel_size": [3, 3], "kernel_constraint": null, "bias_constraint": null, "data_format": "channels_last", "kernel_regularizer": null}, "name": "res3d_branch2b", "class_name": "Conv2D"}, {"inbound_nodes": [[["res3d_branch2b", 0, 0, {}]]], "config": {"axis": 3, "beta_constraint": null, "trainable": false, "name": "bn3d_branch2b", "moving_variance_initializer": {"config": {}, "class_name": "Ones"}, "gamma_constraint": null, "momentum": 0.99, "epsilon": 0.001, "gamma_regularizer": null, "gamma_initializer": {"config": {}, "class_name": "Ones"}, "scale": true, "beta_regularizer": null, "center": true, "beta_initializer": {"config": {}, "class_name": "Zeros"}, "moving_mean_initializer": {"config": {}, "class_name": "Zeros"}}, "name": "bn3d_branch2b", "class_name": "BatchNormalization"}, {"inbound_nodes": [[["bn3d_branch2b", 0, 0, {}]]], "config": {"activation": "relu", "trainable": false, "name": "activation_520"}, "name": "activation_520", "class_name": "Activation"}, {"inbound_nodes": [[["activation_520", 0, 0, {}]]], "config": {"padding": "valid", "bias_initializer": {"config": {}, "class_name": "Zeros"}, "trainable": false, "bias_regularizer": null, "name": "res3d_branch2c", "use_bias": true, "activation": "linear", "strides": [1, 1], "kernel_initializer": {"config": {"scale": 1.0, "seed": null, "distribution": "uniform", "mode": "fan_avg"}, "class_name": "VarianceScaling"}, "activity_regularizer": null, "dilation_rate": [1, 1], "filters": 512, "kernel_size": [1, 1], "kernel_constraint": null, "bias_constraint": null, "data_format": "channels_last", "kernel_regularizer": null}, "name": "res3d_branch2c", "class_name": "Conv2D"}, {"inbound_nodes": [[["res3d_branch2c", 0, 0, {}]]], "config": {"axis": 3, "beta_constraint": null, "trainable": false, "name": "bn3d_branch2c", "moving_variance_initializer": {"config": {}, "class_name": "Ones"}, "gamma_constraint": null, "momentum": 0.99, "epsilon": 0.001, "gamma_regularizer": null, "gamma_initializer": {"config": {}, "class_name": "Ones"}, "scale": true, "beta_regularizer": null, "center": true, "beta_initializer": {"config": {}, "class_name": "Zeros"}, "moving_mean_initializer": {"config": {}, "class_name": "Zeros"}}, "name": "bn3d_branch2c", "class_name": "BatchNormalization"}, {"inbound_nodes": [[["bn3d_branch2c", 0, 0, {}], ["activation_518", 0, 0, {}]]], "config": {"trainable": false, "name": "add_167"}, "name": "add_167", "class_name": "Add"}, {"inbound_nodes": [[["add_167", 0, 0, {}]]], "config": {"activation": "relu", "trainable": false, "name": "activation_521"}, "name": "activation_521", "class_name": "Activation"}, {"inbound_nodes": [[["activation_521", 0, 0, {}]]], "config": {"padding": "valid", "bias_initializer": {"config": {}, "class_name": "Zeros"}, "trainable": false, "bias_regularizer": null, "name": "res4a_branch2a", "use_bias": true, "activation": "linear", "strides": [2, 2], "kernel_initializer": {"config": {"scale": 1.0, "seed": null, "distribution": "uniform", "mode": "fan_avg"}, "class_name": "VarianceScaling"}, "activity_regularizer": null, "dilation_rate": [1, 1], "filters": 256, "kernel_size": [1, 1], "kernel_constraint": null, "bias_constraint": null, "data_format": "channels_last", "kernel_regularizer": null}, "name": "res4a_branch2a", "class_name": "Conv2D"}, {"inbound_nodes": [[["res4a_branch2a", 0, 0, {}]]], "config": {"axis": 3, "beta_constraint": null, "trainable": false, "name": "bn4a_branch2a", "moving_variance_initializer": {"config": {}, "class_name": "Ones"}, "gamma_constraint": null, "momentum": 0.99, "epsilon": 0.001, "gamma_regularizer": null, "gamma_initializer": {"config": {}, "class_name": "Ones"}, "scale": true, "beta_regularizer": null, "center": true, "beta_initializer": {"config": {}, "class_name": "Zeros"}, "moving_mean_initializer": {"config": {}, "class_name": "Zeros"}}, "name": "bn4a_branch2a", "class_name": "BatchNormalization"}, {"inbound_nodes": [[["bn4a_branch2a", 0, 0, {}]]], "config": {"activation": "relu", "trainable": false, "name": "activation_522"}, "name": "activation_522", "class_name": "Activation"}, {"inbound_nodes": [[["activation_522", 0, 0, {}]]], "config": {"padding": "same", "bias_initializer": {"config": {}, "class_name": "Zeros"}, "trainable": false, "bias_regularizer": null, "name": "res4a_branch2b", "use_bias": true, "activation": "linear", "strides": [1, 1], "kernel_initializer": {"config": {"scale": 1.0, "seed": null, "distribution": "uniform", "mode": "fan_avg"}, "class_name": "VarianceScaling"}, "activity_regularizer": null, "dilation_rate": [1, 1], "filters": 256, "kernel_size": [3, 3], "kernel_constraint": null, "bias_constraint": null, "data_format": "channels_last", "kernel_regularizer": null}, "name": "res4a_branch2b", "class_name": "Conv2D"}, {"inbound_nodes": [[["res4a_branch2b", 0, 0, {}]]], "config": {"axis": 3, "beta_constraint": null, "trainable": false, "name": "bn4a_branch2b", "moving_variance_initializer": {"config": {}, "class_name": "Ones"}, "gamma_constraint": null, "momentum": 0.99, "epsilon": 0.001, "gamma_regularizer": null, "gamma_initializer": {"config": {}, "class_name": "Ones"}, "scale": true, "beta_regularizer": null, "center": true, "beta_initializer": {"config": {}, "class_name": "Zeros"}, "moving_mean_initializer": {"config": {}, "class_name": "Zeros"}}, "name": "bn4a_branch2b", "class_name": "BatchNormalization"}, {"inbound_nodes": [[["bn4a_branch2b", 0, 0, {}]]], "config": {"activation": "relu", "trainable": false, "name": "activation_523"}, "name": "activation_523", "class_name": "Activation"}, {"inbound_nodes": [[["activation_523", 0, 0, {}]]], "config": {"padding": "valid", "bias_initializer": {"config": {}, "class_name": "Zeros"}, "trainable": false, "bias_regularizer": null, "name": "res4a_branch2c", "use_bias": true, "activation": "linear", "strides": [1, 1], "kernel_initializer": {"config": {"scale": 1.0, "seed": null, "distribution": "uniform", "mode": "fan_avg"}, "class_name": "VarianceScaling"}, "activity_regularizer": null, "dilation_rate": [1, 1], "filters": 1024, "kernel_size": [1, 1], "kernel_constraint": null, "bias_constraint": null, "data_format": "channels_last", "kernel_regularizer": null}, "name": "res4a_branch2c", "class_name": "Conv2D"}, {"inbound_nodes": [[["activation_521", 0, 0, {}]]], "config": {"padding": "valid", "bias_initializer": {"config": {}, "class_name": "Zeros"}, "trainable": false, "bias_regularizer": null, "name": "res4a_branch1", "use_bias": true, "activation": "linear", "strides": [2, 2], "kernel_initializer": {"config": {"scale": 1.0, "seed": null, "distribution": "uniform", "mode": "fan_avg"}, "class_name": "VarianceScaling"}, "activity_regularizer": null, "dilation_rate": [1, 1], "filters": 1024, "kernel_size": [1, 1], "kernel_constraint": null, "bias_constraint": null, "data_format": "channels_last", "kernel_regularizer": null}, "name": "res4a_branch1", "class_name": "Conv2D"}, {"inbound_nodes": [[["res4a_branch2c", 0, 0, {}]]], "config": {"axis": 3, "beta_constraint": null, "trainable": false, "name": "bn4a_branch2c", "moving_variance_initializer": {"config": {}, "class_name": "Ones"}, "gamma_constraint": null, "momentum": 0.99, "epsilon": 0.001, "gamma_regularizer": null, "gamma_initializer": {"config": {}, "class_name": "Ones"}, "scale": true, "beta_regularizer": null, "center": true, "beta_initializer": {"config": {}, "class_name": "Zeros"}, "moving_mean_initializer": {"config": {}, "class_name": "Zeros"}}, "name": "bn4a_branch2c", "class_name": "BatchNormalization"}, {"inbound_nodes": [[["res4a_branch1", 0, 0, {}]]], "config": {"axis": 3, "beta_constraint": null, "trainable": false, "name": "bn4a_branch1", "moving_variance_initializer": {"config": {}, "class_name": "Ones"}, "gamma_constraint": null, "momentum": 0.99, "epsilon": 0.001, "gamma_regularizer": null, "gamma_initializer": {"config": {}, "class_name": "Ones"}, "scale": true, "beta_regularizer": null, "center": true, "beta_initializer": {"config": {}, "class_name": "Zeros"}, "moving_mean_initializer": {"config": {}, "class_name": "Zeros"}}, "name": "bn4a_branch1", "class_name": "BatchNormalization"}, {"inbound_nodes": [[["bn4a_branch2c", 0, 0, {}], ["bn4a_branch1", 0, 0, {}]]], "config": {"trainable": false, "name": "add_168"}, "name": "add_168", "class_name": "Add"}, {"inbound_nodes": [[["add_168", 0, 0, {}]]], "config": {"activation": "relu", "trainable": false, "name": "activation_524"}, "name": "activation_524", "class_name": "Activation"}, {"inbound_nodes": [[["activation_524", 0, 0, {}]]], "config": {"padding": "valid", "bias_initializer": {"config": {}, "class_name": "Zeros"}, "trainable": false, "bias_regularizer": null, "name": "res4b_branch2a", "use_bias": true, "activation": "linear", "strides": [1, 1], "kernel_initializer": {"config": {"scale": 1.0, "seed": null, "distribution": "uniform", "mode": "fan_avg"}, "class_name": "VarianceScaling"}, "activity_regularizer": null, "dilation_rate": [1, 1], "filters": 256, "kernel_size": [1, 1], "kernel_constraint": null, "bias_constraint": null, "data_format": "channels_last", "kernel_regularizer": null}, "name": "res4b_branch2a", "class_name": "Conv2D"}, {"inbound_nodes": [[["res4b_branch2a", 0, 0, {}]]], "config": {"axis": 3, "beta_constraint": null, "trainable": false, "name": "bn4b_branch2a", "moving_variance_initializer": {"config": {}, "class_name": "Ones"}, "gamma_constraint": null, "momentum": 0.99, "epsilon": 0.001, "gamma_regularizer": null, "gamma_initializer": {"config": {}, "class_name": "Ones"}, "scale": true, "beta_regularizer": null, "center": true, "beta_initializer": {"config": {}, "class_name": "Zeros"}, "moving_mean_initializer": {"config": {}, "class_name": "Zeros"}}, "name": "bn4b_branch2a", "class_name": "BatchNormalization"}, {"inbound_nodes": [[["bn4b_branch2a", 0, 0, {}]]], "config": {"activation": "relu", "trainable": false, "name": "activation_525"}, "name": "activation_525", "class_name": "Activation"}, {"inbound_nodes": [[["activation_525", 0, 0, {}]]], "config": {"padding": "same", "bias_initializer": {"config": {}, "class_name": "Zeros"}, "trainable": false, "bias_regularizer": null, "name": "res4b_branch2b", "use_bias": true, "activation": "linear", "strides": [1, 1], "kernel_initializer": {"config": {"scale": 1.0, "seed": null, "distribution": "uniform", "mode": "fan_avg"}, "class_name": "VarianceScaling"}, "activity_regularizer": null, "dilation_rate": [1, 1], "filters": 256, "kernel_size": [3, 3], "kernel_constraint": null, "bias_constraint": null, "data_format": "channels_last", "kernel_regularizer": null}, "name": "res4b_branch2b", "class_name": "Conv2D"}, {"inbound_nodes": [[["res4b_branch2b", 0, 0, {}]]], "config": {"axis": 3, "beta_constraint": null, "trainable": false, "name": "bn4b_branch2b", "moving_variance_initializer": {"config": {}, "class_name": "Ones"}, "gamma_constraint": null, "momentum": 0.99, "epsilon": 0.001, "gamma_regularizer": null, "gamma_initializer": {"config": {}, "class_name": "Ones"}, "scale": true, "beta_regularizer": null, "center": true, "beta_initializer": {"config": {}, "class_name": "Zeros"}, "moving_mean_initializer": {"config": {}, "class_name": "Zeros"}}, "name": "bn4b_branch2b", "class_name": "BatchNormalization"}, {"inbound_nodes": [[["bn4b_branch2b", 0, 0, {}]]], "config": {"activation": "relu", "trainable": false, "name": "activation_526"}, "name": "activation_526", "class_name": "Activation"}, {"inbound_nodes": [[["activation_526", 0, 0, {}]]], "config": {"padding": "valid", "bias_initializer": {"config": {}, "class_name": "Zeros"}, "trainable": false, "bias_regularizer": null, "name": "res4b_branch2c", "use_bias": true, "activation": "linear", "strides": [1, 1], "kernel_initializer": {"config": {"scale": 1.0, "seed": null, "distribution": "uniform", "mode": "fan_avg"}, "class_name": "VarianceScaling"}, "activity_regularizer": null, "dilation_rate": [1, 1], "filters": 1024, "kernel_size": [1, 1], "kernel_constraint": null, "bias_constraint": null, "data_format": "channels_last", "kernel_regularizer": null}, "name": "res4b_branch2c", "class_name": "Conv2D"}, {"inbound_nodes": [[["res4b_branch2c", 0, 0, {}]]], "config": {"axis": 3, "beta_constraint": null, "trainable": false, "name": "bn4b_branch2c", "moving_variance_initializer": {"config": {}, "class_name": "Ones"}, "gamma_constraint": null, "momentum": 0.99, "epsilon": 0.001, "gamma_regularizer": null, "gamma_initializer": {"config": {}, "class_name": "Ones"}, "scale": true, "beta_regularizer": null, "center": true, "beta_initializer": {"config": {}, "class_name": "Zeros"}, "moving_mean_initializer": {"config": {}, "class_name": "Zeros"}}, "name": "bn4b_branch2c", "class_name": "BatchNormalization"}, {"inbound_nodes": [[["bn4b_branch2c", 0, 0, {}], ["activation_524", 0, 0, {}]]], "config": {"trainable": false, "name": "add_169"}, "name": "add_169", "class_name": "Add"}, {"inbound_nodes": [[["add_169", 0, 0, {}]]], "config": {"activation": "relu", "trainable": false, "name": "activation_527"}, "name": "activation_527", "class_name": "Activation"}, {"inbound_nodes": [[["activation_527", 0, 0, {}]]], "config": {"padding": "valid", "bias_initializer": {"config": {}, "class_name": "Zeros"}, "trainable": false, "bias_regularizer": null, "name": "res4c_branch2a", "use_bias": true, "activation": "linear", "strides": [1, 1], "kernel_initializer": {"config": {"scale": 1.0, "seed": null, "distribution": "uniform", "mode": "fan_avg"}, "class_name": "VarianceScaling"}, "activity_regularizer": null, "dilation_rate": [1, 1], "filters": 256, "kernel_size": [1, 1], "kernel_constraint": null, "bias_constraint": null, "data_format": "channels_last", "kernel_regularizer": null}, "name": "res4c_branch2a", "class_name": "Conv2D"}, {"inbound_nodes": [[["res4c_branch2a", 0, 0, {}]]], "config": {"axis": 3, "beta_constraint": null, "trainable": false, "name": "bn4c_branch2a", "moving_variance_initializer": {"config": {}, "class_name": "Ones"}, "gamma_constraint": null, "momentum": 0.99, "epsilon": 0.001, "gamma_regularizer": null, "gamma_initializer": {"config": {}, "class_name": "Ones"}, "scale": true, "beta_regularizer": null, "center": true, "beta_initializer": {"config": {}, "class_name": "Zeros"}, "moving_mean_initializer": {"config": {}, "class_name": "Zeros"}}, "name": "bn4c_branch2a", "class_name": "BatchNormalization"}, {"inbound_nodes": [[["bn4c_branch2a", 0, 0, {}]]], "config": {"activation": "relu", "trainable": false, "name": "activation_528"}, "name": "activation_528", "class_name": "Activation"}, {"inbound_nodes": [[["activation_528", 0, 0, {}]]], "config": {"padding": "same", "bias_initializer": {"config": {}, "class_name": "Zeros"}, "trainable": false, "bias_regularizer": null, "name": "res4c_branch2b", "use_bias": true, "activation": "linear", "strides": [1, 1], "kernel_initializer": {"config": {"scale": 1.0, "seed": null, "distribution": "uniform", "mode": "fan_avg"}, "class_name": "VarianceScaling"}, "activity_regularizer": null, "dilation_rate": [1, 1], "filters": 256, "kernel_size": [3, 3], "kernel_constraint": null, "bias_constraint": null, "data_format": "channels_last", "kernel_regularizer": null}, "name": "res4c_branch2b", "class_name": "Conv2D"}, {"inbound_nodes": [[["res4c_branch2b", 0, 0, {}]]], "config": {"axis": 3, "beta_constraint": null, "trainable": false, "name": "bn4c_branch2b", "moving_variance_initializer": {"config": {}, "class_name": "Ones"}, "gamma_constraint": null, "momentum": 0.99, "epsilon": 0.001, "gamma_regularizer": null, "gamma_initializer": {"config": {}, "class_name": "Ones"}, "scale": true, "beta_regularizer": null, "center": true, "beta_initializer": {"config": {}, "class_name": "Zeros"}, "moving_mean_initializer": {"config": {}, "class_name": "Zeros"}}, "name": "bn4c_branch2b", "class_name": "BatchNormalization"}, {"inbound_nodes": [[["bn4c_branch2b", 0, 0, {}]]], "config": {"activation": "relu", "trainable": false, "name": "activation_529"}, "name": "activation_529", "class_name": "Activation"}, {"inbound_nodes": [[["activation_529", 0, 0, {}]]], "config": {"padding": "valid", "bias_initializer": {"config": {}, "class_name": "Zeros"}, "trainable": false, "bias_regularizer": null, "name": "res4c_branch2c", "use_bias": true, "activation": "linear", "strides": [1, 1], "kernel_initializer": {"config": {"scale": 1.0, "seed": null, "distribution": "uniform", "mode": "fan_avg"}, "class_name": "VarianceScaling"}, "activity_regularizer": null, "dilation_rate": [1, 1], "filters": 1024, "kernel_size": [1, 1], "kernel_constraint": null, "bias_constraint": null, "data_format": "channels_last", "kernel_regularizer": null}, "name": "res4c_branch2c", "class_name": "Conv2D"}, {"inbound_nodes": [[["res4c_branch2c", 0, 0, {}]]], "config": {"axis": 3, "beta_constraint": null, "trainable": false, "name": "bn4c_branch2c", "moving_variance_initializer": {"config": {}, "class_name": "Ones"}, "gamma_constraint": null, "momentum": 0.99, "epsilon": 0.001, "gamma_regularizer": null, "gamma_initializer": {"config": {}, "class_name": "Ones"}, "scale": true, "beta_regularizer": null, "center": true, "beta_initializer": {"config": {}, "class_name": "Zeros"}, "moving_mean_initializer": {"config": {}, "class_name": "Zeros"}}, "name": "bn4c_branch2c", "class_name": "BatchNormalization"}, {"inbound_nodes": [[["bn4c_branch2c", 0, 0, {}], ["activation_527", 0, 0, {}]]], "config": {"trainable": false, "name": "add_170"}, "name": "add_170", "class_name": "Add"}, {"inbound_nodes": [[["add_170", 0, 0, {}]]], "config": {"activation": "relu", "trainable": false, "name": "activation_530"}, "name": "activation_530", "class_name": "Activation"}, {"inbound_nodes": [[["activation_530", 0, 0, {}]]], "config": {"padding": "valid", "bias_initializer": {"config": {}, "class_name": "Zeros"}, "trainable": false, "bias_regularizer": null, "name": "res4d_branch2a", "use_bias": true, "activation": "linear", "strides": [1, 1], "kernel_initializer": {"config": {"scale": 1.0, "seed": null, "distribution": "uniform", "mode": "fan_avg"}, "class_name": "VarianceScaling"}, "activity_regularizer": null, "dilation_rate": [1, 1], "filters": 256, "kernel_size": [1, 1], "kernel_constraint": null, "bias_constraint": null, "data_format": "channels_last", "kernel_regularizer": null}, "name": "res4d_branch2a", "class_name": "Conv2D"}, {"inbound_nodes": [[["res4d_branch2a", 0, 0, {}]]], "config": {"axis": 3, "beta_constraint": null, "trainable": false, "name": "bn4d_branch2a", "moving_variance_initializer": {"config": {}, "class_name": "Ones"}, "gamma_constraint": null, "momentum": 0.99, "epsilon": 0.001, "gamma_regularizer": null, "gamma_initializer": {"config": {}, "class_name": "Ones"}, "scale": true, "beta_regularizer": null, "center": true, "beta_initializer": {"config": {}, "class_name": "Zeros"}, "moving_mean_initializer": {"config": {}, "class_name": "Zeros"}}, "name": "bn4d_branch2a", "class_name": "BatchNormalization"}, {"inbound_nodes": [[["bn4d_branch2a", 0, 0, {}]]], "config": {"activation": "relu", "trainable": false, "name": "activation_531"}, "name": "activation_531", "class_name": "Activation"}, {"inbound_nodes": [[["activation_531", 0, 0, {}]]], "config": {"padding": "same", "bias_initializer": {"config": {}, "class_name": "Zeros"}, "trainable": false, "bias_regularizer": null, "name": "res4d_branch2b", "use_bias": true, "activation": "linear", "strides": [1, 1], "kernel_initializer": {"config": {"scale": 1.0, "seed": null, "distribution": "uniform", "mode": "fan_avg"}, "class_name": "VarianceScaling"}, "activity_regularizer": null, "dilation_rate": [1, 1], "filters": 256, "kernel_size": [3, 3], "kernel_constraint": null, "bias_constraint": null, "data_format": "channels_last", "kernel_regularizer": null}, "name": "res4d_branch2b", "class_name": "Conv2D"}, {"inbound_nodes": [[["res4d_branch2b", 0, 0, {}]]], "config": {"axis": 3, "beta_constraint": null, "trainable": false, "name": "bn4d_branch2b", "moving_variance_initializer": {"config": {}, "class_name": "Ones"}, "gamma_constraint": null, "momentum": 0.99, "epsilon": 0.001, "gamma_regularizer": null, "gamma_initializer": {"config": {}, "class_name": "Ones"}, "scale": true, "beta_regularizer": null, "center": true, "beta_initializer": {"config": {}, "class_name": "Zeros"}, "moving_mean_initializer": {"config": {}, "class_name": "Zeros"}}, "name": "bn4d_branch2b", "class_name": "BatchNormalization"}, {"inbound_nodes": [[["bn4d_branch2b", 0, 0, {}]]], "config": {"activation": "relu", "trainable": false, "name": "activation_532"}, "name": "activation_532", "class_name": "Activation"}, {"inbound_nodes": [[["activation_532", 0, 0, {}]]], "config": {"padding": "valid", "bias_initializer": {"config": {}, "class_name": "Zeros"}, "trainable": false, "bias_regularizer": null, "name": "res4d_branch2c", "use_bias": true, "activation": "linear", "strides": [1, 1], "kernel_initializer": {"config": {"scale": 1.0, "seed": null, "distribution": "uniform", "mode": "fan_avg"}, "class_name": "VarianceScaling"}, "activity_regularizer": null, "dilation_rate": [1, 1], "filters": 1024, "kernel_size": [1, 1], "kernel_constraint": null, "bias_constraint": null, "data_format": "channels_last", "kernel_regularizer": null}, "name": "res4d_branch2c", "class_name": "Conv2D"}, {"inbound_nodes": [[["res4d_branch2c", 0, 0, {}]]], "config": {"axis": 3, "beta_constraint": null, "trainable": false, "name": "bn4d_branch2c", "moving_variance_initializer": {"config": {}, "class_name": "Ones"}, "gamma_constraint": null, "momentum": 0.99, "epsilon": 0.001, "gamma_regularizer": null, "gamma_initializer": {"config": {}, "class_name": "Ones"}, "scale": true, "beta_regularizer": null, "center": true, "beta_initializer": {"config": {}, "class_name": "Zeros"}, "moving_mean_initializer": {"config": {}, "class_name": "Zeros"}}, "name": "bn4d_branch2c", "class_name": "BatchNormalization"}, {"inbound_nodes": [[["bn4d_branch2c", 0, 0, {}], ["activation_530", 0, 0, {}]]], "config": {"trainable": false, "name": "add_171"}, "name": "add_171", "class_name": "Add"}, {"inbound_nodes": [[["add_171", 0, 0, {}]]], "config": {"activation": "relu", "trainable": false, "name": "activation_533"}, "name": "activation_533", "class_name": "Activation"}, {"inbound_nodes": [[["activation_533", 0, 0, {}]]], "config": {"padding": "valid", "bias_initializer": {"config": {}, "class_name": "Zeros"}, "trainable": false, "bias_regularizer": null, "name": "res4e_branch2a", "use_bias": true, "activation": "linear", "strides": [1, 1], "kernel_initializer": {"config": {"scale": 1.0, "seed": null, "distribution": "uniform", "mode": "fan_avg"}, "class_name": "VarianceScaling"}, "activity_regularizer": null, "dilation_rate": [1, 1], "filters": 256, "kernel_size": [1, 1], "kernel_constraint": null, "bias_constraint": null, "data_format": "channels_last", "kernel_regularizer": null}, "name": "res4e_branch2a", "class_name": "Conv2D"}, {"inbound_nodes": [[["res4e_branch2a", 0, 0, {}]]], "config": {"axis": 3, "beta_constraint": null, "trainable": false, "name": "bn4e_branch2a", "moving_variance_initializer": {"config": {}, "class_name": "Ones"}, "gamma_constraint": null, "momentum": 0.99, "epsilon": 0.001, "gamma_regularizer": null, "gamma_initializer": {"config": {}, "class_name": "Ones"}, "scale": true, "beta_regularizer": null, "center": true, "beta_initializer": {"config": {}, "class_name": "Zeros"}, "moving_mean_initializer": {"config": {}, "class_name": "Zeros"}}, "name": "bn4e_branch2a", "class_name": "BatchNormalization"}, {"inbound_nodes": [[["bn4e_branch2a", 0, 0, {}]]], "config": {"activation": "relu", "trainable": false, "name": "activation_534"}, "name": "activation_534", "class_name": "Activation"}, {"inbound_nodes": [[["activation_534", 0, 0, {}]]], "config": {"padding": "same", "bias_initializer": {"config": {}, "class_name": "Zeros"}, "trainable": false, "bias_regularizer": null, "name": "res4e_branch2b", "use_bias": true, "activation": "linear", "strides": [1, 1], "kernel_initializer": {"config": {"scale": 1.0, "seed": null, "distribution": "uniform", "mode": "fan_avg"}, "class_name": "VarianceScaling"}, "activity_regularizer": null, "dilation_rate": [1, 1], "filters": 256, "kernel_size": [3, 3], "kernel_constraint": null, "bias_constraint": null, "data_format": "channels_last", "kernel_regularizer": null}, "name": "res4e_branch2b", "class_name": "Conv2D"}, {"inbound_nodes": [[["res4e_branch2b", 0, 0, {}]]], "config": {"axis": 3, "beta_constraint": null, "trainable": false, "name": "bn4e_branch2b", "moving_variance_initializer": {"config": {}, "class_name": "Ones"}, "gamma_constraint": null, "momentum": 0.99, "epsilon": 0.001, "gamma_regularizer": null, "gamma_initializer": {"config": {}, "class_name": "Ones"}, "scale": true, "beta_regularizer": null, "center": true, "beta_initializer": {"config": {}, "class_name": "Zeros"}, "moving_mean_initializer": {"config": {}, "class_name": "Zeros"}}, "name": "bn4e_branch2b", "class_name": "BatchNormalization"}, {"inbound_nodes": [[["bn4e_branch2b", 0, 0, {}]]], "config": {"activation": "relu", "trainable": false, "name": "activation_535"}, "name": "activation_535", "class_name": "Activation"}, {"inbound_nodes": [[["activation_535", 0, 0, {}]]], "config": {"padding": "valid", "bias_initializer": {"config": {}, "class_name": "Zeros"}, "trainable": false, "bias_regularizer": null, "name": "res4e_branch2c", "use_bias": true, "activation": "linear", "strides": [1, 1], "kernel_initializer": {"config": {"scale": 1.0, "seed": null, "distribution": "uniform", "mode": "fan_avg"}, "class_name": "VarianceScaling"}, "activity_regularizer": null, "dilation_rate": [1, 1], "filters": 1024, "kernel_size": [1, 1], "kernel_constraint": null, "bias_constraint": null, "data_format": "channels_last", "kernel_regularizer": null}, "name": "res4e_branch2c", "class_name": "Conv2D"}, {"inbound_nodes": [[["res4e_branch2c", 0, 0, {}]]], "config": {"axis": 3, "beta_constraint": null, "trainable": false, "name": "bn4e_branch2c", "moving_variance_initializer": {"config": {}, "class_name": "Ones"}, "gamma_constraint": null, "momentum": 0.99, "epsilon": 0.001, "gamma_regularizer": null, "gamma_initializer": {"config": {}, "class_name": "Ones"}, "scale": true, "beta_regularizer": null, "center": true, "beta_initializer": {"config": {}, "class_name": "Zeros"}, "moving_mean_initializer": {"config": {}, "class_name": "Zeros"}}, "name": "bn4e_branch2c", "class_name": "BatchNormalization"}, {"inbound_nodes": [[["bn4e_branch2c", 0, 0, {}], ["activation_533", 0, 0, {}]]], "config": {"trainable": false, "name": "add_172"}, "name": "add_172", "class_name": "Add"}, {"inbound_nodes": [[["add_172", 0, 0, {}]]], "config": {"activation": "relu", "trainable": false, "name": "activation_536"}, "name": "activation_536", "class_name": "Activation"}, {"inbound_nodes": [[["activation_536", 0, 0, {}]]], "config": {"padding": "valid", "bias_initializer": {"config": {}, "class_name": "Zeros"}, "trainable": false, "bias_regularizer": null, "name": "res4f_branch2a", "use_bias": true, "activation": "linear", "strides": [1, 1], "kernel_initializer": {"config": {"scale": 1.0, "seed": null, "distribution": "uniform", "mode": "fan_avg"}, "class_name": "VarianceScaling"}, "activity_regularizer": null, "dilation_rate": [1, 1], "filters": 256, "kernel_size": [1, 1], "kernel_constraint": null, "bias_constraint": null, "data_format": "channels_last", "kernel_regularizer": null}, "name": "res4f_branch2a", "class_name": "Conv2D"}, {"inbound_nodes": [[["res4f_branch2a", 0, 0, {}]]], "config": {"axis": 3, "beta_constraint": null, "trainable": false, "name": "bn4f_branch2a", "moving_variance_initializer": {"config": {}, "class_name": "Ones"}, "gamma_constraint": null, "momentum": 0.99, "epsilon": 0.001, "gamma_regularizer": null, "gamma_initializer": {"config": {}, "class_name": "Ones"}, "scale": true, "beta_regularizer": null, "center": true, "beta_initializer": {"config": {}, "class_name": "Zeros"}, "moving_mean_initializer": {"config": {}, "class_name": "Zeros"}}, "name": "bn4f_branch2a", "class_name": "BatchNormalization"}, {"inbound_nodes": [[["bn4f_branch2a", 0, 0, {}]]], "config": {"activation": "relu", "trainable": false, "name": "activation_537"}, "name": "activation_537", "class_name": "Activation"}, {"inbound_nodes": [[["activation_537", 0, 0, {}]]], "config": {"padding": "same", "bias_initializer": {"config": {}, "class_name": "Zeros"}, "trainable": false, "bias_regularizer": null, "name": "res4f_branch2b", "use_bias": true, "activation": "linear", "strides": [1, 1], "kernel_initializer": {"config": {"scale": 1.0, "seed": null, "distribution": "uniform", "mode": "fan_avg"}, "class_name": "VarianceScaling"}, "activity_regularizer": null, "dilation_rate": [1, 1], "filters": 256, "kernel_size": [3, 3], "kernel_constraint": null, "bias_constraint": null, "data_format": "channels_last", "kernel_regularizer": null}, "name": "res4f_branch2b", "class_name": "Conv2D"}, {"inbound_nodes": [[["res4f_branch2b", 0, 0, {}]]], "config": {"axis": 3, "beta_constraint": null, "trainable": false, "name": "bn4f_branch2b", "moving_variance_initializer": {"config": {}, "class_name": "Ones"}, "gamma_constraint": null, "momentum": 0.99, "epsilon": 0.001, "gamma_regularizer": null, "gamma_initializer": {"config": {}, "class_name": "Ones"}, "scale": true, "beta_regularizer": null, "center": true, "beta_initializer": {"config": {}, "class_name": "Zeros"}, "moving_mean_initializer": {"config": {}, "class_name": "Zeros"}}, "name": "bn4f_branch2b", "class_name": "BatchNormalization"}, {"inbound_nodes": [[["bn4f_branch2b", 0, 0, {}]]], "config": {"activation": "relu", "trainable": false, "name": "activation_538"}, "name": "activation_538", "class_name": "Activation"}, {"inbound_nodes": [[["activation_538", 0, 0, {}]]], "config": {"padding": "valid", "bias_initializer": {"config": {}, "class_name": "Zeros"}, "trainable": false, "bias_regularizer": null, "name": "res4f_branch2c", "use_bias": true, "activation": "linear", "strides": [1, 1], "kernel_initializer": {"config": {"scale": 1.0, "seed": null, "distribution": "uniform", "mode": "fan_avg"}, "class_name": "VarianceScaling"}, "activity_regularizer": null, "dilation_rate": [1, 1], "filters": 1024, "kernel_size": [1, 1], "kernel_constraint": null, "bias_constraint": null, "data_format": "channels_last", "kernel_regularizer": null}, "name": "res4f_branch2c", "class_name": "Conv2D"}, {"inbound_nodes": [[["res4f_branch2c", 0, 0, {}]]], "config": {"axis": 3, "beta_constraint": null, "trainable": false, "name": "bn4f_branch2c", "moving_variance_initializer": {"config": {}, "class_name": "Ones"}, "gamma_constraint": null, "momentum": 0.99, "epsilon": 0.001, "gamma_regularizer": null, "gamma_initializer": {"config": {}, "class_name": "Ones"}, "scale": true, "beta_regularizer": null, "center": true, "beta_initializer": {"config": {}, "class_name": "Zeros"}, "moving_mean_initializer": {"config": {}, "class_name": "Zeros"}}, "name": "bn4f_branch2c", "class_name": "BatchNormalization"}, {"inbound_nodes": [[["bn4f_branch2c", 0, 0, {}], ["activation_536", 0, 0, {}]]], "config": {"trainable": false, "name": "add_173"}, "name": "add_173", "class_name": "Add"}, {"inbound_nodes": [[["add_173", 0, 0, {}]]], "config": {"activation": "relu", "trainable": false, "name": "activation_539"}, "name": "activation_539", "class_name": "Activation"}, {"inbound_nodes": [[["activation_539", 0, 0, {}]]], "config": {"padding": "valid", "bias_initializer": {"config": {}, "class_name": "Zeros"}, "trainable": false, "bias_regularizer": null, "name": "res5a_branch2a", "use_bias": true, "activation": "linear", "strides": [2, 2], "kernel_initializer": {"config": {"scale": 1.0, "seed": null, "distribution": "uniform", "mode": "fan_avg"}, "class_name": "VarianceScaling"}, "activity_regularizer": null, "dilation_rate": [1, 1], "filters": 512, "kernel_size": [1, 1], "kernel_constraint": null, "bias_constraint": null, "data_format": "channels_last", "kernel_regularizer": null}, "name": "res5a_branch2a", "class_name": "Conv2D"}, {"inbound_nodes": [[["res5a_branch2a", 0, 0, {}]]], "config": {"axis": 3, "beta_constraint": null, "trainable": false, "name": "bn5a_branch2a", "moving_variance_initializer": {"config": {}, "class_name": "Ones"}, "gamma_constraint": null, "momentum": 0.99, "epsilon": 0.001, "gamma_regularizer": null, "gamma_initializer": {"config": {}, "class_name": "Ones"}, "scale": true, "beta_regularizer": null, "center": true, "beta_initializer": {"config": {}, "class_name": "Zeros"}, "moving_mean_initializer": {"config": {}, "class_name": "Zeros"}}, "name": "bn5a_branch2a", "class_name": "BatchNormalization"}, {"inbound_nodes": [[["bn5a_branch2a", 0, 0, {}]]], "config": {"activation": "relu", "trainable": false, "name": "activation_540"}, "name": "activation_540", "class_name": "Activation"}, {"inbound_nodes": [[["activation_540", 0, 0, {}]]], "config": {"padding": "same", "bias_initializer": {"config": {}, "class_name": "Zeros"}, "trainable": false, "bias_regularizer": null, "name": "res5a_branch2b", "use_bias": true, "activation": "linear", "strides": [1, 1], "kernel_initializer": {"config": {"scale": 1.0, "seed": null, "distribution": "uniform", "mode": "fan_avg"}, "class_name": "VarianceScaling"}, "activity_regularizer": null, "dilation_rate": [1, 1], "filters": 512, "kernel_size": [3, 3], "kernel_constraint": null, "bias_constraint": null, "data_format": "channels_last", "kernel_regularizer": null}, "name": "res5a_branch2b", "class_name": "Conv2D"}, {"inbound_nodes": [[["res5a_branch2b", 0, 0, {}]]], "config": {"axis": 3, "beta_constraint": null, "trainable": false, "name": "bn5a_branch2b", "moving_variance_initializer": {"config": {}, "class_name": "Ones"}, "gamma_constraint": null, "momentum": 0.99, "epsilon": 0.001, "gamma_regularizer": null, "gamma_initializer": {"config": {}, "class_name": "Ones"}, "scale": true, "beta_regularizer": null, "center": true, "beta_initializer": {"config": {}, "class_name": "Zeros"}, "moving_mean_initializer": {"config": {}, "class_name": "Zeros"}}, "name": "bn5a_branch2b", "class_name": "BatchNormalization"}, {"inbound_nodes": [[["bn5a_branch2b", 0, 0, {}]]], "config": {"activation": "relu", "trainable": false, "name": "activation_541"}, "name": "activation_541", "class_name": "Activation"}, {"inbound_nodes": [[["activation_541", 0, 0, {}]]], "config": {"padding": "valid", "bias_initializer": {"config": {}, "class_name": "Zeros"}, "trainable": false, "bias_regularizer": null, "name": "res5a_branch2c", "use_bias": true, "activation": "linear", "strides": [1, 1], "kernel_initializer": {"config": {"scale": 1.0, "seed": null, "distribution": "uniform", "mode": "fan_avg"}, "class_name": "VarianceScaling"}, "activity_regularizer": null, "dilation_rate": [1, 1], "filters": 2048, "kernel_size": [1, 1], "kernel_constraint": null, "bias_constraint": null, "data_format": "channels_last", "kernel_regularizer": null}, "name": "res5a_branch2c", "class_name": "Conv2D"}, {"inbound_nodes": [[["activation_539", 0, 0, {}]]], "config": {"padding": "valid", "bias_initializer": {"config": {}, "class_name": "Zeros"}, "trainable": false, "bias_regularizer": null, "name": "res5a_branch1", "use_bias": true, "activation": "linear", "strides": [2, 2], "kernel_initializer": {"config": {"scale": 1.0, "seed": null, "distribution": "uniform", "mode": "fan_avg"}, "class_name": "VarianceScaling"}, "activity_regularizer": null, "dilation_rate": [1, 1], "filters": 2048, "kernel_size": [1, 1], "kernel_constraint": null, "bias_constraint": null, "data_format": "channels_last", "kernel_regularizer": null}, "name": "res5a_branch1", "class_name": "Conv2D"}, {"inbound_nodes": [[["res5a_branch2c", 0, 0, {}]]], "config": {"axis": 3, "beta_constraint": null, "trainable": false, "name": "bn5a_branch2c", "moving_variance_initializer": {"config": {}, "class_name": "Ones"}, "gamma_constraint": null, "momentum": 0.99, "epsilon": 0.001, "gamma_regularizer": null, "gamma_initializer": {"config": {}, "class_name": "Ones"}, "scale": true, "beta_regularizer": null, "center": true, "beta_initializer": {"config": {}, "class_name": "Zeros"}, "moving_mean_initializer": {"config": {}, "class_name": "Zeros"}}, "name": "bn5a_branch2c", "class_name": "BatchNormalization"}, {"inbound_nodes": [[["res5a_branch1", 0, 0, {}]]], "config": {"axis": 3, "beta_constraint": null, "trainable": false, "name": "bn5a_branch1", "moving_variance_initializer": {"config": {}, "class_name": "Ones"}, "gamma_constraint": null, "momentum": 0.99, "epsilon": 0.001, "gamma_regularizer": null, "gamma_initializer": {"config": {}, "class_name": "Ones"}, "scale": true, "beta_regularizer": null, "center": true, "beta_initializer": {"config": {}, "class_name": "Zeros"}, "moving_mean_initializer": {"config": {}, "class_name": "Zeros"}}, "name": "bn5a_branch1", "class_name": "BatchNormalization"}, {"inbound_nodes": [[["bn5a_branch2c", 0, 0, {}], ["bn5a_branch1", 0, 0, {}]]], "config": {"trainable": false, "name": "add_174"}, "name": "add_174", "class_name": "Add"}, {"inbound_nodes": [[["add_174", 0, 0, {}]]], "config": {"activation": "relu", "trainable": false, "name": "activation_542"}, "name": "activation_542", "class_name": "Activation"}, {"inbound_nodes": [[["activation_542", 0, 0, {}]]], "config": {"padding": "valid", "bias_initializer": {"config": {}, "class_name": "Zeros"}, "trainable": false, "bias_regularizer": null, "name": "res5b_branch2a", "use_bias": true, "activation": "linear", "strides": [1, 1], "kernel_initializer": {"config": {"scale": 1.0, "seed": null, "distribution": "uniform", "mode": "fan_avg"}, "class_name": "VarianceScaling"}, "activity_regularizer": null, "dilation_rate": [1, 1], "filters": 512, "kernel_size": [1, 1], "kernel_constraint": null, "bias_constraint": null, "data_format": "channels_last", "kernel_regularizer": null}, "name": "res5b_branch2a", "class_name": "Conv2D"}, {"inbound_nodes": [[["res5b_branch2a", 0, 0, {}]]], "config": {"axis": 3, "beta_constraint": null, "trainable": false, "name": "bn5b_branch2a", "moving_variance_initializer": {"config": {}, "class_name": "Ones"}, "gamma_constraint": null, "momentum": 0.99, "epsilon": 0.001, "gamma_regularizer": null, "gamma_initializer": {"config": {}, "class_name": "Ones"}, "scale": true, "beta_regularizer": null, "center": true, "beta_initializer": {"config": {}, "class_name": "Zeros"}, "moving_mean_initializer": {"config": {}, "class_name": "Zeros"}}, "name": "bn5b_branch2a", "class_name": "BatchNormalization"}, {"inbound_nodes": [[["bn5b_branch2a", 0, 0, {}]]], "config": {"activation": "relu", "trainable": false, "name": "activation_543"}, "name": "activation_543", "class_name": "Activation"}, {"inbound_nodes": [[["activation_543", 0, 0, {}]]], "config": {"padding": "same", "bias_initializer": {"config": {}, "class_name": "Zeros"}, "trainable": false, "bias_regularizer": null, "name": "res5b_branch2b", "use_bias": true, "activation": "linear", "strides": [1, 1], "kernel_initializer": {"config": {"scale": 1.0, "seed": null, "distribution": "uniform", "mode": "fan_avg"}, "class_name": "VarianceScaling"}, "activity_regularizer": null, "dilation_rate": [1, 1], "filters": 512, "kernel_size": [3, 3], "kernel_constraint": null, "bias_constraint": null, "data_format": "channels_last", "kernel_regularizer": null}, "name": "res5b_branch2b", "class_name": "Conv2D"}, {"inbound_nodes": [[["res5b_branch2b", 0, 0, {}]]], "config": {"axis": 3, "beta_constraint": null, "trainable": false, "name": "bn5b_branch2b", "moving_variance_initializer": {"config": {}, "class_name": "Ones"}, "gamma_constraint": null, "momentum": 0.99, "epsilon": 0.001, "gamma_regularizer": null, "gamma_initializer": {"config": {}, "class_name": "Ones"}, "scale": true, "beta_regularizer": null, "center": true, "beta_initializer": {"config": {}, "class_name": "Zeros"}, "moving_mean_initializer": {"config": {}, "class_name": "Zeros"}}, "name": "bn5b_branch2b", "class_name": "BatchNormalization"}, {"inbound_nodes": [[["bn5b_branch2b", 0, 0, {}]]], "config": {"activation": "relu", "trainable": false, "name": "activation_544"}, "name": "activation_544", "class_name": "Activation"}, {"inbound_nodes": [[["activation_544", 0, 0, {}]]], "config": {"padding": "valid", "bias_initializer": {"config": {}, "class_name": "Zeros"}, "trainable": false, "bias_regularizer": null, "name": "res5b_branch2c", "use_bias": true, "activation": "linear", "strides": [1, 1], "kernel_initializer": {"config": {"scale": 1.0, "seed": null, "distribution": "uniform", "mode": "fan_avg"}, "class_name": "VarianceScaling"}, "activity_regularizer": null, "dilation_rate": [1, 1], "filters": 2048, "kernel_size": [1, 1], "kernel_constraint": null, "bias_constraint": null, "data_format": "channels_last", "kernel_regularizer": null}, "name": "res5b_branch2c", "class_name": "Conv2D"}, {"inbound_nodes": [[["res5b_branch2c", 0, 0, {}]]], "config": {"axis": 3, "beta_constraint": null, "trainable": false, "name": "bn5b_branch2c", "moving_variance_initializer": {"config": {}, "class_name": "Ones"}, "gamma_constraint": null, "momentum": 0.99, "epsilon": 0.001, "gamma_regularizer": null, "gamma_initializer": {"config": {}, "class_name": "Ones"}, "scale": true, "beta_regularizer": null, "center": true, "beta_initializer": {"config": {}, "class_name": "Zeros"}, "moving_mean_initializer": {"config": {}, "class_name": "Zeros"}}, "name": "bn5b_branch2c", "class_name": "BatchNormalization"}, {"inbound_nodes": [[["bn5b_branch2c", 0, 0, {}], ["activation_542", 0, 0, {}]]], "config": {"trainable": false, "name": "add_175"}, "name": "add_175", "class_name": "Add"}, {"inbound_nodes": [[["add_175", 0, 0, {}]]], "config": {"activation": "relu", "trainable": false, "name": "activation_545"}, "name": "activation_545", "class_name": "Activation"}, {"inbound_nodes": [[["activation_545", 0, 0, {}]]], "config": {"padding": "valid", "bias_initializer": {"config": {}, "class_name": "Zeros"}, "trainable": false, "bias_regularizer": null, "name": "res5c_branch2a", "use_bias": true, "activation": "linear", "strides": [1, 1], "kernel_initializer": {"config": {"scale": 1.0, "seed": null, "distribution": "uniform", "mode": "fan_avg"}, "class_name": "VarianceScaling"}, "activity_regularizer": null, "dilation_rate": [1, 1], "filters": 512, "kernel_size": [1, 1], "kernel_constraint": null, "bias_constraint": null, "data_format": "channels_last", "kernel_regularizer": null}, "name": "res5c_branch2a", "class_name": "Conv2D"}, {"inbound_nodes": [[["res5c_branch2a", 0, 0, {}]]], "config": {"axis": 3, "beta_constraint": null, "trainable": false, "name": "bn5c_branch2a", "moving_variance_initializer": {"config": {}, "class_name": "Ones"}, "gamma_constraint": null, "momentum": 0.99, "epsilon": 0.001, "gamma_regularizer": null, "gamma_initializer": {"config": {}, "class_name": "Ones"}, "scale": true, "beta_regularizer": null, "center": true, "beta_initializer": {"config": {}, "class_name": "Zeros"}, "moving_mean_initializer": {"config": {}, "class_name": "Zeros"}}, "name": "bn5c_branch2a", "class_name": "BatchNormalization"}, {"inbound_nodes": [[["bn5c_branch2a", 0, 0, {}]]], "config": {"activation": "relu", "trainable": false, "name": "activation_546"}, "name": "activation_546", "class_name": "Activation"}, {"inbound_nodes": [[["activation_546", 0, 0, {}]]], "config": {"padding": "same", "bias_initializer": {"config": {}, "class_name": "Zeros"}, "trainable": false, "bias_regularizer": null, "name": "res5c_branch2b", "use_bias": true, "activation": "linear", "strides": [1, 1], "kernel_initializer": {"config": {"scale": 1.0, "seed": null, "distribution": "uniform", "mode": "fan_avg"}, "class_name": "VarianceScaling"}, "activity_regularizer": null, "dilation_rate": [1, 1], "filters": 512, "kernel_size": [3, 3], "kernel_constraint": null, "bias_constraint": null, "data_format": "channels_last", "kernel_regularizer": null}, "name": "res5c_branch2b", "class_name": "Conv2D"}, {"inbound_nodes": [[["res5c_branch2b", 0, 0, {}]]], "config": {"axis": 3, "beta_constraint": null, "trainable": false, "name": "bn5c_branch2b", "moving_variance_initializer": {"config": {}, "class_name": "Ones"}, "gamma_constraint": null, "momentum": 0.99, "epsilon": 0.001, "gamma_regularizer": null, "gamma_initializer": {"config": {}, "class_name": "Ones"}, "scale": true, "beta_regularizer": null, "center": true, "beta_initializer": {"config": {}, "class_name": "Zeros"}, "moving_mean_initializer": {"config": {}, "class_name": "Zeros"}}, "name": "bn5c_branch2b", "class_name": "BatchNormalization"}, {"inbound_nodes": [[["bn5c_branch2b", 0, 0, {}]]], "config": {"activation": "relu", "trainable": false, "name": "activation_547"}, "name": "activation_547", "class_name": "Activation"}, {"inbound_nodes": [[["activation_547", 0, 0, {}]]], "config": {"padding": "valid", "bias_initializer": {"config": {}, "class_name": "Zeros"}, "trainable": false, "bias_regularizer": null, "name": "res5c_branch2c", "use_bias": true, "activation": "linear", "strides": [1, 1], "kernel_initializer": {"config": {"scale": 1.0, "seed": null, "distribution": "uniform", "mode": "fan_avg"}, "class_name": "VarianceScaling"}, "activity_regularizer": null, "dilation_rate": [1, 1], "filters": 2048, "kernel_size": [1, 1], "kernel_constraint": null, "bias_constraint": null, "data_format": "channels_last", "kernel_regularizer": null}, "name": "res5c_branch2c", "class_name": "Conv2D"}, {"inbound_nodes": [[["res5c_branch2c", 0, 0, {}]]], "config": {"axis": 3, "beta_constraint": null, "trainable": false, "name": "bn5c_branch2c", "moving_variance_initializer": {"config": {}, "class_name": "Ones"}, "gamma_constraint": null, "momentum": 0.99, "epsilon": 0.001, "gamma_regularizer": null, "gamma_initializer": {"config": {}, "class_name": "Ones"}, "scale": true, "beta_regularizer": null, "center": true, "beta_initializer": {"config": {}, "class_name": "Zeros"}, "moving_mean_initializer": {"config": {}, "class_name": "Zeros"}}, "name": "bn5c_branch2c", "class_name": "BatchNormalization"}, {"inbound_nodes": [[["bn5c_branch2c", 0, 0, {}], ["activation_545", 0, 0, {}]]], "config": {"trainable": false, "name": "add_176"}, "name": "add_176", "class_name": "Add"}, {"inbound_nodes": [[["add_176", 0, 0, {}]]], "config": {"activation": "relu", "trainable": false, "name": "activation_548"}, "name": "activation_548", "class_name": "Activation"}, {"inbound_nodes": [[["activation_548", 0, 0, {}]]], "config": {"padding": "valid", "pool_size": [7, 7], "trainable": false, "name": "avg_pool", "data_format": "channels_last", "strides": [7, 7]}, "name": "avg_pool", "class_name": "AveragePooling2D"}, {"inbound_nodes": [[["avg_pool", 0, 0, {}]]], "config": {"trainable": false, "data_format": "channels_last", "name": "global_average_pooling2d_11"}, "name": "global_average_pooling2d_11", "class_name": "GlobalAveragePooling2D"}, {"inbound_nodes": [[["global_average_pooling2d_11", 0, 0, {}]]], "config": {"bias_constraint": null, "bias_initializer": {"config": {}, "class_name": "Zeros"}, "trainable": true, "kernel_constraint": null, "name": "dense_19", "use_bias": true, "activation": "relu", "units": 256, "kernel_initializer": {"config": {"scale": 1.0, "seed": null, "distribution": "uniform", "mode": "fan_avg"}, "class_name": "VarianceScaling"}, "activity_regularizer": null, "kernel_regularizer": null, "bias_regularizer": null}, "name": "dense_19", "class_name": "Dense"}, {"inbound_nodes": [[["dense_19", 0, 0, {}]]], "config": {"axis": -1, "beta_constraint": null, "trainable": true, "name": "batch_normalization_15", "moving_variance_initializer": {"config": {}, "class_name": "Ones"}, "gamma_constraint": null, "momentum": 0.99, "epsilon": 0.001, "gamma_regularizer": null, "gamma_initializer": {"config": {}, "class_name": "Ones"}, "scale": true, "beta_regularizer": null, "center": true, "beta_initializer": {"config": {}, "class_name": "Zeros"}, "moving_mean_initializer": {"config": {}, "class_name": "Zeros"}}, "name": "batch_normalization_15", "class_name": "BatchNormalization"}, {"inbound_nodes": [[["batch_normalization_15", 0, 0, {}]]], "config": {"bias_constraint": null, "bias_initializer": {"config": {}, "class_name": "Zeros"}, "trainable": true, "kernel_constraint": null, "name": "dense_20", "use_bias": true, "activation": "sigmoid", "units": 1, "kernel_initializer": {"config": {"scale": 1.0, "seed": null, "distribution": "uniform", "mode": "fan_avg"}, "class_name": "VarianceScaling"}, "activity_regularizer": null, "kernel_regularizer": null, "bias_regularizer": null}, "name": "dense_20", "class_name": "Dense"}], "name": "model_9", "output_layers": [["dense_20", 0, 0]]}, "backend": "tensorflow", "class_name": "Model", "keras_version": "2.0.6"}